PathDependent/outputNN/_aversion_full_D4_d2_dest1_orig1_average_fiu0_1_fix100_gi1_Depth4_fsigmasq100sigma0_1_sigma00_gamma0_1_gamma00_0.pth (torch, 41679 bytes, 96 tensors)

first.weight f4 [18, 17]
0	0x3d1f136a	0.038836874
1	0x3eb00a00	0.3438263
2	0xbceeb5b9	-0.029139386
3	0x3d38af68	0.045089155
4	0x3e1e70f5	0.15472777
5	0xbd9c30e8	-0.076265156
6	0xbe7b4e9e	-0.24541709
7	0x3e3172c3	0.17328934
8	0xbe305e71	-0.17223527
9	0x3de3faa9	0.11131794
10	0xbe131abc	-0.14365667
11	0x3e376d70	0.17912841
12	0x3e953180	0.29139328
13	0x3cd7fd2a	0.026365835
14	0xbdbc6dcb	-0.09200629
15	0xbe0e837a	-0.13917342
16	0x3e4dc002	0.20092776
17	0xbe7459f7	-0.23862444
18	0x3eb45556	0.35221356
19	0xbcb4c054	-0.022064365
20	0xbdc655b4	-0.09684315
21	0x3d962409	0.07331092
22	0xbe3c5e56	-0.18395361
23	0x3d9eb05c	0.07748482
24	0xbc096d25	-0.0083878385
25	0x3e061589	0.13094153
26	0xba9eb637	-0.0012108748
27	0x3e3863a1	0.18006755
28	0xbd17dd77	-0.03707644
29	0xbd31b8d7	-0.043389168
30	0x3cff0e3d	0.031134719
31	0x3e0d2458	0.13783395
32	0x3e0bc29d	0.13648458
33	0xbe70b775	-0.23507483
34	0xbe44a9bd	-0.19205375
35	0xbd30482f	-0.04303759
36	0x3bd3d120	0.0064641386
37	0x3e5f4ea5	0.21807344
38	0x3dd4feba	0.10400148
39	0x3e914ef0	0.28380537
40	0x3d67190f	0.056420382
41	0xbe24fe2d	-0.16112585
42	0x3e758bf6	0.23979172
43	0x3e879edb	0.26488385
44	0x3cea8365	0.028627107
45	0xbcbf632c	-0.023362719
46	0x3d4ee2be	0.050509207
47	0x3e253d6f	0.16136716
48	0x3e1210ee	0.1426427
49	0x3d9c475b	0.076307975
50	0xbe1c459f	-0.15260933
51	0x3e56a8be	0.20962808
52	0x3e4cb08b	0.19989221
53	0x3e327006	0.17425546
54	0xbcdd3915	-0.027004758
55	0x3e06d613	0.131676
56	0x3c899127	0.016792847
57	0xbdbe5f0c	-0.092954725
58	0x3e2d2de0	0.16912031
59	0x3c6afb67	0.014342166
60	0x3d9c92e9	0.076452084
61	0xbe6b8348	-0.22999299
62	0x3e33abb1	0.17545964
63	0xbe36fdc2	-0.17870238
64	0x3dc37551	0.09543861
65	0x3d105556	0.035237633
66	0x3ddacbbb	0.1068339
67	0x3db22dff	0.08700179
68	0xbc824bab	-0.015905222
69	0x3ea005b2	0.31254345
70	0x3e0b76e7	0.13619576
71	0x3d82cceb	0.06386741
72	0x3e283e6d	0.16430064
73	0x3e45c94e	0.19315073
74	0x3e51cfc3	0.20489411
75	0xbdaa7ac4	-0.08324197
76	0x3e066012	0.13122585
77	0xbdd78def	-0.105251186
78	0xbce2c276	-0.027680617
79	0xbeb3b8e6	-0.35102004
80	0xbe198bc3	-0.14994721
81	0xbe323735	-0.17403872
82	0x3e9c5121	0.30530646
83	0xbdccb7ed	-0.099960186
84	0xbd3408a1	-0.04395354
85	0xbe159a43	-0.14609627
86	0xbe5656ab	-0.20931499
87	0xbe3b1cc8	-0.18272698
88	0x3dd6cde0	0.10488486
89	0x3e6c005e	0.23047015
90	0xbe16065d	-0.14650865
91	0x3e3ee119	0.18640555
92	0x3e8a38e5	0.26996532
93	0xbe18dd65	-0.14928205
94	0xbe95ca7f	-0.29256055
95	0xbe4194d3	-0.18904428
96	0x3db7d245	0.089756526
97	0x3d41b557	0.04729208
98	0x3e1569e8	0.14591181
99	0xbdb06966	-0.08613853
100	0x3e935140	0.28772926
101	0xbdea5293	-0.11441531
102	0x3d10cc54	0.035351112
103	0xbd08dbfb	-0.033412915
104	0x3e78d7a7	0.24301015
105	0x3e6a0bdc	0.22856086
106	0xbd72dc26	-0.05929198
107	0x3c0f7ad3	0.008757311
108	0x3cdfb0ad	0.027305925
109	0x3db86990	0.090045094
110	0xbd8833a1	-0.066504724
111	0x3da185d9	0.078868575
112	0xbdd5ed6f	-0.104456775
113	0x3cd0ad88	0.025473371
114	0xbe4b80fc	-0.19873422
115	0xbd8b2d3b	-0.067957364
116	0xbe5e763a	-0.21724787
117	0x3d98c337	0.07459109
118	0x3d3776a8	0.044790894
119	0x3dab4f90	0.08364785
120	0x3eb643b8	0.3559854
121	0xbe7fb37f	-0.24970816
122	0x3e17e0b1	0.14831807
123	0xbdc0ddad	-0.09417281
124	0x3b8cdd24	0.004298823
125	0x3e203119	0.1564373
126	0x3e2f3fd9	0.171142
127	0xbe65a248	-0.22425187
128	0xbde83bce	-0.11339532
129	0x3dc2073f	0.09474038
130	0xbe84dde7	-0.25950548
131	0xbe376b29	-0.17911972
132	0xbe8fd007	-0.280884
133	0xbe555fe0	-0.20837355
134	0xbe1bd77b	-0.15218918
135	0xbd53c3bc	-0.05170034
136	0x3e4bdd8b	0.1990873
137	0xbd20dcfb	-0.039273243
138	0x3d7f1dff	0.062284466
139	0x3dec69cc	0.11543617
140	0x3dcced40	0.10006189
141	0x3bd5edfa	0.006528613
142	0x3ebded9c	0.37095344
143	0xbca8fab2	-0.020627353
144	0xbe1a81fa	-0.15088645
145	0xbddaf89c	-0.1069195
146	0xbccf3e34	-0.025298215
147	0xbe35097b	-0.17679398
148	0xbe178019	-0.14794959
149	0x3e4b4c81	0.19853403
150	0xbe0c9c05	-0.13731392
151	0xbe818e0a	-0.2530368
152	0x3e0d7646	0.13814649
153	0xbcef450f	-0.029207734
154	0xbdf2c0a7	-0.11853152
155	0xbe997934	-0.29975283
156	0x3d321949	0.043481145
157	0xbd442b5f	-0.047892924
158	0xbd8841bf	-0.06653165
159	0xbd3afa35	-0.045648772
160	0xbe1f93e1	-0.15583755
161	0xbe38c26a	-0.18042913
162	0xbe2a61fd	-0.16638942
163	0xbd2ccb83	-0.04218627
164	0xbd353eb9	-0.04424927
165	0xbdf880be	-0.121339306
166	0x3d2bf1c6	0.04197862
167	0xbe2f47ea	-0.17117277
168	0xbde1f243	-0.11032536
169	0x3d6b639b	0.057468038
170	0x3dcbbc53	0.09948029
171	0xbe5d9788	-0.21639836
172	0xbe168513	-0.14699201
173	0x3e0b6b79	0.13615216
174	0xbdd03f71	-0.101683505
175	0xbe3123ef	-0.17298864
176	0x3d7d1bfe	0.061794274
177	0x3e5ec48f	0.21754669
178	0x3c275724	0.010213647
179	0xbe34a976	-0.17642769
180	0xbdcc0276	-0.09961407
181	0x3e34ecf9	0.17668523
182	0x3e1e25d2	0.15444115
183	0xbe000e8d	-0.1250555
184	0x3e2ba305	0.16761406
185	0x3d145b96	0.036220156
186	0x3e323661	0.17403556
187	0x3e59ee2e	0.21282265
188	0xbe8765c7	-0.26444837
189	0xbe335dc2	-0.17516235
190	0xbe514cd4	-0.20439464
191	0xbe283287	-0.16425525
192	0x3cf10dcd	0.029425526
193	0x3e0a7ecc	0.13524932
194	0xbdc31842	-0.09526111
195	0x3e58ca3b	0.21170895
196	0x3ccab3d2	0.024743948
197	0xbd0aa21c	-0.033846006
198	0x3e818939	0.25300005
199	0x3da9a162	0.082827345
200	0x3c121523	0.008916172
201	0x3e270246	0.16309461
202	0x3da22d43	0.07918789
203	0x3d608f15	0.054823954
204	0xbe71bc9c	-0.23607105
205	0xbe741cf3	-0.23839168
206	0x3e2edcf4	0.17076474
207	0xbd8d1b23	-0.068899415
208	0x3c49857c	0.012299892
209	0xbd7bcae9	-0.061472807
210	0x3d738313	0.059451174
211	0x3e713f78	0.23559368
212	0xbe2b810f	-0.1674845
213	0xbe33d663	-0.17562251
214	0xbe42e1c6	-0.19031438
215	0x3e467c3e	0.19383332
216	0xbcaa645b	-0.020799806
217	0xbe16f5ee	-0.14742252
218	0x3d66d7a3	0.05635799
219	0xbe70d9de	-0.2352061
220	0x3d3c1d37	0.0459263
221	0x3e83712c	0.2567228
222	0x3eea5256	0.45765942
223	0xbeab3c98	-0.33444667
224	0xbdf146d4	-0.117810875
225	0x3e3c328e	0.1837866
226	0x3c04d431	0.008107231
227	0x3c9dabff	0.019247053
228	0x3e555456	0.20832953
229	0x3e1f4492	0.15553501
230	0xbdadb699	-0.08482093
231	0xbe3358a0	-0.17514277
232	0x3d99fbc7	0.07518726
233	0xbd981f3e	-0.07427834
234	0xbd8bde3d	-0.06829498
235	0xbe811f59	-0.2521923
236	0xbca5c389	-0.02023484
237	0x3a04d23c	0.0005066728
238	0xbd52fed9	-0.051512573
239	0x3ea31e3d	0.31859007
240	0x3e75bc11	0.23997523
241	0xbd36468f	-0.044500884
242	0xbe2cbfa1	-0.16869976
243	0x3db60299	0.08887214
244	0xbe73b0bb	-0.23797886
245	0xbd7ac0e5	-0.061219115
246	0xbe232cce	-0.1593506
247	0x3da579b2	0.08079852
248	0x3dc8580b	0.09782418
249	0xbe610f50	-0.21978498
250	0xbe45b831	-0.19308545
251	0x3c71bd3c	0.01475459
252	0xbdcb75c9	-0.09934575
253	0x3e173629	0.14766754
254	0xbc827a07	-0.015927328
255	0xbddd1820	-0.10795617

first.bias f4 [18]
0	0x3d25daef	0.040491994
1	0x3dd119d7	0.10210007
2	0x3d078f52	0.033095665
3	0xbe863b5a	-0.26217157
4	0xbe16294e	-0.14664194
5	0xbcfe11c5	-0.031014333
6	0xbe95583e	-0.29168886
7	0xbe285d82	-0.1644192
8	0x3cd6e4f3	0.026232218
9	0x3e1fcb89	0.15604986
10	0x3de116e4	0.10990694
11	0x3d7da392	0.06192357
12	0xbe1da59f	-0.1539521
13	0x3ebd07b8	0.3691995
14	0xbdd1661a	-0.102245525
15	0x3e2856d3	0.16439371
16	0xbdc3fe73	-0.09570017
17	0xbdf91a7d	-0.12163255

last.weight f4 [2, 18]
0	0x3cbf0773	0.023318982
1	0xbed712c2	-0.420065
2	0x3e8d7150	0.27625513
3	0x3cad9611	0.021189721
4	0xbe1b826c	-0.15186471
5	0x3ead03a4	0.3379184
6	0x3e40c4ba	0.18825045
7	0xbeb6d6c4	-0.35710728
8	0xbe131c3b	-0.14366238
9	0x3e9d620a	0.3073886
10	0x3e12008d	0.14258023
11	0x3f4e9ab6	0.8070482
12	0x3cb97ad4	0.022641577
13	0xbd955d13	-0.07293143
14	0xbe05bc2e	-0.13060066
15	0xbe32fc42	-0.17479041
16	0x3e70a9cd	0.23502274
17	0x3e49c236	0.19702992
18	0xbe10eea7	-0.14153539
19	0x3c55d09c	0.013050225
20	0x3e242f10	0.16033578
21	0x3e11727e	0.14203832
22	0x3d27fe24	0.04101385
23	0xbc11b3d4	-0.008892972
24	0xbed6e38e	-0.41970485
25	0x3e39bf73	0.18139438
26	0xbc735075	-0.014850725
27	0x3e24885a	0.16067639
28	0x3e4fefd3	0.2030633
29	0xbe3fdd77	-0.18736826
30	0xbe713df1	-0.23558785
31	0x3c699009	0.014255532
32	0xbe9694b7	-0.29410335
33	0x3e49239e	0.19642493
34	0xbdf77bb6	-0.12084143
35	0x3da76a33	0.08174553

last.bias f4 [2]
0	0x3dea7f47	0.114500575
1	0x3d3d2893	0.046181273

network.0.weight f4 [18, 17]
0	0x3d1f136a	0.038836874
1	0x3eb00a00	0.3438263
2	0xbceeb5b9	-0.029139386
3	0x3d38af68	0.045089155
4	0x3e1e70f5	0.15472777
5	0xbd9c30e8	-0.076265156
6	0xbe7b4e9e	-0.24541709
7	0x3e3172c3	0.17328934
8	0xbe305e71	-0.17223527
9	0x3de3faa9	0.11131794
10	0xbe131abc	-0.14365667
11	0x3e376d70	0.17912841
12	0x3e953180	0.29139328
13	0x3cd7fd2a	0.026365835
14	0xbdbc6dcb	-0.09200629
15	0xbe0e837a	-0.13917342
16	0x3e4dc002	0.20092776
17	0xbe7459f7	-0.23862444
18	0x3eb45556	0.35221356
19	0xbcb4c054	-0.022064365
20	0xbdc655b4	-0.09684315
21	0x3d962409	0.07331092
22	0xbe3c5e56	-0.18395361
23	0x3d9eb05c	0.07748482
24	0xbc096d25	-0.0083878385
25	0x3e061589	0.13094153
26	0xba9eb637	-0.0012108748
27	0x3e3863a1	0.18006755
28	0xbd17dd77	-0.03707644
29	0xbd31b8d7	-0.043389168
30	0x3cff0e3d	0.031134719
31	0x3e0d2458	0.13783395
32	0x3e0bc29d	0.13648458
33	0xbe70b775	-0.23507483
34	0xbe44a9bd	-0.19205375
35	0xbd30482f	-0.04303759
36	0x3bd3d120	0.0064641386
37	0x3e5f4ea5	0.21807344
38	0x3dd4feba	0.10400148
39	0x3e914ef0	0.28380537
40	0x3d67190f	0.056420382
41	0xbe24fe2d	-0.16112585
42	0x3e758bf6	0.23979172
43	0x3e879edb	0.26488385
44	0x3cea8365	0.028627107
45	0xbcbf632c	-0.023362719
46	0x3d4ee2be	0.050509207
47	0x3e253d6f	0.16136716
48	0x3e1210ee	0.1426427
49	0x3d9c475b	0.076307975
50	0xbe1c459f	-0.15260933
51	0x3e56a8be	0.20962808
52	0x3e4cb08b	0.19989221
53	0x3e327006	0.17425546
54	0xbcdd3915	-0.027004758
55	0x3e06d613	0.131676
56	0x3c899127	0.016792847
57	0xbdbe5f0c	-0.092954725
58	0x3e2d2de0	0.16912031
59	0x3c6afb67	0.014342166
60	0x3d9c92e9	0.076452084
61	0xbe6b8348	-0.22999299
62	0x3e33abb1	0.17545964
63	0xbe36fdc2	-0.17870238
64	0x3dc37551	0.09543861
65	0x3d105556	0.035237633
66	0x3ddacbbb	0.1068339
67	0x3db22dff	0.08700179
68	0xbc824bab	-0.015905222
69	0x3ea005b2	0.31254345
70	0x3e0b76e7	0.13619576
71	0x3d82cceb	0.06386741
72	0x3e283e6d	0.16430064
73	0x3e45c94e	0.19315073
74	0x3e51cfc3	0.20489411
75	0xbdaa7ac4	-0.08324197
76	0x3e066012	0.13122585
77	0xbdd78def	-0.105251186
78	0xbce2c276	-0.027680617
79	0xbeb3b8e6	-0.35102004
80	0xbe198bc3	-0.14994721
81	0xbe323735	-0.17403872
82	0x3e9c5121	0.30530646
83	0xbdccb7ed	-0.099960186
84	0xbd3408a1	-0.04395354
85	0xbe159a43	-0.14609627
86	0xbe5656ab	-0.20931499
87	0xbe3b1cc8	-0.18272698
88	0x3dd6cde0	0.10488486
89	0x3e6c005e	0.23047015
90	0xbe16065d	-0.14650865
91	0x3e3ee119	0.18640555
92	0x3e8a38e5	0.26996532
93	0xbe18dd65	-0.14928205
94	0xbe95ca7f	-0.29256055
95	0xbe4194d3	-0.18904428
96	0x3db7d245	0.089756526
97	0x3d41b557	0.04729208
98	0x3e1569e8	0.14591181
99	0xbdb06966	-0.08613853
100	0x3e935140	0.28772926
101	0xbdea5293	-0.11441531
102	0x3d10cc54	0.035351112
103	0xbd08dbfb	-0.033412915
104	0x3e78d7a7	0.24301015
105	0x3e6a0bdc	0.22856086
106	0xbd72dc26	-0.05929198
107	0x3c0f7ad3	0.008757311
108	0x3cdfb0ad	0.027305925
109	0x3db86990	0.090045094
110	0xbd8833a1	-0.066504724
111	0x3da185d9	0.078868575
112	0xbdd5ed6f	-0.104456775
113	0x3cd0ad88	0.025473371
114	0xbe4b80fc	-0.19873422
115	0xbd8b2d3b	-0.067957364
116	0xbe5e763a	-0.21724787
117	0x3d98c337	0.07459109
118	0x3d3776a8	0.044790894
119	0x3dab4f90	0.08364785
120	0x3eb643b8	0.3559854
121	0xbe7fb37f	-0.24970816
122	0x3e17e0b1	0.14831807
123	0xbdc0ddad	-0.09417281
124	0x3b8cdd24	0.004298823
125	0x3e203119	0.1564373
126	0x3e2f3fd9	0.171142
127	0xbe65a248	-0.22425187
128	0xbde83bce	-0.11339532
129	0x3dc2073f	0.09474038
130	0xbe84dde7	-0.25950548
131	0xbe376b29	-0.17911972
132	0xbe8fd007	-0.280884
133	0xbe555fe0	-0.20837355
134	0xbe1bd77b	-0.15218918
135	0xbd53c3bc	-0.05170034
136	0x3e4bdd8b	0.1990873
137	0xbd20dcfb	-0.039273243
138	0x3d7f1dff	0.062284466
139	0x3dec69cc	0.11543617
140	0x3dcced40	0.10006189
141	0x3bd5edfa	0.006528613
142	0x3ebded9c	0.37095344
143	0xbca8fab2	-0.020627353
144	0xbe1a81fa	-0.15088645
145	0xbddaf89c	-0.1069195
146	0xbccf3e34	-0.025298215
147	0xbe35097b	-0.17679398
148	0xbe178019	-0.14794959
149	0x3e4b4c81	0.19853403
150	0xbe0c9c05	-0.13731392
151	0xbe818e0a	-0.2530368
152	0x3e0d7646	0.13814649
153	0xbcef450f	-0.029207734
154	0xbdf2c0a7	-0.11853152
155	0xbe997934	-0.29975283
156	0x3d321949	0.043481145
157	0xbd442b5f	-0.047892924
158	0xbd8841bf	-0.06653165
159	0xbd3afa35	-0.045648772
160	0xbe1f93e1	-0.15583755
161	0xbe38c26a	-0.18042913
162	0xbe2a61fd	-0.16638942
163	0xbd2ccb83	-0.04218627
164	0xbd353eb9	-0.04424927
165	0xbdf880be	-0.121339306
166	0x3d2bf1c6	0.04197862
167	0xbe2f47ea	-0.17117277
168	0xbde1f243	-0.11032536
169	0x3d6b639b	0.057468038
170	0x3dcbbc53	0.09948029
171	0xbe5d9788	-0.21639836
172	0xbe168513	-0.14699201
173	0x3e0b6b79	0.13615216
174	0xbdd03f71	-0.101683505
175	0xbe3123ef	-0.17298864
176	0x3d7d1bfe	0.061794274
177	0x3e5ec48f	0.21754669
178	0x3c275724	0.010213647
179	0xbe34a976	-0.17642769
180	0xbdcc0276	-0.09961407
181	0x3e34ecf9	0.17668523
182	0x3e1e25d2	0.15444115
183	0xbe000e8d	-0.1250555
184	0x3e2ba305	0.16761406
185	0x3d145b96	0.036220156
186	0x3e323661	0.17403556
187	0x3e59ee2e	0.21282265
188	0xbe8765c7	-0.26444837
189	0xbe335dc2	-0.17516235
190	0xbe514cd4	-0.20439464
191	0xbe283287	-0.16425525
192	0x3cf10dcd	0.029425526
193	0x3e0a7ecc	0.13524932
194	0xbdc31842	-0.09526111
195	0x3e58ca3b	0.21170895
196	0x3ccab3d2	0.024743948
197	0xbd0aa21c	-0.033846006
198	0x3e818939	0.25300005
199	0x3da9a162	0.082827345
200	0x3c121523	0.008916172
201	0x3e270246	0.16309461
202	0x3da22d43	0.07918789
203	0x3d608f15	0.054823954
204	0xbe71bc9c	-0.23607105
205	0xbe741cf3	-0.23839168
206	0x3e2edcf4	0.17076474
207	0xbd8d1b23	-0.068899415
208	0x3c49857c	0.012299892
209	0xbd7bcae9	-0.061472807
210	0x3d738313	0.059451174
211	0x3e713f78	0.23559368
212	0xbe2b810f	-0.1674845
213	0xbe33d663	-0.17562251
214	0xbe42e1c6	-0.19031438
215	0x3e467c3e	0.19383332
216	0xbcaa645b	-0.020799806
217	0xbe16f5ee	-0.14742252
218	0x3d66d7a3	0.05635799
219	0xbe70d9de	-0.2352061
220	0x3d3c1d37	0.0459263
221	0x3e83712c	0.2567228
222	0x3eea5256	0.45765942
223	0xbeab3c98	-0.33444667
224	0xbdf146d4	-0.117810875
225	0x3e3c328e	0.1837866
226	0x3c04d431	0.008107231
227	0x3c9dabff	0.019247053
228	0x3e555456	0.20832953
229	0x3e1f4492	0.15553501
230	0xbdadb699	-0.08482093
231	0xbe3358a0	-0.17514277
232	0x3d99fbc7	0.07518726
233	0xbd981f3e	-0.07427834
234	0xbd8bde3d	-0.06829498
235	0xbe811f59	-0.2521923
236	0xbca5c389	-0.02023484
237	0x3a04d23c	0.0005066728
238	0xbd52fed9	-0.051512573
239	0x3ea31e3d	0.31859007
240	0x3e75bc11	0.23997523
241	0xbd36468f	-0.044500884
242	0xbe2cbfa1	-0.16869976
243	0x3db60299	0.08887214
244	0xbe73b0bb	-0.23797886
245	0xbd7ac0e5	-0.061219115
246	0xbe232cce	-0.1593506
247	0x3da579b2	0.08079852
248	0x3dc8580b	0.09782418
249	0xbe610f50	-0.21978498
250	0xbe45b831	-0.19308545
251	0x3c71bd3c	0.01475459
252	0xbdcb75c9	-0.09934575
253	0x3e173629	0.14766754
254	0xbc827a07	-0.015927328
255	0xbddd1820	-0.10795617

network.0.bias f4 [18]
0	0x3d25daef	0.040491994
1	0x3dd119d7	0.10210007
2	0x3d078f52	0.033095665
3	0xbe863b5a	-0.26217157
4	0xbe16294e	-0.14664194
5	0xbcfe11c5	-0.031014333
6	0xbe95583e	-0.29168886
7	0xbe285d82	-0.1644192
8	0x3cd6e4f3	0.026232218
9	0x3e1fcb89	0.15604986
10	0x3de116e4	0.10990694
11	0x3d7da392	0.06192357
12	0xbe1da59f	-0.1539521
13	0x3ebd07b8	0.3691995
14	0xbdd1661a	-0.102245525
15	0x3e2856d3	0.16439371
16	0xbdc3fe73	-0.09570017
17	0xbdf91a7d	-0.12163255

network.1.L1.weight f4 [18, 18]
0	0x3d036134	0.032075122
1	0xbe249e30	-0.16075969
2	0xbd44c558	-0.048039764
3	0x3e49618d	0.19666119
4	0x3c4f5400	0.0126543045
5	0xbd470ee4	-0.048598185
6	0xbcdd5058	-0.02701585
7	0xbd8168e2	-0.06318833
8	0x3e52c885	0.20584305
9	0xbddf25f2	-0.10895909
10	0x3d4c1f74	0.049834684
11	0x3dce3c26	0.10070066
12	0xbe21fa6c	-0.15818185
13	0x3e5a4281	0.21314432
14	0xbe2535c8	-0.16133797
15	0xbd96feba	-0.07372804
16	0xbdcbaea0	-0.099454165
17	0xbe3bff2f	-0.18359064
18	0x3dedf269	0.11618502
19	0xbeb2d74f	-0.34929892
20	0x3dfe5a46	0.12419562
21	0x3ebe4e2e	0.3716902
22	0x3d5b026a	0.0534691
23	0x3df041e4	0.11731318
24	0xbdfca28d	-0.123356916
25	0x3e3ae8eb	0.18252914
26	0x3d53521c	0.051591977
27	0x3d810cca	0.063012674
28	0xbbe20219	-0.0068972227
29	0xbeb32a70	-0.34993315
30	0xbde5c97a	-0.11220069
31	0xbd7fa645	-0.062414426
32	0xbdecc2bc	-0.1156058
33	0x3f2e0663	0.67978495
34	0x3e70143d	0.2344522
35	0x3ed8fbb6	0.4237954
36	0x3c848de9	0.01618095
37	0x3da5db1a	0.08098431
38	0xbe2c9cd9	-0.16856708
39	0x3ca85896	0.020550054
40	0xbda6203b	-0.08111616
41	0x3e5e00d3	0.21680002
42	0x3e04ca84	0.12967879
43	0x3e80ee53	0.25181827
44	0xbb564036	-0.0032692081
45	0x3d2aefd8	0.04173264
46	0xbebd6d95	-0.36997667
47	0x3ece88b6	0.40338677
48	0x3e5c0033	0.21484451
49	0xbd301359	-0.0429872
50	0xbe01b48c	-0.1266653
51	0xbd6ffc84	-0.058590427
52	0x3e10f34d	0.14155312
53	0x3d9bbebb	0.07604738
54	0x3e44e849	0.19229235
55	0xbe45d3a6	-0.19319019
56	0x3dee1f38	0.11627048
57	0x3db001fd	0.08594129
58	0xbc45174e	-0.012029482
59	0x3d335ed0	0.043791592
60	0xbe1f0c30	-0.15531993
61	0x3e7d1f93	0.24719076
62	0xbe7d06cf	-0.24709629
63	0x3e7dbf24	0.24779946
64	0xbdde1e18	-0.10845584
65	0xbe22e231	-0.15906598
66	0x3e1fb361	0.15595771
67	0x3e0f435d	0.13990541
68	0xbe21a370	-0.15785003
69	0x3f1e4734	0.618274
70	0xbd1514c8	-0.03639677
71	0xbc498497	-0.012299678
72	0xbca713f0	-0.02039525
73	0xbdc751e0	-0.09732413
74	0x3de23e0a	0.11046989
75	0x3c4dd520	0.01256302
76	0xbe32b2f2	-0.17451075
77	0xbda6c484	-0.08142951
78	0xbdef30b1	-0.11679209
79	0x3c815a48	0.01579012
80	0xbdb2e5b8	-0.087352216
81	0xbd855a64	-0.06511381
82	0xbe0d0efa	-0.13775244
83	0xbc98dc10	-0.018659621
84	0xbddbcc54	-0.10732332
85	0x3e266f4d	0.16253395
86	0xbe57438d	-0.21021862
87	0xbe6906ae	-0.22756454
88	0xbe00abfb	-0.12565605
89	0x3e24321b	0.16034739
90	0xbdfd770d	-0.12376223
91	0x3e1819ad	0.14853545
92	0xbda5fdd6	-0.08105056
93	0xbe70de8e	-0.23522398
94	0xbe0e32dc	-0.13886589
95	0x3db54dba	0.08852716
96	0x3d67f744	0.056632295
97	0x3e1ff45d	0.15620561
98	0x3ac88e80	0.0015301257
99	0x3cbe2a78	0.02321361
100	0xbc675fa0	-0.01412192
101	0xbe09cf80	-0.13458061
102	0xbe59831f	-0.21241425
103	0xbe01eb6e	-0.12687466
104	0xbc60b2e0	-0.013714522
105	0xbe39cb1a	-0.18143883
106	0x3e05d407	0.13069163
107	0x3d9e5daa	0.07732709
108	0xbe0de194	-0.13855582
109	0xbf3523ec	-0.7075794
110	0x3e92cc41	0.28671458
111	0xbe3b111e	-0.18268248
112	0xbdd8c782	-0.10584928
113	0xbd0d4997	-0.03449401
114	0x3beea25e	0.0072825393
115	0xbf28e2ab	-0.6597087
116	0x3d9e4a7e	0.07729052
117	0x3e37cab1	0.17948414
118	0xbf608b33	-0.877124
119	0xbecabf71	-0.39599183
120	0x3e0abcee	0.13548633
121	0xbf15de77	-0.5854258
122	0x3d584794	0.052802637
123	0x3e63248a	0.22181907
124	0x3a71995a	0.00092162716
125	0xbcefbe39	-0.02926551
126	0xbbaeb910	-0.0053321198
127	0x3cb7c894	0.02243451
128	0xbe27f4c8	-0.1640197
129	0x3db80d17	0.08986872
130	0x3e068e56	0.13140234
131	0xbd830b92	-0.06398691
132	0xbe178047	-0.14795028
133	0x3e78b1b3	0.24286537
134	0x3e67b2e2	0.22626832
135	0xbd97f2ff	-0.07419395
136	0xbe746598	-0.2386688
137	0xbd60a1d4	-0.05484183
138	0x3e4d2ed8	0.200374
139	0xbe2b6eeb	-0.1674153
140	0xbe94092f	-0.28913257
141	0x3f8fc56e	1.1232126
142	0x3e4192de	0.18903682
143	0x3d8c9e2f	0.068661086
144	0xbe1ae773	-0.15127353
145	0xbe2e3d31	-0.1701553
146	0x3e45cf1a	0.19317284
147	0x3e82351c	0.25431144
148	0x3e1d0021	0.1533208
149	0xbe67a383	-0.22620969
150	0xbe47d22f	-0.19513772
151	0xbf32ccf8	-0.6984401
152	0x3f27155f	0.65266985
153	0x3e43dde7	0.19127618
154	0x3f0777fd	0.5291746
155	0xbdca037a	-0.09863944
156	0x3c27166a	0.010198215
157	0xbe84b9d7	-0.25923035
158	0x3dd31088	0.103058875
159	0x3fc90bb2	1.5706694
160	0x3de7edb8	0.11324638
161	0x3e12bfb0	0.14330935
162	0x3d8217ee	0.063522205
163	0x3e98e809	0.2986453
164	0x3e54dfed	0.20788546
165	0xbe29d50b	-0.16585176
166	0xbdfe61cc	-0.12420997
167	0x3dee6912	0.11641134
168	0x3e86b84e	0.26312488
169	0x3e98f166	0.29871672
170	0xbecc0b38	-0.3985231
171	0x3e237105	0.15961082
172	0xbe9f5bc2	-0.31124693
173	0x3e9dadc6	0.3079664
174	0xbda8600e	-0.08221446
175	0x3e917c06	0.28414935
176	0xbe3534ec	-0.1769597
177	0xbd4d0116	-0.050049864
178	0x3e2c5ecd	0.16833039
179	0xbe5dea27	-0.21671353
180	0xbd99f732	-0.07517852
181	0xbdefe736	-0.11714022
182	0x3d568ece	0.052382283
183	0x3d9b8e26	0.07595472
184	0x3e18768d	0.14888974
185	0xbe4b4cff	-0.1985359
186	0x3dc7b5d8	0.09751481
187	0x3e3408a6	0.17581424
188	0xbed63423	-0.41836652
189	0x3cdcb54b	0.026941916
190	0xbca327a3	-0.019916361
191	0x3d956a29	0.07295639
192	0xbe5538e8	-0.2082249
193	0xbd63c8d0	-0.05561143
194	0x3e6e077b	0.23245041
195	0x3e063e59	0.13109721
196	0xbc8d7b66	-0.017270755
197	0xbe1dd959	-0.15414943
198	0x3db4464a	0.08802469
199	0xbf858419	-1.0430938
200	0x3ea643ac	0.32473505
201	0xbf1c4279	-0.6103893
202	0xbe80952a	-0.25113803
203	0x3cc66f5c	0.024223022
204	0x3e4b5f09	0.19860472
205	0xbf24952b	-0.6429011
206	0x3e16b9ee	0.14719364
207	0x3eaffc73	0.3437229
208	0xbef431bc	-0.47694194
209	0xbf98fd8f	-1.195238
210	0xbe929452	-0.28628784
211	0xbf0ba33a	-0.5454594
212	0xbdce07ba	-0.100600675
213	0x3dcbb8fa	0.09947391
214	0x3d6ee1d8	0.05832085
215	0xbec31dda	-0.38108712
216	0xbd26e175	-0.040742356
217	0xbd9caad7	-0.076497726
218	0xba26950d	-0.0006354608
219	0xbda89303	-0.08231165
220	0x3e40b7cb	0.18820111
221	0xbe17fdc7	-0.14842902
222	0xbd288514	-0.04114254
223	0xbdf38eaa	-0.118924454
224	0x3d84686c	0.064652294
225	0x3d9937c3	0.07481339
226	0x3ee11596	0.4396178
227	0x3e645f1d	0.22301908
228	0x3cf83d80	0.030302763
229	0xbd519645	-0.0511687
230	0x3ea98966	0.3311264
231	0xbeebfd0f	-0.46091506
232	0xbdee284b	-0.11628779
233	0xbe500d88	-0.20317662
234	0xbde8442a	-0.11341126
235	0x3e3657f0	0.17806983
236	0xb9ca7236	-0.00038613536
237	0x3e98ad94	0.2981993
238	0x3e1785c1	0.14797117
239	0x3c0f37f6	0.0087413695
240	0xbe07d3ff	-0.13264464
241	0x3e98cbb7	0.29842922
242	0x3e9d1597	0.30680534
243	0xbe72c629	-0.23708405
244	0xbc1e8fb4	-0.009677816
245	0x3dd5f4d8	0.10447091
246	0xbdada114	-0.08477989
247	0xbb3d1179	-0.0028849526
248	0xbe88e387	-0.2673609
249	0x3f791322	0.9729482
250	0x3e684ba6	0.22685108
251	0x3db61457	0.08890598
252	0xbe34ffea	-0.17675748
253	0xbf4fffde	-0.812498
254	0x3e606242	0.21912482
255	0xbe4c31f0	-0.19940925

network.1.L1.bias f4 [18]
0	0xbe60aab6	-0.21940121
1	0x3e14a371	0.14515473
2	0xbdd6ae31	-0.10482443
3	0x3e276a0d	0.16349049
4	0xbd8855ca	-0.06656988
5	0xbe195449	-0.14973558
6	0x3d20b2a5	0.03923287
7	0x3e7f4dde	0.24932048
8	0x3d99af0f	0.07504093
9	0x3e6010a3	0.21881346
10	0x3e2f489c	0.17117542
11	0x3dd1718d	0.10226736
12	0x3e007736	0.12545475
13	0x3e729dfb	0.23693077
14	0xbc21c782	-0.0098742265
15	0xbdd7c6ae	-0.10535942
16	0xbe836aa8	-0.2566731
17	0x3e4bac34	0.19889909

network.1.L2.weight f4 [18, 18]
0	0x3c41f32c	0.011837762
1	0xbddded0f	-0.10836231
2	0xbe4dc703	-0.20095448
3	0xbe5314f1	-0.20613457
4	0xbd8905b2	-0.066905394
5	0x3e3e7011	0.18597437
6	0xbd9d3122	-0.07675387
7	0x3c5dd6a2	0.013539942
8	0x3cd5ace9	0.026083427
9	0x3e5a53fa	0.21321097
10	0x3e1b0271	0.1513765
11	0x3ca502fb	0.020143023
12	0xbd57a26e	-0.05264514
13	0xbe2c0fcc	-0.16802901
14	0x3d0d3f23	0.03448404
15	0xbb287f93	-0.0025710806
16	0xbca6f6e2	-0.020381395
17	0x3dcbf6f0	0.09959209
18	0x3d8a2937	0.06746142
19	0xbd8992e7	-0.067174725
20	0xbdeda8eb	-0.11604484
21	0xbe9b71f5	-0.3036038
22	0xbea69a24	-0.32539475
23	0x3e067a1e	0.13132522
24	0xbe4ac5b0	-0.19801974
25	0xbebb1452	-0.3653894
26	0xbdf52b3f	-0.11971139
27	0x3eb91060	0.36145306
28	0x3d77e2d5	0.06051906
29	0xbdbb8122	-0.091554895
30	0xbc2ff20c	-0.010738861
31	0xbe267c4e	-0.16258356
32	0xbe8b7c84	-0.27243435
33	0x3e69b7ce	0.22824022
34	0xbe03972e	-0.12850639
35	0x3ce38e75	0.02777789
36	0x3e5c175d	0.21493287
37	0x3e1502ab	0.14551799
38	0x3e07427a	0.13208953
39	0x3e353ae7	0.1769825
40	0x3e2800c7	0.16406547
41	0xbe0fcd45	-0.14043148
42	0x3ec51cb1	0.38498452
43	0x3ca194d1	0.019724282
44	0x3e0d168a	0.13778129
45	0x3e88d927	0.26728174
46	0x3e4ca059	0.19983043
47	0x3e96c93f	0.29450414
48	0x3c68371d	0.014173296
49	0xbd61f4a7	-0.05516496
50	0xbd8e447e	-0.069466576
51	0xbe3f910a	-0.18707672
52	0x3e8c9533	0.2745758
53	0x3f0320f4	0.5122216
54	0x3e5443a4	0.20728928
55	0x3e10824d	0.14112206
56	0xbd14e365	-0.036349673
57	0x3d8bf8f3	0.06834593
58	0xbd5dc9e4	-0.054147616
59	0x3cdfae87	0.0273049
60	0xbec796fa	-0.38982373
61	0x3ea49745	0.3214666
62	0xbe39deb8	-0.18151367
63	0xbcc01110	-0.023445636
64	0x3e43aa1b	0.19107859
65	0xbeecff70	-0.46288633
66	0xbecc6c68	-0.39926457
67	0x3eb2c9b4	0.34919512
68	0xbd86829e	-0.06567882
69	0xbd2bb2c1	-0.04191852
70	0xbe24ae84	-0.16082197
71	0xbe5089a9	-0.20365013
72	0xbd9223cd	-0.07135735
73	0x3e49c059	0.19702281
74	0xbe2b5ce9	-0.16734661
75	0x3d708516	0.05872067
76	0x3e8b9f80	0.27270126
77	0x3de4a2a0	0.11163831
78	0xbed7bfb5	-0.42138448
79	0x3eabbde6	0.3354332
80	0xbe71b43b	-0.23603909
81	0x3e594108	0.21216214
82	0x3c498dc9	0.012301871
83	0x3d1b690d	0.03794198
84	0xbe178f9f	-0.14800881
85	0x3e077803	0.13229375
86	0x3d0a3eaa	0.033751167
87	0x3e3d0013	0.1845706
88	0x3df84d37	0.121241026
89	0xbea1b68e	-0.3158459
90	0x3deb0c22	0.114769235
91	0x3e0b1375	0.13581641
92	0xbe3602c7	-0.17774497
93	0x3e45b472	0.19307116
94	0xbc8023c2	-0.01564205
95	0x3e375a8e	0.17905638
96	0x3e044a4a	0.12918964
97	0x3e6859cf	0.2269051
98	0xbd958317	-0.07300394
99	0x3cec01a4	0.028809376
100	0xbcd78511	-0.026308568
101	0xbca480cf	-0.020080952
102	0x3d0961b6	0.03354045
103	0xbe0e21dc	-0.13880104
104	0xbdc02ab3	-0.09383144
105	0xbdaa32a9	-0.08310444
106	0xbe6d270e	-0.2315943
107	0xbe10e77b	-0.14150803
108	0xbe1cc581	-0.15309717
109	0xbe654a27	-0.22391568
110	0x3d0699e5	0.03286161
111	0x3e549d35	0.20763095
112	0xbe8dd28d	-0.276997
113	0x3ea6d77c	0.32586277
114	0x3d6011fb	0.054704648
115	0xbe453647	-0.19258986
116	0xbe066782	-0.13125423
117	0x3e52ed91	0.20598437
118	0x3e48c5a5	0.19606645
119	0x3dfeab9f	0.12435078
120	0x3e582448	0.2110759
121	0xbd1559ac	-0.03646247
122	0xbe97ec13	-0.29672298
123	0xbbd59b61	-0.0065187667
124	0x3e63affc	0.22235101
125	0x3daa377a	0.083113626
126	0x3dfc78ef	0.12327754
127	0xbe304357	-0.17213188
128	0x3e696f15	0.2279628
129	0x3e54c1a1	0.20776989
130	0xbe0aa4c8	-0.13539422
131	0xbe44b68d	-0.19210263
132	0xbed15914	-0.40888274
133	0x3e9f4067	0.31103823
134	0x3d63e1c4	0.05563523
135	0x3ec7238d	0.3889431
136	0xbe48e7c3	-0.1961966
137	0xbd599285	-0.053118248
138	0xbe89a896	-0.26886433
139	0xbd40f48e	-0.047108226
140	0xbe186ef9	-0.14886083
141	0xbe816c8d	-0.2527813
142	0x3ddcec6c	0.107872814
143	0xbdafe43e	-0.085884556
144	0x3df1dc3e	0.11809586
145	0x3ec6e00b	0.38842806
146	0xbe4f7e2a	-0.20262972
147	0x3e279974	0.16367131
148	0x3ea08307	0.31349966
149	0xbe9993ce	-0.2999558
150	0xbde2f50c	-0.11081895
151	0xbdf32a27	-0.11873274
152	0x3e921b2c	0.28536355
153	0xbc10411c	-0.008804586
154	0xbd94d326	-0.07266836
155	0xbe49bb33	-0.19700317
156	0x3e5580a5	0.20849855
157	0x3e3f5718	0.18685567
158	0x3e8f837c	0.28030002
159	0x3da86f94	0.08224407
160	0xbe6049e7	-0.21903192
161	0xbdec15b1	-0.11527575
162	0x3d9b84ec	0.07593712
163	0xbde5b554	-0.11216226
164	0x3e7dbc67	0.24778901
165	0xbbc0ab35	-0.0058797845
166	0xbd421013	-0.04737861
167	0xbd3f13f9	-0.046649907
168	0xbd535261	-0.051592235
169	0xbde2ba38	-0.11070675
170	0x3e8af338	0.27138686
171	0xbe02046b	-0.12696998
172	0xbc9b662c	-0.018969618
173	0x3e8c1c28	0.27365232
174	0x3d34082e	0.043953113
175	0x3e168a29	0.14701141
176	0x3e16dcfa	0.14732733
177	0xbe9ad714	-0.30242217
178	0x3ea7c71e	0.32769102
179	0x3ec974ad	0.3934683
180	0xbd2aea32	-0.041727252
181	0x3e67c972	0.22635439
182	0x3e94d165	0.29066005
183	0xbeb77b85	-0.35836425
184	0xbe7087f7	-0.23489366
185	0x3d263b4d	0.040583897
186	0xbecce665	-0.40019527
187	0xbc8b964e	-0.017039444
188	0x3c883476	0.016626578
189	0x3dadd2f0	0.08487499
190	0x3e37c80e	0.17947409
191	0x3e9d6038	0.30737472
192	0xbd14ce65	-0.036329646
193	0x3e8dd612	0.27702385
194	0xbe9226b7	-0.28545162
195	0x3e925b7c	0.28585422
196	0xbe5c0924	-0.21487862
197	0xbee51752	-0.44744354
198	0xbcf69f6b	-0.030105313
199	0xbe94314f	-0.2894387
200	0x3e018383	0.12647824
201	0xbe9352e4	-0.28774178
202	0xbea67bd8	-0.3251636
203	0x3f0de5fa	0.5542904
204	0xbea5b39c	-0.32363594
205	0xbead13e8	-0.3380425
206	0xbe108874	-0.14114553
207	0x3e5168db	0.20450155
208	0x3e8cc70f	0.2749562
209	0xbcaa42b4	-0.02078376
210	0x3d5b7da1	0.053586606
211	0x3e611dad	0.21983977
212	0xbe27b4fb	-0.16377632
213	0x3e9a888d	0.30182305
214	0xbd9a8858	-0.07545537
215	0x3e167ff6	0.1469725
216	0xbdbb3f31	-0.09142912
217	0xbe24e624	-0.16103417
218	0xbe2815b7	-0.16414534
219	0xbbed604e	-0.0072441464
220	0xbda5422c	-0.08069262
221	0x3ca28779	0.019839989
222	0xbe8e000e	-0.27734417
223	0xbe3a6138	-0.18201149
224	0x3dccedc2	0.10006286
225	0x3d43b3f6	0.047779046
226	0xbd1a18fa	-0.037621476
227	0x3dc24935	0.094866194
228	0x3e1dcec4	0.15410906
229	0x3e3f5b69	0.18687214
230	0x3e95b131	0.2923675
231	0x3e758f91	0.23980547
232	0xbe2b72f2	-0.16743067
233	0xbd8ab3db	-0.06772586
234	0xbc824cfe	-0.015905853
235	0xbe3e4ec7	-0.18584739
236	0x3d73262e	0.059362583
237	0xbe63a7cc	-0.22231978
238	0xbeaa57c3	-0.33270082
239	0x3e12462f	0.14284585
240	0xbea7acbe	-0.3274898
241	0x3e27cf23	0.1638761
242	0xbe4c203a	-0.19934168
243	0x3e00af4c	0.1256687
244	0x3daf1b14	0.085500866
245	0x3d84062b	0.06446489
246	0x3e35d599	0.17757262
247	0x3cae2d59	0.021261858
248	0x3d75c4c7	0.060002115
249	0xbc01fc96	-0.007933756
250	0xbcc87ed7	-0.024474544
251	0x3e12bb30	0.14329219
252	0x3e069c7f	0.13145636
253	0x3ce2d49c	0.02768927
254	0xbd16026b	-0.0366234
255	0x3d067c57	0.032833423

network.1.L2.bias f4 [18]
0	0xbe046a97	-0.12931286
1	0x3e79d4d7	0.24397598
2	0xbd7d973e	-0.061911814
3	0x3e2a0938	0.16605079
4	0x3e56cbbb	0.20976155
5	0xbe16830a	-0.14698425
6	0x3e370f17	0.1787685
7	0xbe06f173	-0.13178043
8	0x3addb7dd	0.0016915757
9	0x3d66176b	0.056174677
10	0xbc8abbcc	-0.016935252
11	0x3d7fd713	0.06246097
12	0x3e00229e	0.12513205
13	0x3e66c00b	0.22534196
14	0xbe781ec2	-0.24230483
15	0xbe49f660	-0.19722891
16	0x3e41e2e9	0.18934216
17	0x3e818e8d	0.2530407

network.2.L1.weight f4 [18, 18]
0	0x3d036134	0.032075122
1	0xbe249e30	-0.16075969
2	0xbd44c558	-0.048039764
3	0x3e49618d	0.19666119
4	0x3c4f5400	0.0126543045
5	0xbd470ee4	-0.048598185
6	0xbcdd5058	-0.02701585
7	0xbd8168e2	-0.06318833
8	0x3e52c885	0.20584305
9	0xbddf25f2	-0.10895909
10	0x3d4c1f74	0.049834684
11	0x3dce3c26	0.10070066
12	0xbe21fa6c	-0.15818185
13	0x3e5a4281	0.21314432
14	0xbe2535c8	-0.16133797
15	0xbd96feba	-0.07372804
16	0xbdcbaea0	-0.099454165
17	0xbe3bff2f	-0.18359064
18	0x3dedf269	0.11618502
19	0xbeb2d74f	-0.34929892
20	0x3dfe5a46	0.12419562
21	0x3ebe4e2e	0.3716902
22	0x3d5b026a	0.0534691
23	0x3df041e4	0.11731318
24	0xbdfca28d	-0.123356916
25	0x3e3ae8eb	0.18252914
26	0x3d53521c	0.051591977
27	0x3d810cca	0.063012674
28	0xbbe20219	-0.0068972227
29	0xbeb32a70	-0.34993315
30	0xbde5c97a	-0.11220069
31	0xbd7fa645	-0.062414426
32	0xbdecc2bc	-0.1156058
33	0x3f2e0663	0.67978495
34	0x3e70143d	0.2344522
35	0x3ed8fbb6	0.4237954
36	0x3c848de9	0.01618095
37	0x3da5db1a	0.08098431
38	0xbe2c9cd9	-0.16856708
39	0x3ca85896	0.020550054
40	0xbda6203b	-0.08111616
41	0x3e5e00d3	0.21680002
42	0x3e04ca84	0.12967879
43	0x3e80ee53	0.25181827
44	0xbb564036	-0.0032692081
45	0x3d2aefd8	0.04173264
46	0xbebd6d95	-0.36997667
47	0x3ece88b6	0.40338677
48	0x3e5c0033	0.21484451
49	0xbd301359	-0.0429872
50	0xbe01b48c	-0.1266653
51	0xbd6ffc84	-0.058590427
52	0x3e10f34d	0.14155312
53	0x3d9bbebb	0.07604738
54	0x3e44e849	0.19229235
55	0xbe45d3a6	-0.19319019
56	0x3dee1f38	0.11627048
57	0x3db001fd	0.08594129
58	0xbc45174e	-0.012029482
59	0x3d335ed0	0.043791592
60	0xbe1f0c30	-0.15531993
61	0x3e7d1f93	0.24719076
62	0xbe7d06cf	-0.24709629
63	0x3e7dbf24	0.24779946
64	0xbdde1e18	-0.10845584
65	0xbe22e231	-0.15906598
66	0x3e1fb361	0.15595771
67	0x3e0f435d	0.13990541
68	0xbe21a370	-0.15785003
69	0x3f1e4734	0.618274
70	0xbd1514c8	-0.03639677
71	0xbc498497	-0.012299678
72	0xbca713f0	-0.02039525
73	0xbdc751e0	-0.09732413
74	0x3de23e0a	0.11046989
75	0x3c4dd520	0.01256302
76	0xbe32b2f2	-0.17451075
77	0xbda6c484	-0.08142951
78	0xbdef30b1	-0.11679209
79	0x3c815a48	0.01579012
80	0xbdb2e5b8	-0.087352216
81	0xbd855a64	-0.06511381
82	0xbe0d0efa	-0.13775244
83	0xbc98dc10	-0.018659621
84	0xbddbcc54	-0.10732332
85	0x3e266f4d	0.16253395
86	0xbe57438d	-0.21021862
87	0xbe6906ae	-0.22756454
88	0xbe00abfb	-0.12565605
89	0x3e24321b	0.16034739
90	0xbdfd770d	-0.12376223
91	0x3e1819ad	0.14853545
92	0xbda5fdd6	-0.08105056
93	0xbe70de8e	-0.23522398
94	0xbe0e32dc	-0.13886589
95	0x3db54dba	0.08852716
96	0x3d67f744	0.056632295
97	0x3e1ff45d	0.15620561
98	0x3ac88e80	0.0015301257
99	0x3cbe2a78	0.02321361
100	0xbc675fa0	-0.01412192
101	0xbe09cf80	-0.13458061
102	0xbe59831f	-0.21241425
103	0xbe01eb6e	-0.12687466
104	0xbc60b2e0	-0.013714522
105	0xbe39cb1a	-0.18143883
106	0x3e05d407	0.13069163
107	0x3d9e5daa	0.07732709
108	0xbe0de194	-0.13855582
109	0xbf3523ec	-0.7075794
110	0x3e92cc41	0.28671458
111	0xbe3b111e	-0.18268248
112	0xbdd8c782	-0.10584928
113	0xbd0d4997	-0.03449401
114	0x3beea25e	0.0072825393
115	0xbf28e2ab	-0.6597087
116	0x3d9e4a7e	0.07729052
117	0x3e37cab1	0.17948414
118	0xbf608b33	-0.877124
119	0xbecabf71	-0.39599183
120	0x3e0abcee	0.13548633
121	0xbf15de77	-0.5854258
122	0x3d584794	0.052802637
123	0x3e63248a	0.22181907
124	0x3a71995a	0.00092162716
125	0xbcefbe39	-0.02926551
126	0xbbaeb910	-0.0053321198
127	0x3cb7c894	0.02243451
128	0xbe27f4c8	-0.1640197
129	0x3db80d17	0.08986872
130	0x3e068e56	0.13140234
131	0xbd830b92	-0.06398691
132	0xbe178047	-0.14795028
133	0x3e78b1b3	0.24286537
134	0x3e67b2e2	0.22626832
135	0xbd97f2ff	-0.07419395
136	0xbe746598	-0.2386688
137	0xbd60a1d4	-0.05484183
138	0x3e4d2ed8	0.200374
139	0xbe2b6eeb	-0.1674153
140	0xbe94092f	-0.28913257
141	0x3f8fc56e	1.1232126
142	0x3e4192de	0.18903682
143	0x3d8c9e2f	0.068661086
144	0xbe1ae773	-0.15127353
145	0xbe2e3d31	-0.1701553
146	0x3e45cf1a	0.19317284
147	0x3e82351c	0.25431144
148	0x3e1d0021	0.1533208
149	0xbe67a383	-0.22620969
150	0xbe47d22f	-0.19513772
151	0xbf32ccf8	-0.6984401
152	0x3f27155f	0.65266985
153	0x3e43dde7	0.19127618
154	0x3f0777fd	0.5291746
155	0xbdca037a	-0.09863944
156	0x3c27166a	0.010198215
157	0xbe84b9d7	-0.25923035
158	0x3dd31088	0.103058875
159	0x3fc90bb2	1.5706694
160	0x3de7edb8	0.11324638
161	0x3e12bfb0	0.14330935
162	0x3d8217ee	0.063522205
163	0x3e98e809	0.2986453
164	0x3e54dfed	0.20788546
165	0xbe29d50b	-0.16585176
166	0xbdfe61cc	-0.12420997
167	0x3dee6912	0.11641134
168	0x3e86b84e	0.26312488
169	0x3e98f166	0.29871672
170	0xbecc0b38	-0.3985231
171	0x3e237105	0.15961082
172	0xbe9f5bc2	-0.31124693
173	0x3e9dadc6	0.3079664
174	0xbda8600e	-0.08221446
175	0x3e917c06	0.28414935
176	0xbe3534ec	-0.1769597
177	0xbd4d0116	-0.050049864
178	0x3e2c5ecd	0.16833039
179	0xbe5dea27	-0.21671353
180	0xbd99f732	-0.07517852
181	0xbdefe736	-0.11714022
182	0x3d568ece	0.052382283
183	0x3d9b8e26	0.07595472
184	0x3e18768d	0.14888974
185	0xbe4b4cff	-0.1985359
186	0x3dc7b5d8	0.09751481
187	0x3e3408a6	0.17581424
188	0xbed63423	-0.41836652
189	0x3cdcb54b	0.026941916
190	0xbca327a3	-0.019916361
191	0x3d956a29	0.07295639
192	0xbe5538e8	-0.2082249
193	0xbd63c8d0	-0.05561143
194	0x3e6e077b	0.23245041
195	0x3e063e59	0.13109721
196	0xbc8d7b66	-0.017270755
197	0xbe1dd959	-0.15414943
198	0x3db4464a	0.08802469
199	0xbf858419	-1.0430938
200	0x3ea643ac	0.32473505
201	0xbf1c4279	-0.6103893
202	0xbe80952a	-0.25113803
203	0x3cc66f5c	0.024223022
204	0x3e4b5f09	0.19860472
205	0xbf24952b	-0.6429011
206	0x3e16b9ee	0.14719364
207	0x3eaffc73	0.3437229
208	0xbef431bc	-0.47694194
209	0xbf98fd8f	-1.195238
210	0xbe929452	-0.28628784
211	0xbf0ba33a	-0.5454594
212	0xbdce07ba	-0.100600675
213	0x3dcbb8fa	0.09947391
214	0x3d6ee1d8	0.05832085
215	0xbec31dda	-0.38108712
216	0xbd26e175	-0.040742356
217	0xbd9caad7	-0.076497726
218	0xba26950d	-0.0006354608
219	0xbda89303	-0.08231165
220	0x3e40b7cb	0.18820111
221	0xbe17fdc7	-0.14842902
222	0xbd288514	-0.04114254
223	0xbdf38eaa	-0.118924454
224	0x3d84686c	0.064652294
225	0x3d9937c3	0.07481339
226	0x3ee11596	0.4396178
227	0x3e645f1d	0.22301908
228	0x3cf83d80	0.030302763
229	0xbd519645	-0.0511687
230	0x3ea98966	0.3311264
231	0xbeebfd0f	-0.46091506
232	0xbdee284b	-0.11628779
233	0xbe500d88	-0.20317662
234	0xbde8442a	-0.11341126
235	0x3e3657f0	0.17806983
236	0xb9ca7236	-0.00038613536
237	0x3e98ad94	0.2981993
238	0x3e1785c1	0.14797117
239	0x3c0f37f6	0.0087413695
240	0xbe07d3ff	-0.13264464
241	0x3e98cbb7	0.29842922
242	0x3e9d1597	0.30680534
243	0xbe72c629	-0.23708405
244	0xbc1e8fb4	-0.009677816
245	0x3dd5f4d8	0.10447091
246	0xbdada114	-0.08477989
247	0xbb3d1179	-0.0028849526
248	0xbe88e387	-0.2673609
249	0x3f791322	0.9729482
250	0x3e684ba6	0.22685108
251	0x3db61457	0.08890598
252	0xbe34ffea	-0.17675748
253	0xbf4fffde	-0.812498
254	0x3e606242	0.21912482
255	0xbe4c31f0	-0.19940925

network.2.L1.bias f4 [18]
0	0xbe60aab6	-0.21940121
1	0x3e14a371	0.14515473
2	0xbdd6ae31	-0.10482443
3	0x3e276a0d	0.16349049
4	0xbd8855ca	-0.06656988
5	0xbe195449	-0.14973558
6	0x3d20b2a5	0.03923287
7	0x3e7f4dde	0.24932048
8	0x3d99af0f	0.07504093
9	0x3e6010a3	0.21881346
10	0x3e2f489c	0.17117542
11	0x3dd1718d	0.10226736
12	0x3e007736	0.12545475
13	0x3e729dfb	0.23693077
14	0xbc21c782	-0.0098742265
15	0xbdd7c6ae	-0.10535942
16	0xbe836aa8	-0.2566731
17	0x3e4bac34	0.19889909

network.2.L2.weight f4 [18, 18]
0	0x3c41f32c	0.011837762
1	0xbddded0f	-0.10836231
2	0xbe4dc703	-0.20095448
3	0xbe5314f1	-0.20613457
4	0xbd8905b2	-0.066905394
5	0x3e3e7011	0.18597437
6	0xbd9d3122	-0.07675387
7	0x3c5dd6a2	0.013539942
8	0x3cd5ace9	0.026083427
9	0x3e5a53fa	0.21321097
10	0x3e1b0271	0.1513765
11	0x3ca502fb	0.020143023
12	0xbd57a26e	-0.05264514
13	0xbe2c0fcc	-0.16802901
14	0x3d0d3f23	0.03448404
15	0xbb287f93	-0.0025710806
16	0xbca6f6e2	-0.020381395
17	0x3dcbf6f0	0.09959209
18	0x3d8a2937	0.06746142
19	0xbd8992e7	-0.067174725
20	0xbdeda8eb	-0.11604484
21	0xbe9b71f5	-0.3036038
22	0xbea69a24	-0.32539475
23	0x3e067a1e	0.13132522
24	0xbe4ac5b0	-0.19801974
25	0xbebb1452	-0.3653894
26	0xbdf52b3f	-0.11971139
27	0x3eb91060	0.36145306
28	0x3d77e2d5	0.06051906
29	0xbdbb8122	-0.091554895
30	0xbc2ff20c	-0.010738861
31	0xbe267c4e	-0.16258356
32	0xbe8b7c84	-0.27243435
33	0x3e69b7ce	0.22824022
34	0xbe03972e	-0.12850639
35	0x3ce38e75	0.02777789
36	0x3e5c175d	0.21493287
37	0x3e1502ab	0.14551799
38	0x3e07427a	0.13208953
39	0x3e353ae7	0.1769825
40	0x3e2800c7	0.16406547
41	0xbe0fcd45	-0.14043148
42	0x3ec51cb1	0.38498452
43	0x3ca194d1	0.019724282
44	0x3e0d168a	0.13778129
45	0x3e88d927	0.26728174
46	0x3e4ca059	0.19983043
47	0x3e96c93f	0.29450414
48	0x3c68371d	0.014173296
49	0xbd61f4a7	-0.05516496
50	0xbd8e447e	-0.069466576
51	0xbe3f910a	-0.18707672
52	0x3e8c9533	0.2745758
53	0x3f0320f4	0.5122216
54	0x3e5443a4	0.20728928
55	0x3e10824d	0.14112206
56	0xbd14e365	-0.036349673
57	0x3d8bf8f3	0.06834593
58	0xbd5dc9e4	-0.054147616
59	0x3cdfae87	0.0273049
60	0xbec796fa	-0.38982373
61	0x3ea49745	0.3214666
62	0xbe39deb8	-0.18151367
63	0xbcc01110	-0.023445636
64	0x3e43aa1b	0.19107859
65	0xbeecff70	-0.46288633
66	0xbecc6c68	-0.39926457
67	0x3eb2c9b4	0.34919512
68	0xbd86829e	-0.06567882
69	0xbd2bb2c1	-0.04191852
70	0xbe24ae84	-0.16082197
71	0xbe5089a9	-0.20365013
72	0xbd9223cd	-0.07135735
73	0x3e49c059	0.19702281
74	0xbe2b5ce9	-0.16734661
75	0x3d708516	0.05872067
76	0x3e8b9f80	0.27270126
77	0x3de4a2a0	0.11163831
78	0xbed7bfb5	-0.42138448
79	0x3eabbde6	0.3354332
80	0xbe71b43b	-0.23603909
81	0x3e594108	0.21216214
82	0x3c498dc9	0.012301871
83	0x3d1b690d	0.03794198
84	0xbe178f9f	-0.14800881
85	0x3e077803	0.13229375
86	0x3d0a3eaa	0.033751167
87	0x3e3d0013	0.1845706
88	0x3df84d37	0.121241026
89	0xbea1b68e	-0.3158459
90	0x3deb0c22	0.114769235
91	0x3e0b1375	0.13581641
92	0xbe3602c7	-0.17774497
93	0x3e45b472	0.19307116
94	0xbc8023c2	-0.01564205
95	0x3e375a8e	0.17905638
96	0x3e044a4a	0.12918964
97	0x3e6859cf	0.2269051
98	0xbd958317	-0.07300394
99	0x3cec01a4	0.028809376
100	0xbcd78511	-0.026308568
101	0xbca480cf	-0.020080952
102	0x3d0961b6	0.03354045
103	0xbe0e21dc	-0.13880104
104	0xbdc02ab3	-0.09383144
105	0xbdaa32a9	-0.08310444
106	0xbe6d270e	-0.2315943
107	0xbe10e77b	-0.14150803
108	0xbe1cc581	-0.15309717
109	0xbe654a27	-0.22391568
110	0x3d0699e5	0.03286161
111	0x3e549d35	0.20763095
112	0xbe8dd28d	-0.276997
113	0x3ea6d77c	0.32586277
114	0x3d6011fb	0.054704648
115	0xbe453647	-0.19258986
116	0xbe066782	-0.13125423
117	0x3e52ed91	0.20598437
118	0x3e48c5a5	0.19606645
119	0x3dfeab9f	0.12435078
120	0x3e582448	0.2110759
121	0xbd1559ac	-0.03646247
122	0xbe97ec13	-0.29672298
123	0xbbd59b61	-0.0065187667
124	0x3e63affc	0.22235101
125	0x3daa377a	0.083113626
126	0x3dfc78ef	0.12327754
127	0xbe304357	-0.17213188
128	0x3e696f15	0.2279628
129	0x3e54c1a1	0.20776989
130	0xbe0aa4c8	-0.13539422
131	0xbe44b68d	-0.19210263
132	0xbed15914	-0.40888274
133	0x3e9f4067	0.31103823
134	0x3d63e1c4	0.05563523
135	0x3ec7238d	0.3889431
136	0xbe48e7c3	-0.1961966
137	0xbd599285	-0.053118248
138	0xbe89a896	-0.26886433
139	0xbd40f48e	-0.047108226
140	0xbe186ef9	-0.14886083
141	0xbe816c8d	-0.2527813
142	0x3ddcec6c	0.107872814
143	0xbdafe43e	-0.085884556
144	0x3df1dc3e	0.11809586
145	0x3ec6e00b	0.38842806
146	0xbe4f7e2a	-0.20262972
147	0x3e279974	0.16367131
148	0x3ea08307	0.31349966
149	0xbe9993ce	-0.2999558
150	0xbde2f50c	-0.11081895
151	0xbdf32a27	-0.11873274
152	0x3e921b2c	0.28536355
153	0xbc10411c	-0.008804586
154	0xbd94d326	-0.07266836
155	0xbe49bb33	-0.19700317
156	0x3e5580a5	0.20849855
157	0x3e3f5718	0.18685567
158	0x3e8f837c	0.28030002
159	0x3da86f94	0.08224407
160	0xbe6049e7	-0.21903192
161	0xbdec15b1	-0.11527575
162	0x3d9b84ec	0.07593712
163	0xbde5b554	-0.11216226
164	0x3e7dbc67	0.24778901
165	0xbbc0ab35	-0.0058797845
166	0xbd421013	-0.04737861
167	0xbd3f13f9	-0.046649907
168	0xbd535261	-0.051592235
169	0xbde2ba38	-0.11070675
170	0x3e8af338	0.27138686
171	0xbe02046b	-0.12696998
172	0xbc9b662c	-0.018969618
173	0x3e8c1c28	0.27365232
174	0x3d34082e	0.043953113
175	0x3e168a29	0.14701141
176	0x3e16dcfa	0.14732733
177	0xbe9ad714	-0.30242217
178	0x3ea7c71e	0.32769102
179	0x3ec974ad	0.3934683
180	0xbd2aea32	-0.041727252
181	0x3e67c972	0.22635439
182	0x3e94d165	0.29066005
183	0xbeb77b85	-0.35836425
184	0xbe7087f7	-0.23489366
185	0x3d263b4d	0.040583897
186	0xbecce665	-0.40019527
187	0xbc8b964e	-0.017039444
188	0x3c883476	0.016626578
189	0x3dadd2f0	0.08487499
190	0x3e37c80e	0.17947409
191	0x3e9d6038	0.30737472
192	0xbd14ce65	-0.036329646
193	0x3e8dd612	0.27702385
194	0xbe9226b7	-0.28545162
195	0x3e925b7c	0.28585422
196	0xbe5c0924	-0.21487862
197	0xbee51752	-0.44744354
198	0xbcf69f6b	-0.030105313
199	0xbe94314f	-0.2894387
200	0x3e018383	0.12647824
201	0xbe9352e4	-0.28774178
202	0xbea67bd8	-0.3251636
203	0x3f0de5fa	0.5542904
204	0xbea5b39c	-0.32363594
205	0xbead13e8	-0.3380425
206	0xbe108874	-0.14114553
207	0x3e5168db	0.20450155
208	0x3e8cc70f	0.2749562
209	0xbcaa42b4	-0.02078376
210	0x3d5b7da1	0.053586606
211	0x3e611dad	0.21983977
212	0xbe27b4fb	-0.16377632
213	0x3e9a888d	0.30182305
214	0xbd9a8858	-0.07545537
215	0x3e167ff6	0.1469725
216	0xbdbb3f31	-0.09142912
217	0xbe24e624	-0.16103417
218	0xbe2815b7	-0.16414534
219	0xbbed604e	-0.0072441464
220	0xbda5422c	-0.08069262
221	0x3ca28779	0.019839989
222	0xbe8e000e	-0.27734417
223	0xbe3a6138	-0.18201149
224	0x3dccedc2	0.10006286
225	0x3d43b3f6	0.047779046
226	0xbd1a18fa	-0.037621476
227	0x3dc24935	0.094866194
228	0x3e1dcec4	0.15410906
229	0x3e3f5b69	0.18687214
230	0x3e95b131	0.2923675
231	0x3e758f91	0.23980547
232	0xbe2b72f2	-0.16743067
233	0xbd8ab3db	-0.06772586
234	0xbc824cfe	-0.015905853
235	0xbe3e4ec7	-0.18584739
236	0x3d73262e	0.059362583
237	0xbe63a7cc	-0.22231978
238	0xbeaa57c3	-0.33270082
239	0x3e12462f	0.14284585
240	0xbea7acbe	-0.3274898
241	0x3e27cf23	0.1638761
242	0xbe4c203a	-0.19934168
243	0x3e00af4c	0.1256687
244	0x3daf1b14	0.085500866
245	0x3d84062b	0.06446489
246	0x3e35d599	0.17757262
247	0x3cae2d59	0.021261858
248	0x3d75c4c7	0.060002115
249	0xbc01fc96	-0.007933756
250	0xbcc87ed7	-0.024474544
251	0x3e12bb30	0.14329219
252	0x3e069c7f	0.13145636
253	0x3ce2d49c	0.02768927
254	0xbd16026b	-0.0366234
255	0x3d067c57	0.032833423

network.2.L2.bias f4 [18]
0	0xbe046a97	-0.12931286
1	0x3e79d4d7	0.24397598
2	0xbd7d973e	-0.061911814
3	0x3e2a0938	0.16605079
4	0x3e56cbbb	0.20976155
5	0xbe16830a	-0.14698425
6	0x3e370f17	0.1787685
7	0xbe06f173	-0.13178043
8	0x3addb7dd	0.0016915757
9	0x3d66176b	0.056174677
10	0xbc8abbcc	-0.016935252
11	0x3d7fd713	0.06246097
12	0x3e00229e	0.12513205
13	0x3e66c00b	0.22534196
14	0xbe781ec2	-0.24230483
15	0xbe49f660	-0.19722891
16	0x3e41e2e9	0.18934216
17	0x3e818e8d	0.2530407
