PathDependent/outputNN/_flocking_full_D4_d2_dest4_orig1_twogroups_fiu0_1_fix1_gi40_Depth4sigma0_1_sigma00_gamma0_1_gamma00_0.pth (torch, 41261 bytes, 96 tensors)

first.weight f4 [18, 17]
000000 92 ed 51 be d5 17 c1 3d 59 01 79 3e e7 b5 e5 3a
       -0.20500782 0.09428374 0.2431692 0.0017525525
000010 96 c2 02 3e 96 8f 44 3e 09 11 ce 3c 67 ae 7c 3d
       0.12769541 0.19195399 0.025154607 0.06168976
000020 81 66 0d 3e 79 4d 97 bd 8b 92 e2 bc b2 2b 53 3e
       0.13808633 -0.073878236 -0.027657768 0.20622137
000030 e0 82 b9 3d 6e 73 86 3e 2e 46 ed bd 77 97 88 be
       0.090581656 0.2625994 -0.11585651 -0.26678059
000040 2a 56 1b 3e b0 94 64 be 78 d4 10 3f 8a ac be bd
       0.15169588 -0.22322345 0.565742 -0.09310253
000050 45 2e ce bd 3a f8 0a 3e d8 b8 81 3d ad 14 b4 bc
       -0.10067419 0.13571253 0.06334084 -0.021982515
000060 60 bd f3 3d 40 9e 1d 3d d9 69 11 3e 2f c7 65 be
       0.11901355 0.038480997 0.14200534 -0.22439264
000070 68 3a aa 3d f2 b8 18 be cf 35 81 be ed f5 5c 3d
       0.08311921 -0.14914301 -0.25236365 0.05394547
000080 a4 fb dd 3b 5e 18 ce 3c 9a fc 1a 3e da 18 33 3e
       0.0067743827 0.025158104 0.15135422 0.17489949
000090 54 e2 7d 3e 6d 5a 7d 3c 76 9f 9a be b5 93 27 3e
       0.24793369 0.015463454 -0.30199784 0.1636494
0000a0 d9 51 75 be 46 eb 23 be 69 56 ef 3d fb 92 d9 3a
       -0.23957004 -0.16007718 0.11686403 0.001659959
0000b0 4c 99 39 3d a1 21 b6 ba 33 80 5d 3d 77 26 52 bd
       0.04531221 -0.001389552 0.05407734 -0.051306214
0000c0 ce ba 09 3e 7c 14 50 3e 4e a7 ac 3e b8 d4 89 be
       0.13450167 0.20320314 0.33721393 -0.26920104
0000d0 fe 74 19 3e d8 ca 13 be 4c c1 f2 3d d1 bf 0f 3e
       0.14986035 -0.14432847 0.11853275 0.14038016
0000e0 14 f3 62 bb 87 42 53 3c 15 92 dc 3d 6f 6b 77 bd
       -0.003462975 0.012894279 0.107700504 -0.06040519
0000f0 f7 92 82 3d a9 b5 fd bd 65 8f 3e be ca 1a bf bc
       0.063756876 -0.123881646 -0.18609388 -0.023328204
000100 b6 bd 05 be 77 df 18 3c 9b 81 8d 3d 25 a9 c1 3d
       -0.1306065 0.009330622 0.06909486 0.0945609
000110 45 c0 a0 bd 10 21 56 3c d4 37 0e 3e 82 fa cb bb
       -0.078491725 0.013069406 0.13888484 -0.006224931
000120 15 12 2b 3d 24 e1 0e 3d 23 20 39 be 38 99 25 be
       0.04176529 0.03488268 -0.18078665 -0.1617173
000130 5d 23 82 be 6c b1 07 3e e9 e2 24 bd ae dd 23 3e
       -0.25417605 0.13251275 -0.04025546 0.16002533
000140 d3 44 52 3e cc e3 2e 3e 32 a7 e6 bc 3a 2a 26 3d
       0.20534067 0.17079085 -0.028155897 0.040567614
000150 d1 5e 18 bc a7 ef 5e be 32 6e 07 3c e1 81 1c 3e
       -0.00929995 -0.21771108 0.008266019 0.1528392
000160 31 11 27 3e 19 4f 07 be dd 2a 7f 3e 43 d7 06 3d
       0.16315152 -0.13213767 0.24918695 0.032920133
000170 53 93 68 3d 17 50 8a 3c 97 37 2b bd b2 6b 55 3e
       0.056781124 0.016883893 -0.04180106 0.20841864
000180 c9 66 89 3e 6b 3a 35 bd 23 f5 92 3e f8 ed 5d 3e
       0.2683623 -0.044245165 0.2870265 0.21672809
000190 62 f8 47 3e b4 3d dd bd d9 05 43 3d 2f 02 74 3e
       0.19528344 -0.108027846 0.047613 0.23828958
0001a0 3d f9 94 be 49 22 85 3d df e0 e5 bd e6 4a db ba
       -0.29096404 0.0650068 -0.112245314 -0.0016730695
0001b0 66 1f 10 3e 7a c7 87 3e 21 0c 66 be f4 fa dc bd
       0.14074478 0.26519376 -0.22465564 -0.10790053
0001c0 23 af 00 be 8f 1a 40 be 0e 76 4b 3e 3f ed 3a 3e
       -0.1256681 -0.18760131 0.19869253 0.18254565
0001d0 e0 64 1d 3e 86 45 87 bd 02 38 18 3e d1 de 4c bd
       0.15370512 -0.066050574 0.14865115 -0.05001718
0001e0 5f 5c 9c be 17 f5 06 3e 0c c9 15 be 16 b5 3d 3e
       -0.30539224 0.13179432 -0.14627475 0.1852611
0001f0 d0 fc fa bd e5 0d 8c 3e 82 35 36 3e ef 06 58 3d
       -0.122552514 0.2735435 0.17793849 0.052740987
000200 11 24 0c be 57 3d 49 be 97 18 67 bd 4b d6 8c 3e
       -0.13685633 -0.19652306 -0.056419935 0.27507243
000210 af 42 b3 be f9 90 a6 3d 93 d6 9a 3d ff a5 d3 bd
       -0.35011813 0.0813312 0.07560458 -0.103343956
000220 63 26 04 3e 8f 22 1a be cf d8 d2 bd b3 79 6a bc
       0.12905268 -0.15052246 -0.10295259 -0.014311242
000230 8f 0a 2f 3d 76 3d 22 3b d4 ef d6 3d 9d e9 d9 bd
       0.04273468 0.0024755872 0.10494962 -0.10640261
000240 51 1d 6a be 22 7b 5c bc c9 0e d5 3b b4 29 0d be
       -0.22862746 -0.0134570915 0.0065020067 -0.1378544
000250 50 aa 0e be 5f 55 21 be ca ca cf bd 10 ef 3e bc
       -0.13932157 -0.15755223 -0.10146101 -0.011653677
000260 66 16 f8 3d e5 79 53 3c d7 de 2d 3e 1f 2b 46 be
       0.12113647 0.01290748 0.16979538 -0.19352387
000270 ee 49 26 3e 7d 17 5b 3e 09 62 16 be 17 6e 4c 3e
       0.1623914 0.21395679 -0.14685835 0.19963871
000280 54 81 6a 3d 0c 5a 36 3e 55 8b 50 bd e5 a0 2b 3e
       0.057252243 0.17807788 -0.050914127 0.16760595
000290 3f b9 4f be ac de 63 be c3 27 90 3d 5e 3d 48 3e
       -0.2028551 -0.22252911 0.07038834 0.1955466
0002a0 fb e0 3d bd 58 34 e1 bd 76 21 68 be f2 2d d4 3d
       -0.046357136 -0.10996312 -0.22669014 0.10360326
0002b0 35 be cd bc a9 be 0e be 46 07 a1 3d e8 90 8d bb
       -0.025115112 -0.13939919 0.078627154 -0.0043202527
0002c0 03 9c a0 bd 5e 13 92 3a a8 31 8b 3d bd 57 4a 3d
       -0.07842257 0.0011144688 0.067965806 0.04940008
0002d0 f5 7e 06 3c 7a f3 80 be f8 ad e0 bc 60 de 3e be
       0.00820898 -0.25185758 -0.027426705 -0.18639517
0002e0 39 55 23 bd c0 6c c9 3c 62 3c 78 3e 64 e1 83 3d
       -0.039876197 0.024587989 0.24241784 0.06439474
0002f0 80 28 47 be f1 8b 93 3d 74 e0 64 3e 30 2f ad 3d
       -0.19449043 0.07204426 0.22351247 0.08456266
000300 a8 18 22 bd 5a 21 6b bd c5 4d e2 3d 72 57 ca 3d
       -0.039574295 -0.057404853 0.110499896 0.0987996
000310 36 25 32 3e 18 98 49 be 34 91 72 3e ba 55 c6 3d
       0.17397007 -0.19686925 0.23688203 0.0968432
000320 c4 0c 53 3d cd 29 9f bb 06 f5 53 3d a9 aa 95 bd
       0.051525846 -0.004857278 0.051747344 -0.073079415
000330 0b 72 66 be e5 29 c9 3e ae e0 bb bd e3 21 e6 bd
       -0.22504441 0.39289775 -0.091737136 -0.11236932
000340 18 85 41 3e 07 61 60 3c 8c 78 d8 3c 2d 4b b9 3d
       0.18898427 0.013695008 0.026424669 0.09047542
000350 1f c8 1a be c0 f9 a9 3d 3e be 58 be f6 b3 2a 3e
       -0.15115403 0.08299589 -0.21166322 0.16670212
000360 6d 20 8a 3e e1 65 b8 3d 6b c8 28 be 68 ee 81 3e
       0.26977864 0.09003807 -0.16482703 0.25377202
000370 c6 b8 24 3e a7 e3 c5 bd c0 63 c6 be 22 cb af 3e
       0.1608611 -0.09662562 -0.38747978 0.34334666
000380 1e 48 81 3d b6 aa 17 3e 45 6e c0 3d 1f 03 30 bb
       0.063125834 0.14811215 0.09396032 -0.002685733
000390 7b 4a 3b 3e 5c 12 8e 3c 91 6c 24 3e b8 76 85 bd
       0.18290131 0.017342739 0.1605704 -0.065167844
0003a0 d2 d0 c3 3d cf b3 35 3e 1a 54 40 3e 47 9c 36 3e
       0.09561314 0.17744373 0.18782082 0.17833053
0003b0 78 57 36 bc 90 e9 6b 3e 41 80 31 3e a8 de 77 3e
       -0.011129253 0.23038316 0.17334081 0.2420603
0003c0 14 bb e9 bd f2 af 5f be df 3e 3d 3d 3d dc 08 bd
       -0.114126354 -0.21844462 0.046202537 -0.03341316
0003d0 a1 6b a7 bd 8a fb 0d be 63 b5 a5 bd b5 3f 99 3c
       -0.081748255 -0.13865486 -0.080912374 0.018707136
0003e0 2a ce 78 be 16 62 65 3d 78 b5 57 3e 5f 16 47 be
       -0.24297395 0.056001745 0.21065319 -0.19442128
0003f0 0f 86 54 be 03 1c 4f 3e ff 98 20 be 81 1e 00 3c
       -0.20754264 0.2022553 -0.15683363 0.007819773

first.bias f4 [18]
000000 5f 81 f0 3d 40 cf cc 3d 96 ed 7f bd 44 58 de bd
       0.117434256 0.10000467 -0.06248244 -0.10856679
000010 7c 51 ad 3d 8f d7 8e 3e 60 55 0d 3e 6a 48 dc bd
       0.084628075 0.27898833 0.13802099 -0.107559994
000020 94 de 7c 3e 25 4e 3f 3e 4b 37 0c bd 82 9b ae bd
       0.24694282 0.18682154 -0.03423242 -0.085257545
000030 21 3f 66 be 37 35 85 3e cd 83 4a 3e 86 ec 7f be
       -0.2248502 0.26017162 0.1977684 -0.2499257
000040 9c 51 04 be d5 f7 a7 3d
       -0.12921757 0.08201567

last.weight f4 [2, 18]
000000 5b dd fa 3d f2 34 93 be d6 d9 30 be 32 df 3a be
       0.122492515 -0.28751332 -0.17270598 -0.18249205
000010 24 7a d9 3d 40 8e e0 bd 97 fa ec bd ce 3e 20 3e
       0.106189996 -0.10964632 -0.11571234 0.15648958
000020 bb 1a 47 3d 93 a6 07 be 24 22 d1 bd ef 58 34 3c
       0.048609477 -0.13247137 -0.1021159 0.011007532
000030 de e4 d6 bd 50 79 f8 3d ec 94 39 be b5 08 cf 3c
       -0.10492872 0.121325135 -0.18123215 0.025272707
000040 6e de 14 bd 3d fb 1e 3e 16 2e 61 bc 29 9a 8f bc
       -0.036344938 0.15525527 -0.013743898 -0.017529564
000050 61 1b 5a be 69 9f d2 bd 84 ba a3 3d 47 62 83 be
       -0.21299507 -0.10284311 0.079945594 -0.25660917
000060 a4 4e 5a 3e 94 15 2f 3e 3c 4b 3a be b3 9a 9f 3d
       0.21319062 0.17098075 -0.18192762 0.077931784
000070 9f e0 1f bd d5 3b 51 be 52 2f 53 3e 33 f0 63 bd
       -0.039032575 -0.2043298 0.2062352 -0.055648994
000080 00 f1 5c 3e 4a 9a f7 3c 88 aa 89 bc 3d d9 5d 3e
       0.21576309 0.030224938 -0.016804948 0.21664901

last.bias f4 [2]
000000 d6 fc d8 bd de 7c 11 3d
       -0.105951 0.035519473

network.0.weight f4 [18, 17]
000000 92 ed 51 be d5 17 c1 3d 59 01 79 3e e7 b5 e5 3a
       -0.20500782 0.09428374 0.2431692 0.0017525525
000010 96 c2 02 3e 96 8f 44 3e 09 11 ce 3c 67 ae 7c 3d
       0.12769541 0.19195399 0.025154607 0.06168976
000020 81 66 0d 3e 79 4d 97 bd 8b 92 e2 bc b2 2b 53 3e
       0.13808633 -0.073878236 -0.027657768 0.20622137
000030 e0 82 b9 3d 6e 73 86 3e 2e 46 ed bd 77 97 88 be
       0.090581656 0.2625994 -0.11585651 -0.26678059
000040 2a 56 1b 3e b0 94 64 be 78 d4 10 3f 8a ac be bd
       0.15169588 -0.22322345 0.565742 -0.09310253
000050 45 2e ce bd 3a f8 0a 3e d8 b8 81 3d ad 14 b4 bc
       -0.10067419 0.13571253 0.06334084 -0.021982515
000060 60 bd f3 3d 40 9e 1d 3d d9 69 11 3e 2f c7 65 be
       0.11901355 0.038480997 0.14200534 -0.22439264
000070 68 3a aa 3d f2 b8 18 be cf 35 81 be ed f5 5c 3d
       0.08311921 -0.14914301 -0.25236365 0.05394547
000080 a4 fb dd 3b 5e 18 ce 3c 9a fc 1a 3e da 18 33 3e
       0.0067743827 0.025158104 0.15135422 0.17489949
000090 54 e2 7d 3e 6d 5a 7d 3c 76 9f 9a be b5 93 27 3e
       0.24793369 0.015463454 -0.30199784 0.1636494
0000a0 d9 51 75 be 46 eb 23 be 69 56 ef 3d fb 92 d9 3a
       -0.23957004 -0.16007718 0.11686403 0.001659959
0000b0 4c 99 39 3d a1 21 b6 ba 33 80 5d 3d 77 26 52 bd
       0.04531221 -0.001389552 0.05407734 -0.051306214
0000c0 ce ba 09 3e 7c 14 50 3e 4e a7 ac 3e b8 d4 89 be
       0.13450167 0.20320314 0.33721393 -0.26920104
0000d0 fe 74 19 3e d8 ca 13 be 4c c1 f2 3d d1 bf 0f 3e
       0.14986035 -0.14432847 0.11853275 0.14038016
0000e0 14 f3 62 bb 87 42 53 3c 15 92 dc 3d 6f 6b 77 bd
       -0.003462975 0.012894279 0.107700504 -0.06040519
0000f0 f7 92 82 3d a9 b5 fd bd 65 8f 3e be ca 1a bf bc
       0.063756876 -0.123881646 -0.18609388 -0.023328204
000100 b6 bd 05 be 77 df 18 3c 9b 81 8d 3d 25 a9 c1 3d
       -0.1306065 0.009330622 0.06909486 0.0945609
000110 45 c0 a0 bd 10 21 56 3c d4 37 0e 3e 82 fa cb bb
       -0.078491725 0.013069406 0.13888484 -0.006224931
000120 15 12 2b 3d 24 e1 0e 3d 23 20 39 be 38 99 25 be
       0.04176529 0.03488268 -0.18078665 -0.1617173
000130 5d 23 82 be 6c b1 07 3e e9 e2 24 bd ae dd 23 3e
       -0.25417605 0.13251275 -0.04025546 0.16002533
000140 d3 44 52 3e cc e3 2e 3e 32 a7 e6 bc 3a 2a 26 3d
       0.20534067 0.17079085 -0.028155897 0.040567614
000150 d1 5e 18 bc a7 ef 5e be 32 6e 07 3c e1 81 1c 3e
       -0.00929995 -0.21771108 0.008266019 0.1528392
000160 31 11 27 3e 19 4f 07 be dd 2a 7f 3e 43 d7 06 3d
       0.16315152 -0.13213767 0.24918695 0.032920133
000170 53 93 68 3d 17 50 8a 3c 97 37 2b bd b2 6b 55 3e
       0.056781124 0.016883893 -0.04180106 0.20841864
000180 c9 66 89 3e 6b 3a 35 bd 23 f5 92 3e f8 ed 5d 3e
       0.2683623 -0.044245165 0.2870265 0.21672809
000190 62 f8 47 3e b4 3d dd bd d9 05 43 3d 2f 02 74 3e
       0.19528344 -0.108027846 0.047613 0.23828958
0001a0 3d f9 94 be 49 22 85 3d df e0 e5 bd e6 4a db ba
       -0.29096404 0.0650068 -0.112245314 -0.0016730695
0001b0 66 1f 10 3e 7a c7 87 3e 21 0c 66 be f4 fa dc bd
       0.14074478 0.26519376 -0.22465564 -0.10790053
0001c0 23 af 00 be 8f 1a 40 be 0e 76 4b 3e 3f ed 3a 3e
       -0.1256681 -0.18760131 0.19869253 0.18254565
0001d0 e0 64 1d 3e 86 45 87 bd 02 38 18 3e d1 de 4c bd
       0.15370512 -0.066050574 0.14865115 -0.05001718
0001e0 5f 5c 9c be 17 f5 06 3e 0c c9 15 be 16 b5 3d 3e
       -0.30539224 0.13179432 -0.14627475 0.1852611
0001f0 d0 fc fa bd e5 0d 8c 3e 82 35 36 3e ef 06 58 3d
       -0.122552514 0.2735435 0.17793849 0.052740987
000200 11 24 0c be 57 3d 49 be 97 18 67 bd 4b d6 8c 3e
       -0.13685633 -0.19652306 -0.056419935 0.27507243
000210 af 42 b3 be f9 90 a6 3d 93 d6 9a 3d ff a5 d3 bd
       -0.35011813 0.0813312 0.07560458 -0.103343956
000220 63 26 04 3e 8f 22 1a be cf d8 d2 bd b3 79 6a bc
       0.12905268 -0.15052246 -0.10295259 -0.014311242
000230 8f 0a 2f 3d 76 3d 22 3b d4 ef d6 3d 9d e9 d9 bd
       0.04273468 0.0024755872 0.10494962 -0.10640261
000240 51 1d 6a be 22 7b 5c bc c9 0e d5 3b b4 29 0d be
       -0.22862746 -0.0134570915 0.0065020067 -0.1378544
000250 50 aa 0e be 5f 55 21 be ca ca cf bd 10 ef 3e bc
       -0.13932157 -0.15755223 -0.10146101 -0.011653677
000260 66 16 f8 3d e5 79 53 3c d7 de 2d 3e 1f 2b 46 be
       0.12113647 0.01290748 0.16979538 -0.19352387
000270 ee 49 26 3e 7d 17 5b 3e 09 62 16 be 17 6e 4c 3e
       0.1623914 0.21395679 -0.14685835 0.19963871
000280 54 81 6a 3d 0c 5a 36 3e 55 8b 50 bd e5 a0 2b 3e
       0.057252243 0.17807788 -0.050914127 0.16760595
000290 3f b9 4f be ac de 63 be c3 27 90 3d 5e 3d 48 3e
       -0.2028551 -0.22252911 0.07038834 0.1955466
0002a0 fb e0 3d bd 58 34 e1 bd 76 21 68 be f2 2d d4 3d
       -0.046357136 -0.10996312 -0.22669014 0.10360326
0002b0 35 be cd bc a9 be 0e be 46 07 a1 3d e8 90 8d bb
       -0.025115112 -0.13939919 0.078627154 -0.0043202527
0002c0 03 9c a0 bd 5e 13 92 3a a8 31 8b 3d bd 57 4a 3d
       -0.07842257 0.0011144688 0.067965806 0.04940008
0002d0 f5 7e 06 3c 7a f3 80 be f8 ad e0 bc 60 de 3e be
       0.00820898 -0.25185758 -0.027426705 -0.18639517
0002e0 39 55 23 bd c0 6c c9 3c 62 3c 78 3e 64 e1 83 3d
       -0.039876197 0.024587989 0.24241784 0.06439474
0002f0 80 28 47 be f1 8b 93 3d 74 e0 64 3e 30 2f ad 3d
       -0.19449043 0.07204426 0.22351247 0.08456266
000300 a8 18 22 bd 5a 21 6b bd c5 4d e2 3d 72 57 ca 3d
       -0.039574295 -0.057404853 0.110499896 0.0987996
000310 36 25 32 3e 18 98 49 be 34 91 72 3e ba 55 c6 3d
       0.17397007 -0.19686925 0.23688203 0.0968432
000320 c4 0c 53 3d cd 29 9f bb 06 f5 53 3d a9 aa 95 bd
       0.051525846 -0.004857278 0.051747344 -0.073079415
000330 0b 72 66 be e5 29 c9 3e ae e0 bb bd e3 21 e6 bd
       -0.22504441 0.39289775 -0.091737136 -0.11236932
000340 18 85 41 3e 07 61 60 3c 8c 78 d8 3c 2d 4b b9 3d
       0.18898427 0.013695008 0.026424669 0.09047542
000350 1f c8 1a be c0 f9 a9 3d 3e be 58 be f6 b3 2a 3e
       -0.15115403 0.08299589 -0.21166322 0.16670212
000360 6d 20 8a 3e e1 65 b8 3d 6b c8 28 be 68 ee 81 3e
       0.26977864 0.09003807 -0.16482703 0.25377202
000370 c6 b8 24 3e a7 e3 c5 bd c0 63 c6 be 22 cb af 3e
       0.1608611 -0.09662562 -0.38747978 0.34334666
000380 1e 48 81 3d b6 aa 17 3e 45 6e c0 3d 1f 03 30 bb
       0.063125834 0.14811215 0.09396032 -0.002685733
000390 7b 4a 3b 3e 5c 12 8e 3c 91 6c 24 3e b8 76 85 bd
       0.18290131 0.017342739 0.1605704 -0.065167844
0003a0 d2 d0 c3 3d cf b3 35 3e 1a 54 40 3e 47 9c 36 3e
       0.09561314 0.17744373 0.18782082 0.17833053
0003b0 78 57 36 bc 90 e9 6b 3e 41 80 31 3e a8 de 77 3e
       -0.011129253 0.23038316 0.17334081 0.2420603
0003c0 14 bb e9 bd f2 af 5f be df 3e 3d 3d 3d dc 08 bd
       -0.114126354 -0.21844462 0.046202537 -0.03341316
0003d0 a1 6b a7 bd 8a fb 0d be 63 b5 a5 bd b5 3f 99 3c
       -0.081748255 -0.13865486 -0.080912374 0.018707136
0003e0 2a ce 78 be 16 62 65 3d 78 b5 57 3e 5f 16 47 be
       -0.24297395 0.056001745 0.21065319 -0.19442128
0003f0 0f 86 54 be 03 1c 4f 3e ff 98 20 be 81 1e 00 3c
       -0.20754264 0.2022553 -0.15683363 0.007819773

network.0.bias f4 [18]
000000 5f 81 f0 3d 40 cf cc 3d 96 ed 7f bd 44 58 de bd
       0.117434256 0.10000467 -0.06248244 -0.10856679
000010 7c 51 ad 3d 8f d7 8e 3e 60 55 0d 3e 6a 48 dc bd
       0.084628075 0.27898833 0.13802099 -0.107559994
000020 94 de 7c 3e 25 4e 3f 3e 4b 37 0c bd 82 9b ae bd
       0.24694282 0.18682154 -0.03423242 -0.085257545
000030 21 3f 66 be 37 35 85 3e cd 83 4a 3e 86 ec 7f be
       -0.2248502 0.26017162 0.1977684 -0.2499257
000040 9c 51 04 be d5 f7 a7 3d
       -0.12921757 0.08201567

network.1.L1.weight f4 [18, 18]
000000 3f 59 2a 3e 93 3c 10 3e de b1 4c 3e b1 da 4c be
       0.16635607 0.14085607 0.19989726 -0.20005299
000010 fe f3 10 3c f7 31 c1 bd 31 1f bd 3b 96 69 09 3e
       0.008847235 -0.09433358 0.0057715406 0.13419184
000020 d9 00 6c be 6d e5 70 bc cb fa 79 bd 92 ff 5c 3c
       -0.23047198 -0.014703137 -0.06103019 0.013488667
000030 f1 65 f2 bd 95 59 7f 3e aa 99 ae bd f2 77 20 be
       -0.1183585 0.24936517 -0.08525403 -0.15670756
000040 ea 56 3d be 37 bd d4 bc 3c ee 03 be b8 30 6a be
       -0.18490186 -0.02596913 -0.12883848 -0.22870147
000050 c0 db 3f 3c c2 c2 98 bd 66 75 a9 bd 74 3c 76 bd
       0.011710107 -0.07459022 -0.08274345 -0.060116246
000060 74 1f d0 bd ee 7e c0 3d 28 cf 60 be 9e d6 85 3d
       -0.10162249 0.0939921 -0.21954024 0.065350756
000070 34 7f 40 3d 34 2b 6e bd 9c 88 2e 3d c8 7d 2d be
       0.04699631 -0.05814667 0.04261075 -0.16942513
000080 b8 a5 41 bd b6 2b 97 3d 38 69 46 bd f6 c2 c4 bd
       -0.047277182 0.07381384 -0.04844019 -0.09607498
000090 31 fc 34 3e 49 83 42 be 1a fa bb 3d 40 e7 9a bc
       0.17674328 -0.18995394 0.091785625 -0.018909097
0000a0 62 e2 b2 bd 4e de 90 bd dd 5e 20 3e 13 b0 2a 3e
       -0.08734585 -0.07073651 0.15661187 0.1666873
0000b0 ac d9 1e 3d 40 87 b8 3b 40 89 62 bb 62 f4 83 3d
       0.038781807 0.0056313574 -0.003456667 0.06443097
0000c0 94 6f 5a 3d d1 a3 23 3e 26 57 10 be 60 39 ee 3b
       0.053329065 0.1598046 -0.14095744 0.007270023
0000d0 82 fa 12 be 16 ef 52 be 03 31 57 3e b1 14 19 bd
       -0.14353374 -0.20599017 0.2101479 -0.03737325
0000e0 2e c8 55 3e 5d 7b 49 3e cf 5d c0 3d c6 fb 38 3e
       0.20877144 0.19675966 0.093928926 0.18064794
0000f0 c1 1b 3e 3e 46 37 61 be f2 3d b8 3d 92 b0 7a be
       0.18565275 -0.21993741 0.0899619 -0.24481419
000100 46 49 16 bd 92 b5 3d be ce 49 47 be 24 ac d6 bd
       -0.036690973 -0.18526295 -0.19461748 -0.10482052
000110 67 5b 24 be 67 f6 71 bd fb 06 0b be ec b8 70 bc
       -0.16050492 -0.05907288 -0.13576882 -0.014692526
000120 5e 89 19 3e bb 1d ae bc 00 f8 1b be 63 b0 63 be
       0.14993808 -0.021254411 -0.15231323 -0.22235255
000130 06 fb fa bd 38 32 08 bd fe 75 00 3e f4 97 a8 bd
       -0.1225491 -0.033251017 0.1254501 -0.08232108
000140 ce d4 90 bd e7 d9 93 be 1e eb 00 3e 01 7b c3 bc
       -0.07071839 -0.28877184 0.1258969 -0.023862364
000150 72 2c 1d be a4 70 23 3e d9 4e 20 3e 3c 57 b3 bd
       -0.15348986 0.15960938 0.15655078 -0.08756873
000160 0a ac e5 3d c4 69 f2 bd c2 a8 b5 3d 29 a5 22 be
       0.112144545 -0.118365794 0.088700786 -0.15883316
000170 de 9a 4c 3e 18 ce e0 3c 31 fa 8c 3c 45 a9 75 3d
       0.19980952 0.027442023 0.017209144 0.05997588
000180 75 b5 e2 bd 88 c1 84 be f0 d1 de bc 6a b0 ba 3d
       -0.110697664 -0.25928903 -0.027199715 0.091156796
000190 8b 7a 67 be 90 86 03 be f7 59 20 3e c1 d0 77 bd
       -0.2260534 -0.128443 0.15659319 -0.060501818
0001a0 5c 23 f5 3c 04 06 40 3e 16 99 bb bc 95 5c 89 bd
       0.029924087 0.18752295 -0.022900146 -0.06707112
0001b0 c5 ea 85 bc 6a 8f 47 be 64 02 32 3e b1 99 34 3e
       -0.016347298 -0.19488302 0.17383724 0.17636754
0001c0 b1 e1 8f 3d 0c 1d 47 be 92 75 65 be c3 36 a5 bc
       0.07025469 -0.19444674 -0.22408131 -0.020167714
0001d0 a1 10 6e be f6 b0 7c 3d a6 d3 df 3d 75 d4 16 3e
       -0.23248531 0.0616922 0.109290406 0.14729483
0001e0 49 fb fd bd a6 28 63 be 1d 55 0e be bb 17 4f 3e
       -0.124014445 -0.22183475 -0.13899656 0.20223896
0001f0 a3 52 28 bd 60 19 0f bd 4d c5 fe 3d 8f e1 65 be
       -0.041094434 -0.03493631 0.12439976 -0.22449325
000200 88 67 14 bc b9 76 3a be 68 67 0d 3d cb 3e 4d bc
       -0.009057887 -0.18209352 0.034522444 -0.012527178
000210 4f 7a 07 bf de 8e 1e bd e4 cc 6a 3d 34 fb 90 3d
       -0.52921003 -0.038710468 0.057324305 0.07079163
000220 cc 87 40 bd a8 73 48 3f 47 0a 84 3e 86 e7 51 3c
       -0.047004506 0.7830148 0.2578909 0.012811547
000230 6d 6c 59 3e 2b e7 b2 bc b3 3b c6 3d 24 40 1d be
       0.21232767 -0.021838745 0.096793555 -0.15356499
000240 2f 96 10 3c 37 78 ae 3e eb a8 54 bc 4c 32 14 be
       0.008824869 0.34076092 -0.012979726 -0.14472312
000250 6f 82 64 3e 6c 7b 14 be fd ed b0 3e 38 3f 30 3e
       0.22315381 -0.14500207 0.3455657 0.17211616
000260 08 9f f0 bc 19 a1 8f 3e 1c 63 cc 3e ae ab 04 3e
       -0.029372707 0.28052595 0.39919364 0.12956116
000270 2b 13 72 be 79 f6 0b be c7 ce ad bd 05 4f 69 3e
       -0.23640124 -0.1366824 -0.08486705 0.2278405
000280 32 2b c1 3e 61 26 bd 3d c0 4a 52 bc 7d 5a 2c be
       0.37728268 0.09235836 -0.012835205 -0.16831394
000290 bb 9a b3 bd 8c 74 94 bd 06 dc 64 3e 5a 7a e6 3d
       -0.08769747 -0.07248792 0.22349557 0.112538055
0002a0 f6 41 54 3e 4b 51 70 3d 6d c1 68 3e a6 9d a3 bd
       0.20728287 0.058671277 0.22730036 -0.079890534
0002b0 d7 92 7d 3e af 9c 1c be 21 0e 61 bd e7 6f 5f be
       0.24763046 -0.15294145 -0.054945115 -0.21820031
0002c0 5d 95 39 be b0 16 58 be f2 a9 8c bc 3d b0 c9 bd
       -0.18123384 -0.21102405 -0.01717088 -0.09848068
0002d0 73 11 24 3e 23 28 0c 3e 5f 35 c9 bd 62 f6 cf 3d
       0.16022281 0.13687186 -0.09824633 0.10154416
0002e0 ab 90 23 3e 8e a0 c6 bd f7 dc c8 3e 40 a0 9b 3d
       0.15973155 -0.09698592 0.39231083 0.07598925
0002f0 e5 dc 15 3e 39 4b ff bd 81 d9 b7 3e ea 73 94 be
       0.14635046 -0.124655195 0.3590813 -0.28994685
000300 f6 4e 2d 3e 72 5a 4c bd 63 6e c2 3c 1f 19 55 be
       0.16924652 -0.049890943 0.023734277 -0.20810364
000310 03 c7 33 3d 07 70 3c bd 81 30 b9 3c 36 dd 95 3e
       0.043890964 -0.046005275 0.022606136 0.29270333
000320 36 c7 5b 3e 44 f6 17 3d 8a 6a e8 bd c3 0f 9f bd
       0.21462712 0.03710009 -0.11348446 -0.07766678
000330 95 38 c2 3e a6 1c 09 3e d3 7a 5b 3e c3 6d 9f 3d
       0.37933794 0.13389835 0.21433572 0.07784607
000340 d1 7b 0a 3f fb 91 e8 bd f5 c0 1a 3e 76 a3 7b ba
       0.5409518 -0.113559686 0.1511267 -0.0009599248
000350 cf a7 45 be 22 67 d8 3c 26 be 67 bd 7a 15 53 bd
       -0.19302295 0.026416365 -0.056577824 -0.051534154
000360 d2 62 f3 3d 78 26 83 be ce 30 f4 3d ec 1e d1 bd
       0.11884083 -0.25615287 0.11923371 -0.10210976
000370 23 c0 2f be 26 7d 93 3e 58 44 f5 be bb b9 f2 be
       -0.17163138 0.28806418 -0.47903705 -0.47407326
000380 df 39 34 be 2e d1 a4 bd 1a b1 98 be 87 fd 0f 3d
       -0.17600201 -0.0804771 -0.29822618 0.035153892
000390 b0 1c 6e bd 2c af ad 3e 3c cd 95 ba 0e a9 91 3d
       -0.058132827 0.33922708 -0.0011428962 0.07112323
0003a0 28 06 94 bc 70 a1 34 3d 2d 39 1e 3d fd 36 ad 3d
       -0.018069342 0.04409927 0.038628746 0.08457754
0003b0 7a 60 f6 bb 39 5a 0f 3e fe 1c e6 3d 7e 52 25 3e
       -0.007518825 0.13999261 0.112359986 0.1614475
0003c0 8b c1 39 3e 65 ce df bd 97 a2 6b 3e d9 d3 3c 3e
       0.18140237 -0.109280385 0.23011242 0.18440188
0003d0 54 17 bf 3d 8f 91 29 3f 56 47 59 bb 90 5a ee bd
       0.09330621 0.6623773 -0.0033154092 -0.11638367
0003e0 ef a0 93 be 0c 1a 25 bd df 84 5a be af be 4e be
       -0.2883372 -0.040308043 -0.21339749 -0.20189928
0003f0 57 1d 52 3e 00 95 e8 bd 7b 59 51 be 36 91 af bd
       0.20519005 -0.113565445 -0.2044429 -0.08572619

network.1.L1.bias f4 [18]
000000 8e 88 82 3e 0a f4 20 be 7c 75 70 be 09 79 38 3d
       0.25494808 -0.15718094 -0.23482317 0.045037303
000010 70 eb 94 be 41 b1 8b bd 9a c8 07 3c 7c 8c 82 3e
       -0.29085875 -0.06820918 0.008287573 0.25497806
000020 ce b2 f8 3c 91 99 f8 bd ce e5 32 3e 9b f8 9c 3d
       0.030358698 -0.121386655 0.17470476 0.07664605
000030 04 c3 a1 3d 05 c8 e9 bd 6f 2a 70 3d a7 af 9d 3d
       0.078985244 -0.11415104 0.058634218 0.07699519
000040 84 5d 30 3d f5 6f 59 bd
       0.043057933 -0.053085286

network.1.L2.weight f4 [18, 18]
000000 ad c0 c6 3d 02 b4 45 be c1 1c 49 bd 47 af 27 3e
       0.09704719 -0.19306949 -0.049099687 0.16375457
000010 dd c0 eb 3d a4 9c 85 bd 4b a4 7c be d9 ec 0c be
       0.11511395 -0.065240175 -0.24672048 -0.13762225
000020 3e 9c 8c 3d 02 a4 44 be 75 68 27 3e 1a 34 cc bd
       0.06865738 -0.19203189 0.16348441 -0.09970875
000030 a8 c0 a3 bb 6f ba 43 be 45 f9 fe bd d2 39 54 bd
       -0.0049973316 -0.19114088 -0.12449888 -0.051812954
000040 be a5 fb bd 9d bc 4c bd 4d 12 a0 3e 1a 44 7d 3d
       -0.12287472 -0.049984563 0.31263962 0.061832525
000050 7c 81 a0 bd dc 37 2f be 62 7d 8c 3e d4 01 8e 3e
       -0.07837197 -0.17111152 0.2743941 0.2773577
000060 0e a6 aa bc 3c 47 73 3e 92 c3 6c 3e 8e f8 91 3c
       -0.020831134 0.23757643 0.23121479 0.017818715
000070 76 32 b8 3e 11 51 53 3e fb 69 7d be 5f 94 86 3e
       0.35976 0.20636393 -0.2474746 0.26285073
000080 86 35 85 3c 95 83 28 bf 90 ce 16 3d d7 d8 d7 3d
       0.016260874 -0.6582578 0.036818087 0.10539406
000090 47 19 2c be 30 ab c4 3d 69 ed 94 3e a3 13 f9 3d
       -0.16806518 0.09602964 0.2908738 0.121619485
0000a0 c0 4a 7a bd 6f f2 0b 3e 18 4d 11 bd ea 53 60 be
       -0.061106443 0.136667 -0.035473913 -0.2190701
0000b0 ff 6b 79 3e fe 29 21 be 02 d4 23 3d f2 55 f6 bd
       0.24357603 -0.15738675 0.03999711 -0.120281115
0000c0 4f a0 f0 bd 33 91 82 bd b1 9c bc 3c 46 6f 85 3d
       -0.117493264 -0.06375351 0.023023935 0.06515364
0000d0 19 bf 08 3d 8b 20 1c be 00 8e a0 bc ee be ff bd
       0.03338537 -0.15246789 -0.01959896 -0.12487589
0000e0 04 6b b9 bd 88 cc 94 3c be be fe 3d e2 04 d9 3d
       -0.09053615 0.018163934 0.12438725 0.105966344
0000f0 7a 98 40 be f4 ad 1b be ea d3 52 be cd 1e 1b be
       -0.18808165 -0.15203077 -0.20588651 -0.15148468
000100 9c 6c 57 bd 20 d3 cf bb 8c 70 6f bd 9c 97 1a be
       -0.052593812 -0.0063423067 -0.058456942 -0.15096897
000110 da 63 a3 3d 40 eb cd 3b 74 83 a4 bd 78 c0 a3 3c
       0.079780295 0.0062841475 -0.08032885 0.019989237
000120 9f 6d 21 3e 77 e0 d3 3d b5 a5 98 bd a1 e4 19 3e
       0.15764473 0.10345548 -0.07453481 0.15028621
000130 4b 80 3c bd bd c8 2a 3c bd ae f8 bc f9 de f5 bc
       -0.046020787 0.010423836 -0.03035676 -0.030013548
000140 91 e2 8d 3d 2d ec 74 be a1 6c 83 bd 25 97 86 bd
       0.0692798 -0.23918219 -0.06417204 -0.06571797
000150 65 42 86 3d 6a cf 3e 3e c9 c9 71 be b1 00 26 bd
       0.065556325 0.1863381 -0.23612131 -0.040528003
000160 57 df 3e 3e 05 1b 4f be b5 34 88 bd d1 11 71 3e
       0.18639885 -0.20225151 -0.06650678 0.23541953
000170 09 b3 68 be 4e 94 07 3d 2e eb 8e 3d 39 d3 5b bd
       -0.22724546 0.03310042 0.06978451 -0.053668234
000180 8f 31 1d 3e 7f 89 14 3e 2e d0 f8 bd f1 52 2b 3d
       0.15350936 0.14505576 -0.12149082 0.041827146
000190 f0 03 8c be f4 a3 4d 3e 4b f0 e1 bc 3a 92 8f bd
       -0.27346754 0.20082074 -0.0275804 -0.070103124
0001a0 77 05 5b 3e 2a 3f 5e be a0 ef ca 3d c2 be 83 3e
       0.21388803 -0.21703783 0.09908986 0.25731474
0001b0 f7 91 76 3e e1 dd 61 3e 20 4c cf 3d 62 a8 41 be
       0.24079119 0.22057296 0.101219416 -0.18911889
0001c0 16 ae a0 3e cb 87 01 3e 38 5f 93 bd 62 a4 09 3e
       0.31382817 0.12649457 -0.07195896 0.13441613
0001d0 c7 af 28 3e bc 2b 02 3d 55 0c c3 3e d0 77 c1 3e
       0.16473304 0.03177999 0.38095346 0.37786722
0001e0 33 18 ad be e1 48 9f 3d ed 38 47 bd cd 58 f8 be
       -0.33807525 0.077775724 -0.048638273 -0.4850525
0001f0 ff e6 30 be 38 35 ed bd fb ff 08 be 46 c5 90 3d
       -0.17275618 -0.11582416 -0.13378899 0.07068877
000200 cc 06 ca bd 1e d1 6d 3e ef 04 3d be 99 05 d7 bd
       -0.09864578 0.23224303 -0.18458913 -0.104991145
000210 a3 c6 27 3e b4 7d 22 be 24 c6 b5 3c 3d 22 42 3e
       0.16384368 -0.15868264 0.022189207 0.18958373
000220 71 89 a9 bc 7e f0 4d bc 29 74 01 bd 48 e1 61 3d
       -0.02069542 -0.012569545 -0.03160492 0.055146486
000230 06 57 1b be b7 8a 4c 3e 2f 30 8f 3d da e4 a2 bd
       -0.15169916 0.1997479 0.06991612 -0.07953806
000240 68 76 e1 3c 1e 79 2f be c0 37 52 bc e9 c1 3a 3e
       0.02752228 -0.17136046 -0.012830675 0.18238033
000250 de 3d 86 3d 66 60 30 be 56 5f 60 be 45 9b 39 be
       0.06554769 -0.17224273 -0.21911368 -0.18125637
000260 26 94 ff bd 28 60 ad 3c 1c 04 54 3d 02 ff 2a be
       -0.12479429 0.021164015 0.05176173 -0.1669884
000270 ab 94 5a 3e 3a a4 c9 3d b5 2f 38 3e a2 a3 a5 bd
       0.21345775 0.09845777 0.17986949 -0.08087851
000280 78 a7 bf 3c 00 af 50 bc cb 20 d4 bd ec 3c 3e be
       0.023395285 -0.012737036 -0.10357817 -0.18577927
000290 8c 87 24 3d 8e 0c e3 3c 3a 02 4e bd 88 9a 3e 3e
       0.04016833 0.027715947 -0.050295092 0.18613636
0002a0 e6 6c b2 bd 68 29 f6 bd f8 1f 67 3e 66 80 c3 3d
       -0.08712177 -0.12019616 0.22570789 0.095459744
0002b0 f7 17 a3 bd 70 21 28 3e d4 e5 05 3e d6 13 ca bc
       -0.07963555 0.16419005 0.13075954 -0.024667662
0002c0 4e 98 ad bd 72 77 88 be b9 59 7e bd d8 c9 d7 bc
       -0.084763154 -0.2665363 -0.062097285 -0.026341364
0002d0 17 23 5d 3e 07 21 26 3e c0 d1 e3 3d b2 18 a1 be
       0.21595417 0.16223536 0.11123991 -0.31464154
0002e0 07 5b 80 3e bb e6 be bd 0a d8 ca bd 86 ba b6 3d
       0.25069448 -0.09321352 -0.099044874 0.08922295
0002f0 c5 d2 80 3e df 01 c6 bd 04 0d a7 3e 54 4e 09 3e
       0.25160804 -0.09668326 0.32627118 0.13408786
000300 b8 aa ad be ff c8 04 3f c6 2a 3b 3e 5b f7 0b bf
       -0.3391931 0.51869196 0.18278036 -0.5467431
000310 80 53 18 bd 68 4a 4f be 93 68 3e be 38 40 58 bf
       -0.037189007 -0.20243227 -0.1859458 -0.8447299
000320 1f 35 e4 3d fe 38 b2 3b ed 8a b5 3d ff 64 f6 bd
       0.111429445 0.005438923 0.088643886 -0.12030982
000330 49 be 5c be 71 13 66 3e dc 5f dc 3d 38 88 30 be
       -0.21556963 0.22468354 0.10760471 -0.17239463
000340 77 f3 f1 bd f6 a3 52 3e c9 27 a2 be 32 40 31 3f
       -0.11814015 0.20570359 -0.3167098 0.6923858
000350 b7 0d c3 3d 64 90 11 3f 90 92 3c 3d f2 de ae 3e
       0.095241 0.5686095 0.04603821 0.3415447
000360 99 e1 e8 3d cf be 29 3e 16 bf 2d bd 09 38 bc 3d
       0.11371154 0.16576694 -0.042418562 0.09190375
000370 8c 3f eb 3b 6a f9 62 3e d7 d4 a3 3d f8 7f f4 bd
       0.0071792062 0.22165456 0.0799958 -0.119384706
000380 75 99 08 3e 44 d3 4d bb b6 40 65 3c ab 3c 83 3c
       0.13339789 -0.0031406442 0.013992479 0.01602014
000390 37 0f 0d be 33 70 1a bd b4 97 79 3e f2 f2 74 3e
       -0.13775335 -0.037704658 0.24374276 0.23920801
0003a0 97 2c 6a 3e e8 16 0b bd 2a 7e b2 bd e8 3a 5a be
       0.22868572 -0.033957392 -0.0871547 -0.21311533
0003b0 23 56 20 3d 55 3b 87 bd a3 61 62 3d f1 ae c8 3d
       0.039144646 -0.066031136 0.055268895 0.097989924
0003c0 2a 28 5d 3d 84 8c 39 3d a6 4f 56 3e 2c 9e ec bd
       0.05399338 0.04530002 0.20928821 -0.115536064
0003d0 13 fd e9 3d df b9 54 be 27 6b 4b be 6c 9e 37 be
       0.11425223 -0.20774029 -0.19865094 -0.17931527
0003e0 27 e6 c3 3d 5b 35 28 3e 2f c7 84 be b4 44 a4 3c
       0.095653825 0.16426603 -0.25933215 0.020052291
0003f0 6f bb 1a 3e 40 88 41 3e 6f 66 dc bd d5 66 5b 3c
       0.15110563 0.18899632 -0.10761725 0.013391216

network.1.L2.bias f4 [18]
000000 22 62 b3 bd 5f 54 d9 bd 6e 30 f1 3d 84 31 24 be
       -0.08758952 -0.10611796 0.11776815 -0.16034514
000010 de 7c 29 3d ac 62 05 3b f6 0f fe 3c 9f 97 d1 3d
       0.04137885 0.0020353002 0.03101347 0.102339976
000020 2a 00 19 be a9 4b 5b 3e 5d 15 9f 3d b3 5d de bd
       -0.14941469 0.21415581 0.077677466 -0.108577155
000030 76 8e d3 bd 51 e2 5e bc b1 95 b2 3d 32 19 26 be
       -0.10329907 -0.013603763 0.087199576 -0.16220549
000040 b8 e1 20 be 0b f8 e3 3d
       -0.15711105 0.11131295

network.2.L1.weight f4 [18, 18]
000000 3f 59 2a 3e 93 3c 10 3e de b1 4c 3e b1 da 4c be
       0.16635607 0.14085607 0.19989726 -0.20005299
000010 fe f3 10 3c f7 31 c1 bd 31 1f bd 3b 96 69 09 3e
       0.008847235 -0.09433358 0.0057715406 0.13419184
000020 d9 00 6c be 6d e5 70 bc cb fa 79 bd 92 ff 5c 3c
       -0.23047198 -0.014703137 -0.06103019 0.013488667
000030 f1 65 f2 bd 95 59 7f 3e aa 99 ae bd f2 77 20 be
       -0.1183585 0.24936517 -0.08525403 -0.15670756
000040 ea 56 3d be 37 bd d4 bc 3c ee 03 be b8 30 6a be
       -0.18490186 -0.02596913 -0.12883848 -0.22870147
000050 c0 db 3f 3c c2 c2 98 bd 66 75 a9 bd 74 3c 76 bd
       0.011710107 -0.07459022 -0.08274345 -0.060116246
000060 74 1f d0 bd ee 7e c0 3d 28 cf 60 be 9e d6 85 3d
       -0.10162249 0.0939921 -0.21954024 0.065350756
000070 34 7f 40 3d 34 2b 6e bd 9c 88 2e 3d c8 7d 2d be
       0.04699631 -0.05814667 0.04261075 -0.16942513
000080 b8 a5 41 bd b6 2b 97 3d 38 69 46 bd f6 c2 c4 bd
       -0.047277182 0.07381384 -0.04844019 -0.09607498
000090 31 fc 34 3e 49 83 42 be 1a fa bb 3d 40 e7 9a bc
       0.17674328 -0.18995394 0.091785625 -0.018909097
0000a0 62 e2 b2 bd 4e de 90 bd dd 5e 20 3e 13 b0 2a 3e
       -0.08734585 -0.07073651 0.15661187 0.1666873
0000b0 ac d9 1e 3d 40 87 b8 3b 40 89 62 bb 62 f4 83 3d
       0.038781807 0.0056313574 -0.003456667 0.06443097
0000c0 94 6f 5a 3d d1 a3 23 3e 26 57 10 be 60 39 ee 3b
       0.053329065 0.1598046 -0.14095744 0.007270023
0000d0 82 fa 12 be 16 ef 52 be 03 31 57 3e b1 14 19 bd
       -0.14353374 -0.20599017 0.2101479 -0.03737325
0000e0 2e c8 55 3e 5d 7b 49 3e cf 5d c0 3d c6 fb 38 3e
       0.20877144 0.19675966 0.093928926 0.18064794
0000f0 c1 1b 3e 3e 46 37 61 be f2 3d b8 3d 92 b0 7a be
       0.18565275 -0.21993741 0.0899619 -0.24481419
000100 46 49 16 bd 92 b5 3d be ce 49 47 be 24 ac d6 bd
       -0.036690973 -0.18526295 -0.19461748 -0.10482052
000110 67 5b 24 be 67 f6 71 bd fb 06 0b be ec b8 70 bc
       -0.16050492 -0.05907288 -0.13576882 -0.014692526
000120 5e 89 19 3e bb 1d ae bc 00 f8 1b be 63 b0 63 be
       0.14993808 -0.021254411 -0.15231323 -0.22235255
000130 06 fb fa bd 38 32 08 bd fe 75 00 3e f4 97 a8 bd
       -0.1225491 -0.033251017 0.1254501 -0.08232108
000140 ce d4 90 bd e7 d9 93 be 1e eb 00 3e 01 7b c3 bc
       -0.07071839 -0.28877184 0.1258969 -0.023862364
000150 72 2c 1d be a4 70 23 3e d9 4e 20 3e 3c 57 b3 bd
       -0.15348986 0.15960938 0.15655078 -0.08756873
000160 0a ac e5 3d c4 69 f2 bd c2 a8 b5 3d 29 a5 22 be
       0.112144545 -0.118365794 0.088700786 -0.15883316
000170 de 9a 4c 3e 18 ce e0 3c 31 fa 8c 3c 45 a9 75 3d
       0.19980952 0.027442023 0.017209144 0.05997588
000180 75 b5 e2 bd 88 c1 84 be f0 d1 de bc 6a b0 ba 3d
       -0.110697664 -0.25928903 -0.027199715 0.091156796
000190 8b 7a 67 be 90 86 03 be f7 59 20 3e c1 d0 77 bd
       -0.2260534 -0.128443 0.15659319 -0.060501818
0001a0 5c 23 f5 3c 04 06 40 3e 16 99 bb bc 95 5c 89 bd
       0.029924087 0.18752295 -0.022900146 -0.06707112
0001b0 c5 ea 85 bc 6a 8f 47 be 64 02 32 3e b1 99 34 3e
       -0.016347298 -0.19488302 0.17383724 0.17636754
0001c0 b1 e1 8f 3d 0c 1d 47 be 92 75 65 be c3 36 a5 bc
       0.07025469 -0.19444674 -0.22408131 -0.020167714
0001d0 a1 10 6e be f6 b0 7c 3d a6 d3 df 3d 75 d4 16 3e
       -0.23248531 0.0616922 0.109290406 0.14729483
0001e0 49 fb fd bd a6 28 63 be 1d 55 0e be bb 17 4f 3e
       -0.124014445 -0.22183475 -0.13899656 0.20223896
0001f0 a3 52 28 bd 60 19 0f bd 4d c5 fe 3d 8f e1 65 be
       -0.041094434 -0.03493631 0.12439976 -0.22449325
000200 88 67 14 bc b9 76 3a be 68 67 0d 3d cb 3e 4d bc
       -0.009057887 -0.18209352 0.034522444 -0.012527178
000210 4f 7a 07 bf de 8e 1e bd e4 cc 6a 3d 34 fb 90 3d
       -0.52921003 -0.038710468 0.057324305 0.07079163
000220 cc 87 40 bd a8 73 48 3f 47 0a 84 3e 86 e7 51 3c
       -0.047004506 0.7830148 0.2578909 0.012811547
000230 6d 6c 59 3e 2b e7 b2 bc b3 3b c6 3d 24 40 1d be
       0.21232767 -0.021838745 0.096793555 -0.15356499
000240 2f 96 10 3c 37 78 ae 3e eb a8 54 bc 4c 32 14 be
       0.008824869 0.34076092 -0.012979726 -0.14472312
000250 6f 82 64 3e 6c 7b 14 be fd ed b0 3e 38 3f 30 3e
       0.22315381 -0.14500207 0.3455657 0.17211616
000260 08 9f f0 bc 19 a1 8f 3e 1c 63 cc 3e ae ab 04 3e
       -0.029372707 0.28052595 0.39919364 0.12956116
000270 2b 13 72 be 79 f6 0b be c7 ce ad bd 05 4f 69 3e
       -0.23640124 -0.1366824 -0.08486705 0.2278405
000280 32 2b c1 3e 61 26 bd 3d c0 4a 52 bc 7d 5a 2c be
       0.37728268 0.09235836 -0.012835205 -0.16831394
000290 bb 9a b3 bd 8c 74 94 bd 06 dc 64 3e 5a 7a e6 3d
       -0.08769747 -0.07248792 0.22349557 0.112538055
0002a0 f6 41 54 3e 4b 51 70 3d 6d c1 68 3e a6 9d a3 bd
       0.20728287 0.058671277 0.22730036 -0.079890534
0002b0 d7 92 7d 3e af 9c 1c be 21 0e 61 bd e7 6f 5f be
       0.24763046 -0.15294145 -0.054945115 -0.21820031
0002c0 5d 95 39 be b0 16 58 be f2 a9 8c bc 3d b0 c9 bd
       -0.18123384 -0.21102405 -0.01717088 -0.09848068
0002d0 73 11 24 3e 23 28 0c 3e 5f 35 c9 bd 62 f6 cf 3d
       0.16022281 0.13687186 -0.09824633 0.10154416
0002e0 ab 90 23 3e 8e a0 c6 bd f7 dc c8 3e 40 a0 9b 3d
       0.15973155 -0.09698592 0.39231083 0.07598925
0002f0 e5 dc 15 3e 39 4b ff bd 81 d9 b7 3e ea 73 94 be
       0.14635046 -0.124655195 0.3590813 -0.28994685
000300 f6 4e 2d 3e 72 5a 4c bd 63 6e c2 3c 1f 19 55 be
       0.16924652 -0.049890943 0.023734277 -0.20810364
000310 03 c7 33 3d 07 70 3c bd 81 30 b9 3c 36 dd 95 3e
       0.043890964 -0.046005275 0.022606136 0.29270333
000320 36 c7 5b 3e 44 f6 17 3d 8a 6a e8 bd c3 0f 9f bd
       0.21462712 0.03710009 -0.11348446 -0.07766678
000330 95 38 c2 3e a6 1c 09 3e d3 7a 5b 3e c3 6d 9f 3d
       0.37933794 0.13389835 0.21433572 0.07784607
000340 d1 7b 0a 3f fb 91 e8 bd f5 c0 1a 3e 76 a3 7b ba
       0.5409518 -0.113559686 0.1511267 -0.0009599248
000350 cf a7 45 be 22 67 d8 3c 26 be 67 bd 7a 15 53 bd
       -0.19302295 0.026416365 -0.056577824 -0.051534154
000360 d2 62 f3 3d 78 26 83 be ce 30 f4 3d ec 1e d1 bd
       0.11884083 -0.25615287 0.11923371 -0.10210976
000370 23 c0 2f be 26 7d 93 3e 58 44 f5 be bb b9 f2 be
       -0.17163138 0.28806418 -0.47903705 -0.47407326
000380 df 39 34 be 2e d1 a4 bd 1a b1 98 be 87 fd 0f 3d
       -0.17600201 -0.0804771 -0.29822618 0.035153892
000390 b0 1c 6e bd 2c af ad 3e 3c cd 95 ba 0e a9 91 3d
       -0.058132827 0.33922708 -0.0011428962 0.07112323
0003a0 28 06 94 bc 70 a1 34 3d 2d 39 1e 3d fd 36 ad 3d
       -0.018069342 0.04409927 0.038628746 0.08457754
0003b0 7a 60 f6 bb 39 5a 0f 3e fe 1c e6 3d 7e 52 25 3e
       -0.007518825 0.13999261 0.112359986 0.1614475
0003c0 8b c1 39 3e 65 ce df bd 97 a2 6b 3e d9 d3 3c 3e
       0.18140237 -0.109280385 0.23011242 0.18440188
0003d0 54 17 bf 3d 8f 91 29 3f 56 47 59 bb 90 5a ee bd
       0.09330621 0.6623773 -0.0033154092 -0.11638367
0003e0 ef a0 93 be 0c 1a 25 bd df 84 5a be af be 4e be
       -0.2883372 -0.040308043 -0.21339749 -0.20189928
0003f0 57 1d 52 3e 00 95 e8 bd 7b 59 51 be 36 91 af bd
       0.20519005 -0.113565445 -0.2044429 -0.08572619

network.2.L1.bias f4 [18]
000000 8e 88 82 3e 0a f4 20 be 7c 75 70 be 09 79 38 3d
       0.25494808 -0.15718094 -0.23482317 0.045037303
000010 70 eb 94 be 41 b1 8b bd 9a c8 07 3c 7c 8c 82 3e
       -0.29085875 -0.06820918 0.008287573 0.25497806
000020 ce b2 f8 3c 91 99 f8 bd ce e5 32 3e 9b f8 9c 3d
       0.030358698 -0.121386655 0.17470476 0.07664605
000030 04 c3 a1 3d 05 c8 e9 bd 6f 2a 70 3d a7 af 9d 3d
       0.078985244 -0.11415104 0.058634218 0.07699519
000040 84 5d 30 3d f5 6f 59 bd
       0.043057933 -0.053085286

network.2.L2.weight f4 [18, 18]
000000 ad c0 c6 3d 02 b4 45 be c1 1c 49 bd 47 af 27 3e
       0.09704719 -0.19306949 -0.049099687 0.16375457
000010 dd c0 eb 3d a4 9c 85 bd 4b a4 7c be d9 ec 0c be
       0.11511395 -0.065240175 -0.24672048 -0.13762225
000020 3e 9c 8c 3d 02 a4 44 be 75 68 27 3e 1a 34 cc bd
       0.06865738 -0.19203189 0.16348441 -0.09970875
000030 a8 c0 a3 bb 6f ba 43 be 45 f9 fe bd d2 39 54 bd
       -0.0049973316 -0.19114088 -0.12449888 -0.051812954
000040 be a5 fb bd 9d bc 4c bd 4d 12 a0 3e 1a 44 7d 3d
       -0.12287472 -0.049984563 0.31263962 0.061832525
000050 7c 81 a0 bd dc 37 2f be 62 7d 8c 3e d4 01 8e 3e
       -0.07837197 -0.17111152 0.2743941 0.2773577
000060 0e a6 aa bc 3c 47 73 3e 92 c3 6c 3e 8e f8 91 3c
       -0.020831134 0.23757643 0.23121479 0.017818715
000070 76 32 b8 3e 11 51 53 3e fb 69 7d be 5f 94 86 3e
       0.35976 0.20636393 -0.2474746 0.26285073
000080 86 35 85 3c 95 83 28 bf 90 ce 16 3d d7 d8 d7 3d
       0.016260874 -0.6582578 0.036818087 0.10539406
000090 47 19 2c be 30 ab c4 3d 69 ed 94 3e a3 13 f9 3d
       -0.16806518 0.09602964 0.2908738 0.121619485
0000a0 c0 4a 7a bd 6f f2 0b 3e 18 4d 11 bd ea 53 60 be
       -0.061106443 0.136667 -0.035473913 -0.2190701
0000b0 ff 6b 79 3e fe 29 21 be 02 d4 23 3d f2 55 f6 bd
       0.24357603 -0.15738675 0.03999711 -0.120281115
0000c0 4f a0 f0 bd 33 91 82 bd b1 9c bc 3c 46 6f 85 3d
       -0.117493264 -0.06375351 0.023023935 0.06515364
0000d0 19 bf 08 3d 8b 20 1c be 00 8e a0 bc ee be ff bd
       0.03338537 -0.15246789 -0.01959896 -0.12487589
0000e0 04 6b b9 bd 88 cc 94 3c be be fe 3d e2 04 d9 3d
       -0.09053615 0.018163934 0.12438725 0.105966344
0000f0 7a 98 40 be f4 ad 1b be ea d3 52 be cd 1e 1b be
       -0.18808165 -0.15203077 -0.20588651 -0.15148468
000100 9c 6c 57 bd 20 d3 cf bb 8c 70 6f bd 9c 97 1a be
       -0.052593812 -0.0063423067 -0.058456942 -0.15096897
000110 da 63 a3 3d 40 eb cd 3b 74 83 a4 bd 78 c0 a3 3c
       0.079780295 0.0062841475 -0.08032885 0.019989237
000120 9f 6d 21 3e 77 e0 d3 3d b5 a5 98 bd a1 e4 19 3e
       0.15764473 0.10345548 -0.07453481 0.15028621
000130 4b 80 3c bd bd c8 2a 3c bd ae f8 bc f9 de f5 bc
       -0.046020787 0.010423836 -0.03035676 -0.030013548
000140 91 e2 8d 3d 2d ec 74 be a1 6c 83 bd 25 97 86 bd
       0.0692798 -0.23918219 -0.06417204 -0.06571797
000150 65 42 86 3d 6a cf 3e 3e c9 c9 71 be b1 00 26 bd
       0.065556325 0.1863381 -0.23612131 -0.040528003
000160 57 df 3e 3e 05 1b 4f be b5 34 88 bd d1 11 71 3e
       0.18639885 -0.20225151 -0.06650678 0.23541953
000170 09 b3 68 be 4e 94 07 3d 2e eb 8e 3d 39 d3 5b bd
       -0.22724546 0.03310042 0.06978451 -0.053668234
000180 8f 31 1d 3e 7f 89 14 3e 2e d0 f8 bd f1 52 2b 3d
       0.15350936 0.14505576 -0.12149082 0.041827146
000190 f0 03 8c be f4 a3 4d 3e 4b f0 e1 bc 3a 92 8f bd
       -0.27346754 0.20082074 -0.0275804 -0.070103124
0001a0 77 05 5b 3e 2a 3f 5e be a0 ef ca 3d c2 be 83 3e
       0.21388803 -0.21703783 0.09908986 0.25731474
0001b0 f7 91 76 3e e1 dd 61 3e 20 4c cf 3d 62 a8 41 be
       0.24079119 0.22057296 0.101219416 -0.18911889
0001c0 16 ae a0 3e cb 87 01 3e 38 5f 93 bd 62 a4 09 3e
       0.31382817 0.12649457 -0.07195896 0.13441613
0001d0 c7 af 28 3e bc 2b 02 3d 55 0c c3 3e d0 77 c1 3e
       0.16473304 0.03177999 0.38095346 0.37786722
0001e0 33 18 ad be e1 48 9f 3d ed 38 47 bd cd 58 f8 be
       -0.33807525 0.077775724 -0.048638273 -0.4850525
0001f0 ff e6 30 be 38 35 ed bd fb ff 08 be 46 c5 90 3d
       -0.17275618 -0.11582416 -0.13378899 0.07068877
000200 cc 06 ca bd 1e d1 6d 3e ef 04 3d be 99 05 d7 bd
       -0.09864578 0.23224303 -0.18458913 -0.104991145
000210 a3 c6 27 3e b4 7d 22 be 24 c6 b5 3c 3d 22 42 3e
       0.16384368 -0.15868264 0.022189207 0.18958373
000220 71 89 a9 bc 7e f0 4d bc 29 74 01 bd 48 e1 61 3d
       -0.02069542 -0.012569545 -0.03160492 0.055146486
000230 06 57 1b be b7 8a 4c 3e 2f 30 8f 3d da e4 a2 bd
       -0.15169916 0.1997479 0.06991612 -0.07953806
000240 68 76 e1 3c 1e 79 2f be c0 37 52 bc e9 c1 3a 3e
       0.02752228 -0.17136046 -0.012830675 0.18238033
000250 de 3d 86 3d 66 60 30 be 56 5f 60 be 45 9b 39 be
       0.06554769 -0.17224273 -0.21911368 -0.18125637
000260 26 94 ff bd 28 60 ad 3c 1c 04 54 3d 02 ff 2a be
       -0.12479429 0.021164015 0.05176173 -0.1669884
000270 ab 94 5a 3e 3a a4 c9 3d b5 2f 38 3e a2 a3 a5 bd
       0.21345775 0.09845777 0.17986949 -0.08087851
000280 78 a7 bf 3c 00 af 50 bc cb 20 d4 bd ec 3c 3e be
       0.023395285 -0.012737036 -0.10357817 -0.18577927
000290 8c 87 24 3d 8e 0c e3 3c 3a 02 4e bd 88 9a 3e 3e
       0.04016833 0.027715947 -0.050295092 0.18613636
0002a0 e6 6c b2 bd 68 29 f6 bd f8 1f 67 3e 66 80 c3 3d
       -0.08712177 -0.12019616 0.22570789 0.095459744
0002b0 f7 17 a3 bd 70 21 28 3e d4 e5 05 3e d6 13 ca bc
       -0.07963555 0.16419005 0.13075954 -0.024667662
0002c0 4e 98 ad bd 72 77 88 be b9 59 7e bd d8 c9 d7 bc
       -0.084763154 -0.2665363 -0.062097285 -0.026341364
0002d0 17 23 5d 3e 07 21 26 3e c0 d1 e3 3d b2 18 a1 be
       0.21595417 0.16223536 0.11123991 -0.31464154
0002e0 07 5b 80 3e bb e6 be bd 0a d8 ca bd 86 ba b6 3d
       0.25069448 -0.09321352 -0.099044874 0.08922295
0002f0 c5 d2 80 3e df 01 c6 bd 04 0d a7 3e 54 4e 09 3e
       0.25160804 -0.09668326 0.32627118 0.13408786
000300 b8 aa ad be ff c8 04 3f c6 2a 3b 3e 5b f7 0b bf
       -0.3391931 0.51869196 0.18278036 -0.5467431
000310 80 53 18 bd 68 4a 4f be 93 68 3e be 38 40 58 bf
       -0.037189007 -0.20243227 -0.1859458 -0.8447299
000320 1f 35 e4 3d fe 38 b2 3b ed 8a b5 3d ff 64 f6 bd
       0.111429445 0.005438923 0.088643886 -0.12030982
000330 49 be 5c be 71 13 66 3e dc 5f dc 3d 38 88 30 be
       -0.21556963 0.22468354 0.10760471 -0.17239463
000340 77 f3 f1 bd f6 a3 52 3e c9 27 a2 be 32 40 31 3f
       -0.11814015 0.20570359 -0.3167098 0.6923858
000350 b7 0d c3 3d 64 90 11 3f 90 92 3c 3d f2 de ae 3e
       0.095241 0.5686095 0.04603821 0.3415447
000360 99 e1 e8 3d cf be 29 3e 16 bf 2d bd 09 38 bc 3d
       0.11371154 0.16576694 -0.042418562 0.09190375
000370 8c 3f eb 3b 6a f9 62 3e d7 d4 a3 3d f8 7f f4 bd
       0.0071792062 0.22165456 0.0799958 -0.119384706
000380 75 99 08 3e 44 d3 4d bb b6 40 65 3c ab 3c 83 3c
       0.13339789 -0.0031406442 0.013992479 0.01602014
000390 37 0f 0d be 33 70 1a bd b4 97 79 3e f2 f2 74 3e
       -0.13775335 -0.037704658 0.24374276 0.23920801
0003a0 97 2c 6a 3e e8 16 0b bd 2a 7e b2 bd e8 3a 5a be
       0.22868572 -0.033957392 -0.0871547 -0.21311533
0003b0 23 56 20 3d 55 3b 87 bd a3 61 62 3d f1 ae c8 3d
       0.039144646 -0.066031136 0.055268895 0.097989924
0003c0 2a 28 5d 3d 84 8c 39 3d a6 4f 56 3e 2c 9e ec bd
       0.05399338 0.04530002 0.20928821 -0.115536064
0003d0 13 fd e9 3d df b9 54 be 27 6b 4b be 6c 9e 37 be
       0.11425223 -0.20774029 -0.19865094 -0.17931527
0003e0 27 e6 c3 3d 5b 35 28 3e 2f c7 84 be b4 44 a4 3c
       0.095653825 0.16426603 -0.25933215 0.020052291
0003f0 6f bb 1a 3e 40 88 41 3e 6f 66 dc bd d5 66 5b 3c
       0.15110563 0.18899632 -0.10761725 0.013391216

network.2.L2.bias f4 [18]
000000 22 62 b3 bd 5f 54 d9 bd 6e 30 f1 3d 84 31 24 be
       -0.08758952 -0.10611796 0.11776815 -0.16034514
000010 de 7c 29 3d ac 62 05 3b f6 0f fe 3c 9f 97 d1 3d
       0.04137885 0.0020353002 0.03101347 0.102339976
000020 2a 00 19 be a9 4b 5b 3e 5d 15 9f 3d b3 5d de bd
       -0.14941469 0.21415581 0.077677466 -0.108577155
000030 76 8e d3 bd 51 e2 5e bc b1 95 b2 3d 32 19 26 be
       -0.10329907 -0.013603763 0.087199576 -0.16220549
000040 b8 e1 20 be 0b f8 e3 3d
       -0.15711105 0.11131295
