PathDependent/outputNN/_flocking_full_D4_d1_dest4_orig1_average_fiu0_1_fix1_gi40_Depth4sigma0_1_sigma00_gamma0_1_gamma00_0.pth (torch, 34017 bytes, 88 tensors)

first.weight f4 [14, 9]
0.28508002 -0.13395499 0.004525463 0.15364718 -0.09674966 0.25171795 -0.21524185 -0.29531914
-0.29045936 -0.20921598 0.2738048 -0.24986455 0.23450157 0.25128 0.3488283 0.33074877
-0.21420076 0.09919602 0.24649495 -0.020054268 -0.22183324 0.2657253 0.3167779 -0.1311657
0.3037781 -0.24941431 -0.2407158 -0.20729588 -0.25047657 0.2180264 -0.11696298 -0.30767566
-0.22898574 -0.04307195 -0.32465237 -0.1223518 0.026196418 -0.06697064 0.097217314 0.11437376
-0.15589228 -0.14617182 0.22154787 -0.23383054 0.30770332 -0.2775693 -0.21141487 0.3610385
-0.11044645 0.16430338 0.32901245 -0.015247836 -0.2983644 0.2623996 0.32437262 0.08383233
-0.19828728 -0.05851173 0.26400447 0.20149235 0.1945033 -0.020571094 0.11264488 0.33766827
0.15850407 0.15973623 0.14971334 -0.20497663 -0.31631646 0.07724733 -0.3221028 0.211658
-0.030987687 0.08776425 -0.014140817 0.15514775 -0.19345333 0.0061319545 0.04350511 -0.23863578
-0.13765045 -0.09766891 0.09815 0.18288556 -0.10319593 0.107138805 0.14597087 -0.36985278
-0.11341539 0.3129846 0.17651246 0.24335653 0.29326695 0.013996756 -0.10480874 -0.36994255
0.10870676 -0.09304772 0.34129527 0.13298367 -0.085284606 0.28380015 0.28029895 -0.010602617
-0.13470295 0.014875599 -0.17082858 0.17774628 0.2730276 -0.45131564 -0.09019067 -0.055621453
0.00046193405 -0.042364717 0.34469455 -0.26450548 0.13586676 -0.23055938 -0.027925132 0.33996835
-0.09270414 -0.31023628 0.2061394 0.050645135 0.09359591 -0.24416584
00000000: 02f6 913e 7f2b 09be 564a 943b b055 1d3e
00000010: b024 c6bd 2de1 803e 5c68 5cbe 1234 97be
00000020: 17b7 94be b73c 56be 2530 8c3e 7edc 7fbe
00000030: 2e21 703e c6a7 803e 9f99 b23e e757 a93e
00000040: 7257 5bbe 4827 cb3d 2c69 7c3e d948 a4bc
00000050: 4128 63be 260d 883e b730 a23e 4d50 06be
00000060: ce88 9b3e 7766 7fbe 347e 76be 5f45 54be
00000070: 773e 80be 5042 5f3e 498a efbd aa87 9dbe
00000080: 3d7b 6abe 376c 30bd d638 a6be 9593 fabd
00000090: df99 d63c e727 89bd df19 c73d ca3c ea3d
000000a0: 3aa2 1fbe 11ae 15be 72dd 623e 4671 6fbe
000000b0: 4a8b 9d3e 901d 8ebe 247d 58be 0ada b83e
000000c0: c031 e2bd 253f 283e 5274 a83e 0fd2 79bc
000000d0: 38c3 98be 3e59 863e 2b14 a63e 49b0 ab3d
000000e0: d20b 4bbe ffa9 6fbd 982b 873e 0354 4e3e
000000f0: e02b 473e b684 a8bc 5cb2 e63d dbe2 ac3e
00000100: e44e 223e e591 233e 744e 193e 65e5 51be
00000110: 3bf4 a1be d933 9e3d a8ea a4be e0bc 583e
00000120: e4d9 fdbc bebd b33d e3ae 67bc 0ddf 1e3e
00000130: a118 46be 90ee c83b 6a32 323d f05c 74be
00000140: 3df4 0cbe a306 c8bd de02 c93d 5a46 3b3e
00000150: 6358 d3bd 976b db3d 6379 153e 585d bdbe
00000160: 5446 e8bd 843f a03e afbf 343e 7432 793e
00000170: 1627 963e a652 653c f7a5 d6bd 1c69 bdbe
00000180: a6a1 de3d ce8f bebd 41be ae3e df2c 083e
00000190: b2a9 aebd 414e 913e 5883 8f3e 99b6 2dbc
000001a0: 92ef 09be c9b8 733c b0ed 2ebe 1f03 363e
000001b0: 46ca 8b3e d812 e7be e3b5 b8bd 52d3 63bd
000001c0: bd2f f239 a086 2dbd ce7b b03e 436d 87be
000001d0: a820 0b3e c217 6cbe 3fc3 e4bc 5510 ae3e
000001e0: abdb bdbd 4ad7 9ebe 3516 533e 4671 4f3d
000001f0: 36af bf3d 9c06 7abe

first.bias f4 [14]
0.16988727 -0.37283996 -0.31094635 -0.030102022 -0.15812905 -0.082293995 -0.0332999 0.3570562
0.14969987 0.11453116 0.257255 0.058351677 -0.16215792 -0.30036533
00000000: eef6 2d3e e1e4 bebe 5c34 9fbe 8498 f6bc
00000010: 95ec 21be c189 a8bd 7a65 08bd 12d0 b63e
00000020: ec4a 193e 508f ea3d edb6 833e 2b02 6f3d
00000030: ba0c 26be 7cc9 99be

last.weight f4 [1, 14]
-0.04005891 0.067417935 -0.052069157 0.07215141 -0.28689462 0.1733252 -0.24600796 -0.27385494
0.22163686 -0.19955747 0.036033936 0.17328694 -0.17272967 0.2984007
00000000: d014 24bd 6a12 8a3d 7846 55bd 1ec4 933d
00000010: dae3 92be 297c 313e 83e9 7bbe b736 8cbe
00000020: c6f4 623e cb58 4cbe 5298 133d 2272 313e
00000030: 0ce0 30be fac7 983e

network.0.weight f4 [14, 9]
0.28508002 -0.13395499 0.004525463 0.15364718 -0.09674966 0.25171795 -0.21524185 -0.29531914
-0.29045936 -0.20921598 0.2738048 -0.24986455 0.23450157 0.25128 0.3488283 0.33074877
-0.21420076 0.09919602 0.24649495 -0.020054268 -0.22183324 0.2657253 0.3167779 -0.1311657
0.3037781 -0.24941431 -0.2407158 -0.20729588 -0.25047657 0.2180264 -0.11696298 -0.30767566
-0.22898574 -0.04307195 -0.32465237 -0.1223518 0.026196418 -0.06697064 0.097217314 0.11437376
-0.15589228 -0.14617182 0.22154787 -0.23383054 0.30770332 -0.2775693 -0.21141487 0.3610385
-0.11044645 0.16430338 0.32901245 -0.015247836 -0.2983644 0.2623996 0.32437262 0.08383233
-0.19828728 -0.05851173 0.26400447 0.20149235 0.1945033 -0.020571094 0.11264488 0.33766827
0.15850407 0.15973623 0.14971334 -0.20497663 -0.31631646 0.07724733 -0.3221028 0.211658
-0.030987687 0.08776425 -0.014140817 0.15514775 -0.19345333 0.0061319545 0.04350511 -0.23863578
-0.13765045 -0.09766891 0.09815 0.18288556 -0.10319593 0.107138805 0.14597087 -0.36985278
-0.11341539 0.3129846 0.17651246 0.24335653 0.29326695 0.013996756 -0.10480874 -0.36994255
0.10870676 -0.09304772 0.34129527 0.13298367 -0.085284606 0.28380015 0.28029895 -0.010602617
-0.13470295 0.014875599 -0.17082858 0.17774628 0.2730276 -0.45131564 -0.09019067 -0.055621453
0.00046193405 -0.042364717 0.34469455 -0.26450548 0.13586676 -0.23055938 -0.027925132 0.33996835
-0.09270414 -0.31023628 0.2061394 0.050645135 0.09359591 -0.24416584
00000000: 02f6 913e 7f2b 09be 564a 943b b055 1d3e
00000010: b024 c6bd 2de1 803e 5c68 5cbe 1234 97be
00000020: 17b7 94be b73c 56be 2530 8c3e 7edc 7fbe
00000030: 2e21 703e c6a7 803e 9f99 b23e e757 a93e
00000040: 7257 5bbe 4827 cb3d 2c69 7c3e d948 a4bc
00000050: 4128 63be 260d 883e b730 a23e 4d50 06be
00000060: ce88 9b3e 7766 7fbe 347e 76be 5f45 54be
00000070: 773e 80be 5042 5f3e 498a efbd aa87 9dbe
00000080: 3d7b 6abe 376c 30bd d638 a6be 9593 fabd
00000090: df99 d63c e727 89bd df19 c73d ca3c ea3d
000000a0: 3aa2 1fbe 11ae 15be 72dd 623e 4671 6fbe
000000b0: 4a8b 9d3e 901d 8ebe 247d 58be 0ada b83e
000000c0: c031 e2bd 253f 283e 5274 a83e 0fd2 79bc
000000d0: 38c3 98be 3e59 863e 2b14 a63e 49b0 ab3d
000000e0: d20b 4bbe ffa9 6fbd 982b 873e 0354 4e3e
000000f0: e02b 473e b684 a8bc 5cb2 e63d dbe2 ac3e
00000100: e44e 223e e591 233e 744e 193e 65e5 51be
00000110: 3bf4 a1be d933 9e3d a8ea a4be e0bc 583e
00000120: e4d9 fdbc bebd b33d e3ae 67bc 0ddf 1e3e
00000130: a118 46be 90ee c83b 6a32 323d f05c 74be
00000140: 3df4 0cbe a306 c8bd de02 c93d 5a46 3b3e
00000150: 6358 d3bd 976b db3d 6379 153e 585d bdbe
00000160: 5446 e8bd 843f a03e afbf 343e 7432 793e
00000170: 1627 963e a652 653c f7a5 d6bd 1c69 bdbe
00000180: a6a1 de3d ce8f bebd 41be ae3e df2c 083e
00000190: b2a9 aebd 414e 913e 5883 8f3e 99b6 2dbc
000001a0: 92ef 09be c9b8 733c b0ed 2ebe 1f03 363e
000001b0: 46ca 8b3e d812 e7be e3b5 b8bd 52d3 63bd
000001c0: bd2f f239 a086 2dbd ce7b b03e 436d 87be
000001d0: a820 0b3e c217 6cbe 3fc3 e4bc 5510 ae3e
000001e0: abdb bdbd 4ad7 9ebe 3516 533e 4671 4f3d
000001f0: 36af bf3d 9c06 7abe

network.0.bias f4 [14]
0.16988727 -0.37283996 -0.31094635 -0.030102022 -0.15812905 -0.082293995 -0.0332999 0.3570562
0.14969987 0.11453116 0.257255 0.058351677 -0.16215792 -0.30036533
00000000: eef6 2d3e e1e4 bebe 5c34 9fbe 8498 f6bc
00000010: 95ec 21be c189 a8bd 7a65 08bd 12d0 b63e
00000020: ec4a 193e 508f ea3d edb6 833e 2b02 6f3d
00000030: ba0c 26be 7cc9 99be

network.1.L1.weight f4 [14, 14]
-0.18731277 0.22885743 -0.13718267 -0.10423578 -0.19132394 0.09851506 0.09615662 0.13529772
0.07220402 -0.09944392 -0.14850809 0.2596595 0.091073245 0.26570287 0.15895319 0.16187727
-0.2583589 0.007732421 -0.21228425 0.101570964 0.10771063 -0.1194091 0.12834117 0.0030017197
-0.081630096 -0.14172332 -0.07359053 -0.18076195 -0.14811708 0.015951073 -0.115043506 -0.018405762
-0.010147429 -0.22499898 0.16746768 0.025061144 0.073003024 0.023143047 -0.048446417 0.09841651
0.03768224 0.2515097 0.23519652 -0.09511152 -0.11874077 -0.13289829 0.20993076 0.14290679
0.12968157 -0.07096221 0.18457267 -0.2739964 -0.2303605 0.018319309 -0.2480298 0.08489646
-0.2942458 -0.16855615 0.0013568401 0.0023292943 0.17450859 0.13538808 -0.10871693 0.29982117
-0.05155398 0.11289049 -0.05820945 0.15039575 0.07734035 -0.050280195 -0.09567526 0.20557046
-0.07377756 -0.11736454 -0.089389786 0.13632393 0.13820651 -0.21045421 0.064379066 0.02923727
0.07238093 0.22736314 -0.11194019 0.036459237 -0.039610628 -0.090482034 -0.18045223 0.06851027
0.20555945 -0.09860043 -0.25263107 -0.20291738 0.2247352 0.26462704 0.2706372 -0.08963132
0.12171807 -0.06035242 -0.14423794 -0.16841568 -0.19202998 -0.052650854 -0.14230311 -0.06897746
-0.25540558 -0.25439334 0.11412442 -0.2618936 0.13253397 -0.20030642 -0.14495143 0.040892392
0.1809385 -0.27372685 -0.054741696 -0.1332253 -0.0024763946 0.13430011 0.22352777 -0.13584952
0.12837446 0.10884287 -0.006011672 -0.20881231 0.05640377 -0.08627306 -0.119279794 0.3011451
-0.028033346 0.31132552 0.2046062 0.20099458 -0.1540185 0.26136386 0.054240674 -0.029641695
0.29076397 0.003991753 0.20604518 -0.0890719 -0.17005248 0.011292398 -0.18777433 0.13347629
0.10828826 -0.13987766 0.15472522 -0.266264 -0.0016160905 -0.12649885 -0.2297827 0.19600412
-0.055403203 0.021433473 0.35137913 -0.24087682 0.005312681 0.12526704 -0.09526073 -0.026707709
0.029932054 -0.0054808618 -0.09557283 -0.04388803 -0.20957693 -0.22464126 -0.053905044 0.22237392
-0.24380969 -0.14536709 0.05182135 0.20629355 0.011335313 0.09900811 0.06507206 -0.2502945
0.13041773 -0.19031931 0.10952726 -0.01986979 -0.21489748 -0.10617404 0.36129332 -0.117237054
0.22256395 0.0811112 -0.2896305 0.06299791 0.18100403 -0.06887968 -0.21560636 0.09744161
0.0532769 0.00083234906 0.15500914 0.08803894
00000000: ebce 3fbe 9a59 6a3e 9d79 0cbe 9279 d5bd
00000010: 6cea 43be 44c2 c93d c3ed c43d 7c8b 0a3e
00000020: b4df 933d 41a9 cbbd 8112 18be 17f2 843e
00000030: 9c84 ba3d 350a 883e a0c4 223e 28c3 253e
00000040: 9e47 84be 4060 fd3b 0b61 59be 7004 d03d
00000050: 6497 dc3d c28c f4bd de6b 033e 80b8 443b
00000060: ae2d a7bd eb1f 11be a2b6 96bd a919 39be
00000070: 01ac 17be d3ab 823c ee9b ebbd aec7 96bc
00000080: 6741 26bc 2266 66be a67c 2b3e 074d cd3c
00000090: 9c82 953d 7d96 bd3c c06f 46bd 988e c93d
000000a0: b158 1a3d e1c5 803e 5bd7 703e d4c9 c2bd
000000b0: 5c2e f3bd 7d16 08be 17f8 563e 2856 123e
000000c0: 3fcb 043e a354 91bd 9e00 3d3e 4249 8cbe
000000d0: 9fe3 6bbe 6012 963c 86fb 7dbe 32de ad3d
000000e0: 63a7 96be fc99 2cbe 00d8 b13a 13a7 183b
000000f0: 61b2 323e 2ca3 0a3e fba6 debd 2982 993e
00000100: 442a 53bd 2133 e73d 086d 6ebd 5801 1a3e
00000110: 9e64 9e3d 9bf2 4dbd 64f1 c3bd 1081 523e
00000120: b018 97bd d25c f0bd fe11 b7bd 8098 0b3e
00000130: 0286 0d3e 4f81 57be 2cd9 833d 0083 ef3c
00000140: 743c 943d e2d1 683e e640 e5bd 4856 153d
00000150: c13e 22bd a54e b9bd 78c8 38be 1d4f 8c3d
00000160: 2d7e 523e 06ef c9bd dc58 81be 93c9 4fbe
00000170: fc20 663e 327d 873e f690 8a3e a090 b7bd
00000180: 5347 f93d 1934 77bd 1cb3 13be 2975 2cbe
00000190: 82a3 44be 6ca8 57bd e8b7 11be 0e44 8dbd
000001a0: 85c4 82be d83f 82be 10ba e93d eb16 86be
000001b0: fcb6 073e 201d 4dbe 266e 14be c87e 273d
000001c0: f147 393e ed25 8cbe d438 60bd 376c 08be
000001d0: 024b 22bb f885 093e 77e4 643e 231c 0bbe
000001e0: 9874 033e 03e9 de3d 8ffd c4bb e5d2 55be
000001f0: a407 673d eeaf b0bd f748 f4bd b12f 9a3e
00000200: 30a6 e5bc 0f66 9f3e 4a84 513e 86d1 4d3e
00000210: 07b7 1dbe 7cd1 853e 782b 5e3d 24d3 f2bc
00000220: 04df 943e 40cd 823b 82fd 523e 546b b6bd
00000230: 3d22 2ebe c003 393c ea47 40be 02ae 083e
00000240: 3cc6 dd3d 173c 0fbe 4a70 1e3e c153 88be
00000250: 00d3 d3ba ea88 01be 284c 6bbe 4eb5 483e
00000260: 78ee 62bd 4095 af3c f7e7 b33e 6aa8 76be
00000270: 0016 ae3b 0146 003e 0f18 c3bd 20ca dabc
00000280: 1134 f53c cd98 b3bb b0bb c3bd efc3 33bd
00000290: 569b 56be 5c08 66be 89cb 5cbd fdb5 633e
000002a0: 3fa9 79be 1cdb 14be a042 543d 9e3e 533e
000002b0: c0b7 393c c4c4 ca3d 8044 853d 9a26 80be
000002c0: 3a8c 053e 11e3 42be d44f e03d f8c5 a2bc
000002d0: 160e 5cbe c671 d9bd 70fb b83e fb19 f0bd
000002e0: cee7 633e a11d a63d 734a 94be 0c05 813d
000002f0: 1f59 393e ca10 8dbd eac7 5cbe 788f c73d
00000300: e138 5a3d 0032 5a3a b7ba 1e3e c34d b43d

network.1.L1.bias f4 [14]
0.022415549 -0.092382565 -0.02456153 0.17894034 0.13690838 -0.10650222 0.17719205 -0.24771711
0.09533682 -0.08957033 -0.24621256 0.13434957 -0.15425915 0.11301174
00000000: d0a0 b73c 1233 bdbd 4335 c9bc 233c 373e
00000010: b631 0c3e d61d dabd d571 353e 8ea9 7dbe
00000020: f33f c33d a670 b7bd 251f 7cbe ef92 093e
00000030: 1cf6 1dbe b372 e73d

network.1.L2.weight f4 [14, 14]
0.16807741 -0.29400605 -0.19185305 0.47068024 0.014324926 0.094796546 -0.18010186 -0.0315788
-0.12946272 0.025085926 -0.10895083 0.22007439 0.23287867 0.03587243 0.1013278 -0.116561286
-0.0011639704 -0.023782412 0.15218864 -0.25188136 0.27161208 0.24138257 0.059326995 0.003982109
-0.024857467 -0.1355186 -0.1396321 0.09391754 -0.038911223 0.18061915 0.15487853 -0.2198028
0.04340014 -0.16143402 0.057180405 -0.11291854 0.17913896 0.14522919 -0.03917505 -0.023720294
-0.019902378 -0.00048694015 0.24078082 0.2470113 0.0024671836 0.059367485 -0.21889874 0.039692696
-0.19136095 -0.09359344 -0.103532255 0.24516031 0.10728 0.21375507 -0.044308335 -0.23521441
-0.044257842 0.032206953 -0.23716174 -0.07752158 0.07926075 0.049042094 -0.051421817 -0.19336854
0.18710554 0.07105909 0.2646037 0.21577266 -0.019452251 -0.19208725 -0.06533274 0.12709221
0.018915355 0.21455461 0.2588611 0.13558629 -0.020129189 -0.12623058 -0.06740038 -0.2212676
0.15936702 0.033383757 -0.25186262 -0.10116063 -0.22478683 -0.115776874 -0.1602906 0.04561813
0.2557827 0.039081205 -0.17301096 0.06406411 0.10918713 -0.218957 -0.18226266 -0.02230958
0.21240126 0.164691 0.08343435 -0.26382893 0.0861831 -0.08611231 -0.0130159985 -0.24450673
0.09895838 0.005702195 0.13738151 -0.09626262 0.15695657 -0.10234068 -0.14267045 0.17945196
0.0708648 0.11177245 -0.007417172 -0.021807924 -0.23345833 0.26452902 0.023882836 -0.119569585
-0.22213005 -0.0576265 -0.24074264 0.121296495 -0.2449944 0.24435154 0.017541371 -0.24471654
-0.03158316 -0.3926993 -0.0024113934 0.07139598 -0.064711094 0.019840315 -0.2076454 0.22928461
0.027042422 0.28624102 -0.2863761 -0.26697287 -0.07945115 0.038727213 0.2086808 0.03839967
0.15388876 0.048187844 0.14306164 -0.01071788 -0.15229024 -0.032750588 0.29743502 -0.09528778
-0.05701203 -0.0293364 -0.10272442 -0.25126657 0.06834212 0.25059643 -0.18668723 -0.0817474
-0.08513728 -0.16343908 -0.18874052 -0.21793237 -0.011656225 -0.19006185 0.07948035 -0.0029416978
0.1144614 0.19075918 0.18463385 -0.17290519 -0.113409884 0.02904185 0.106979445 -0.12360435
-0.08085034 -0.011185913 0.22897136 0.15040942 -0.25358576 -0.11960542 -0.2225448 0.14760399
-0.060761288 -0.17417273 -0.2217421 -0.06553882 -0.058227148 0.24180825 -0.10660168 -0.0031569714
-0.009564247 0.031277027 0.24862164 0.22709657
00000000: 7c1c 2c3e f687 96be 2075 44be 00fd f03e
00000010: 18b3 6a3c b124 c23d 9f6c 38be c658 01bd
00000020: e091 04be 0081 cd3c 9d21 dfbd 2e5b 613e
00000030: bf77 6e3e f8ee 123d f384 cf3d afb7 eebd
00000040: 5e90 98ba 55d3 c2bc 57d7 1b3e 98f6 80be
00000050: bd10 8b3e fe2c 773e dd00 733d 5a7c 823b
00000060: e3a1 cbbc 63c5 0abe b8fb 0ebe d757 c03d
00000070: 6061 1fbd 3af4 383e 7a98 1e3e fc13 61be
00000080: 58c4 313d f64e 25be 0036 6a3d d641 e7bd
00000090: 3470 373e f6b6 143e 0476 20bd 1051 c2bc
000000a0: 500a a3bc 004c ffb9 3f8f 763e 88f0 7c3e
000000b0: 79b0 213b 522b 733d fe26 60be cf94 223d
000000c0: 20f4 43be ebad bfbd b808 d4bd 4e0b 7b3e
000000d0: 9eb5 db3d 9ce2 5a3e a87c 35bd 0cdc 70be
000000e0: b647 35bd 70eb 033d 87da 72be a2c3 9ebd
000000f0: 7653 a23d 5de0 483d af9f 52bd 6702 46be
00000100: 9898 3f3e 6e87 913d 237a 873e 82f3 5c3e
00000110: 545a 9fbc 85b2 44be 2ccd 85bd 7624 023e
00000120: 60f4 9a3c 34b4 5b3e 7189 843e 22d7 0a3e
00000130: f8e5 a4bc 9742 01be 3609 8abd f993 62be
00000140: 1c31 233e 68bd 083d 23f4 80be 4e2d cfbd
00000150: 852e 66be 6d1c edbd 3823 24be 14da 3a3d
00000160: f3f5 823e 9d13 203d c929 31be 0b34 833d
00000170: 819d df3d 4436 60be 10a3 3abe 95c2 b6bc
00000180: b77f 593e c2a4 283e a1df aa3d 9614 87be
00000190: c480 b03d a75b b0bd 0e41 55bc f95f 7abe
000001a0: b1aa ca3d 7bd9 ba3b bdad 0c3e 5625 c5bd
000001b0: 39b9 203e fe97 d1bd 3418 12be 41c2 373e
000001c0: 9021 913d f4e8 e43d c00b f3bb 88a6 b2bc
000001d0: b30f 6fbe 5970 873e f0a5 c33c e6e0 f4bd
000001e0: 0f76 63be c409 6cbd 3d85 76be 4c6a f83d
000001f0: d0df 7abe 4a37 7a3e ecb2 8f3c f996 7abe
00000200: 585d 01bd e20f c9be 7808 1ebb 0e38 923d
00000210: 4087 84bd 2888 a23c ffa0 54be 96c9 6a3e
00000220: 1288 dd3c 2f8e 923e e39f 92be abb0 88be
00000230: 49b7 a2bd 6da0 1e3d 6bb0 553e f948 1d3d
00000240: 0495 1d3e 9e60 453d c07e 123e 0c9a 2fbc
00000250: f9f1 1bbe 7b25 06bd 6749 983e 3d26 c3bd
00000260: 7285 69bd e452 f0bc 2e61 d2bd 03a6 80be
00000270: f4f6 8b3d 2d4e 803e f02a 3fbe 2e6b a7bd
00000280: 745c aebd 935c 27be 3245 41be aa29 5fbe
00000290: c0f9 3ebc 939f 42be 98c6 a23d 80c9 40bb
000002a0: bd6a ea3d 6056 433e a810 3d3e 0f0e 31be
000002b0: 7143 e8bd 2ce9 ed3c 0a18 db3d 4724 fdbd
000002c0: dd94 a5bd 1f45 37bc 7877 6a3e ed04 1a3e
000002d0: fed5 81be b0f3 f4bd c9e2 63be 8025 173e
000002e0: d4e0 78bd 565a 32be 5c10 63be 3839 86bd
000002f0: 977f 6ebd 959c 773e fb51 dabd 31e5 4ebb
00000300: 5cb3 1cbc 571c 003d ac96 7e3e 018c 683e

network.1.L2.bias f4 [14]
-0.09766928 -0.12585883 -0.1423488 -0.13489027 0.1298485 -0.25641578 0.19674318 0.0102990465
-0.10335854 0.035645813 0.059959948 -0.19749251 -0.26167783 0.04687938
00000000: d506 c8bd 23e1 00be e2c3 11be ad20 0abe
00000010: 01f7 043e ee48 83be 0b77 493e 55bd 283c
00000020: a4ad d3bd 5801 123d 9098 753d 7a3b 4abe
00000030: a3fa 85be 9804 403d

network.2.L1.weight f4 [14, 14]
-0.18731277 0.22885743 -0.13718267 -0.10423578 -0.19132394 0.09851506 0.09615662 0.13529772
0.07220402 -0.09944392 -0.14850809 0.2596595 0.091073245 0.26570287 0.15895319 0.16187727
-0.2583589 0.007732421 -0.21228425 0.101570964 0.10771063 -0.1194091 0.12834117 0.0030017197
-0.081630096 -0.14172332 -0.07359053 -0.18076195 -0.14811708 0.015951073 -0.115043506 -0.018405762
-0.010147429 -0.22499898 0.16746768 0.025061144 0.073003024 0.023143047 -0.048446417 0.09841651
0.03768224 0.2515097 0.23519652 -0.09511152 -0.11874077 -0.13289829 0.20993076 0.14290679
0.12968157 -0.07096221 0.18457267 -0.2739964 -0.2303605 0.018319309 -0.2480298 0.08489646
-0.2942458 -0.16855615 0.0013568401 0.0023292943 0.17450859 0.13538808 -0.10871693 0.29982117
-0.05155398 0.11289049 -0.05820945 0.15039575 0.07734035 -0.050280195 -0.09567526 0.20557046
-0.07377756 -0.11736454 -0.089389786 0.13632393 0.13820651 -0.21045421 0.064379066 0.02923727
0.07238093 0.22736314 -0.11194019 0.036459237 -0.039610628 -0.090482034 -0.18045223 0.06851027
0.20555945 -0.09860043 -0.25263107 -0.20291738 0.2247352 0.26462704 0.2706372 -0.08963132
0.12171807 -0.06035242 -0.14423794 -0.16841568 -0.19202998 -0.052650854 -0.14230311 -0.06897746
-0.25540558 -0.25439334 0.11412442 -0.2618936 0.13253397 -0.20030642 -0.14495143 0.040892392
0.1809385 -0.27372685 -0.054741696 -0.1332253 -0.0024763946 0.13430011 0.22352777 -0.13584952
0.12837446 0.10884287 -0.006011672 -0.20881231 0.05640377 -0.08627306 -0.119279794 0.3011451
-0.028033346 0.31132552 0.2046062 0.20099458 -0.1540185 0.26136386 0.054240674 -0.029641695
0.29076397 0.003991753 0.20604518 -0.0890719 -0.17005248 0.011292398 -0.18777433 0.13347629
0.10828826 -0.13987766 0.15472522 -0.266264 -0.0016160905 -0.12649885 -0.2297827 0.19600412
-0.055403203 0.021433473 0.35137913 -0.24087682 0.005312681 0.12526704 -0.09526073 -0.026707709
0.029932054 -0.0054808618 -0.09557283 -0.04388803 -0.20957693 -0.22464126 -0.053905044 0.22237392
-0.24380969 -0.14536709 0.05182135 0.20629355 0.011335313 0.09900811 0.06507206 -0.2502945
0.13041773 -0.19031931 0.10952726 -0.01986979 -0.21489748 -0.10617404 0.36129332 -0.117237054
0.22256395 0.0811112 -0.2896305 0.06299791 0.18100403 -0.06887968 -0.21560636 0.09744161
0.0532769 0.00083234906 0.15500914 0.08803894
00000000: ebce 3fbe 9a59 6a3e 9d79 0cbe 9279 d5bd
00000010: 6cea 43be 44c2 c93d c3ed c43d 7c8b 0a3e
00000020: b4df 933d 41a9 cbbd 8112 18be 17f2 843e
00000030: 9c84 ba3d 350a 883e a0c4 223e 28c3 253e
00000040: 9e47 84be 4060 fd3b 0b61 59be 7004 d03d
00000050: 6497 dc3d c28c f4bd de6b 033e 80b8 443b
00000060: ae2d a7bd eb1f 11be a2b6 96bd a919 39be
00000070: 01ac 17be d3ab 823c ee9b ebbd aec7 96bc
00000080: 6741 26bc 2266 66be a67c 2b3e 074d cd3c
00000090: 9c82 953d 7d96 bd3c c06f 46bd 988e c93d
000000a0: b158 1a3d e1c5 803e 5bd7 703e d4c9 c2bd
000000b0: 5c2e f3bd 7d16 08be 17f8 563e 2856 123e
000000c0: 3fcb 043e a354 91bd 9e00 3d3e 4249 8cbe
000000d0: 9fe3 6bbe 6012 963c 86fb 7dbe 32de ad3d
000000e0: 63a7 96be fc99 2cbe 00d8 b13a 13a7 183b
000000f0: 61b2 323e 2ca3 0a3e fba6 debd 2982 993e
00000100: 442a 53bd 2133 e73d 086d 6ebd 5801 1a3e
00000110: 9e64 9e3d 9bf2 4dbd 64f1 c3bd 1081 523e
00000120: b018 97bd d25c f0bd fe11 b7bd 8098 0b3e
00000130: 0286 0d3e 4f81 57be 2cd9 833d 0083 ef3c
00000140: 743c 943d e2d1 683e e640 e5bd 4856 153d
00000150: c13e 22bd a54e b9bd 78c8 38be 1d4f 8c3d
00000160: 2d7e 523e 06ef c9bd dc58 81be 93c9 4fbe
00000170: fc20 663e 327d 873e f690 8a3e a090 b7bd
00000180: 5347 f93d 1934 77bd 1cb3 13be 2975 2cbe
00000190: 82a3 44be 6ca8 57bd e8b7 11be 0e44 8dbd
000001a0: 85c4 82be d83f 82be 10ba e93d eb16 86be
000001b0: fcb6 073e 201d 4dbe 266e 14be c87e 273d
000001c0: f147 393e ed25 8cbe d438 60bd 376c 08be
000001d0: 024b 22bb f885 093e 77e4 643e 231c 0bbe
000001e0: 9874 033e 03e9 de3d 8ffd c4bb e5d2 55be
000001f0: a407 673d eeaf b0bd f748 f4bd b12f 9a3e
00000200: 30a6 e5bc 0f66 9f3e 4a84 513e 86d1 4d3e
00000210: 07b7 1dbe 7cd1 853e 782b 5e3d 24d3 f2bc
00000220: 04df 943e 40cd 823b 82fd 523e 546b b6bd
00000230: 3d22 2ebe c003 393c ea47 40be 02ae 083e
00000240: 3cc6 dd3d 173c 0fbe 4a70 1e3e c153 88be
00000250: 00d3 d3ba ea88 01be 284c 6bbe 4eb5 483e
00000260: 78ee 62bd 4095 af3c f7e7 b33e 6aa8 76be
00000270: 0016 ae3b 0146 003e 0f18 c3bd 20ca dabc
00000280: 1134 f53c cd98 b3bb b0bb c3bd efc3 33bd
00000290: 569b 56be 5c08 66be 89cb 5cbd fdb5 633e
000002a0: 3fa9 79be 1cdb 14be a042 543d 9e3e 533e
000002b0: c0b7 393c c4c4 ca3d 8044 853d 9a26 80be
000002c0: 3a8c 053e 11e3 42be d44f e03d f8c5 a2bc
000002d0: 160e 5cbe c671 d9bd 70fb b83e fb19 f0bd
000002e0: cee7 633e a11d a63d 734a 94be 0c05 813d
000002f0: 1f59 393e ca10 8dbd eac7 5cbe 788f c73d
00000300: e138 5a3d 0032 5a3a b7ba 1e3e c34d b43d

network.2.L1.bias f4 [14]
0.022415549 -0.092382565 -0.02456153 0.17894034 0.13690838 -0.10650222 0.17719205 -0.24771711
0.09533682 -0.08957033 -0.24621256 0.13434957 -0.15425915 0.11301174
00000000: d0a0 b73c 1233 bdbd 4335 c9bc 233c 373e
00000010: b631 0c3e d61d dabd d571 353e 8ea9 7dbe
00000020: f33f c33d a670 b7bd 251f 7cbe ef92 093e
00000030: 1cf6 1dbe b372 e73d

network.2.L2.weight f4 [14, 14]
0.16807741 -0.29400605 -0.19185305 0.47068024 0.014324926 0.094796546 -0.18010186 -0.0315788
-0.12946272 0.025085926 -0.10895083 0.22007439 0.23287867 0.03587243 0.1013278 -0.116561286
-0.0011639704 -0.023782412 0.15218864 -0.25188136 0.27161208 0.24138257 0.059326995 0.003982109
-0.024857467 -0.1355186 -0.1396321 0.09391754 -0.038911223 0.18061915 0.15487853 -0.2198028
0.04340014 -0.16143402 0.057180405 -0.11291854 0.17913896 0.14522919 -0.03917505 -0.023720294
-0.019902378 -0.00048694015 0.24078082 0.2470113 0.0024671836 0.059367485 -0.21889874 0.039692696
-0.19136095 -0.09359344 -0.103532255 0.24516031 0.10728 0.21375507 -0.044308335 -0.23521441
-0.044257842 0.032206953 -0.23716174 -0.07752158 0.07926075 0.049042094 -0.051421817 -0.19336854
0.18710554 0.07105909 0.2646037 0.21577266 -0.019452251 -0.19208725 -0.06533274 0.12709221
0.018915355 0.21455461 0.2588611 0.13558629 -0.020129189 -0.12623058 -0.06740038 -0.2212676
0.15936702 0.033383757 -0.25186262 -0.10116063 -0.22478683 -0.115776874 -0.1602906 0.04561813
0.2557827 0.039081205 -0.17301096 0.06406411 0.10918713 -0.218957 -0.18226266 -0.02230958
0.21240126 0.164691 0.08343435 -0.26382893 0.0861831 -0.08611231 -0.0130159985 -0.24450673
0.09895838 0.005702195 0.13738151 -0.09626262 0.15695657 -0.10234068 -0.14267045 0.17945196
0.0708648 0.11177245 -0.007417172 -0.021807924 -0.23345833 0.26452902 0.023882836 -0.119569585
-0.22213005 -0.0576265 -0.24074264 0.121296495 -0.2449944 0.24435154 0.017541371 -0.24471654
-0.03158316 -0.3926993 -0.0024113934 0.07139598 -0.064711094 0.019840315 -0.2076454 0.22928461
0.027042422 0.28624102 -0.2863761 -0.26697287 -0.07945115 0.038727213 0.2086808 0.03839967
0.15388876 0.048187844 0.14306164 -0.01071788 -0.15229024 -0.032750588 0.29743502 -0.09528778
-0.05701203 -0.0293364 -0.10272442 -0.25126657 0.06834212 0.25059643 -0.18668723 -0.0817474
-0.08513728 -0.16343908 -0.18874052 -0.21793237 -0.011656225 -0.19006185 0.07948035 -0.0029416978
0.1144614 0.19075918 0.18463385 -0.17290519 -0.113409884 0.02904185 0.106979445 -0.12360435
-0.08085034 -0.011185913 0.22897136 0.15040942 -0.25358576 -0.11960542 -0.2225448 0.14760399
-0.060761288 -0.17417273 -0.2217421 -0.06553882 -0.058227148 0.24180825 -0.10660168 -0.0031569714
-0.009564247 0.031277027 0.24862164 0.22709657
00000000: 7c1c 2c3e f687 96be 2075 44be 00fd f03e
00000010: 18b3 6a3c b124 c23d 9f6c 38be c658 01bd
00000020: e091 04be 0081 cd3c 9d21 dfbd 2e5b 613e
00000030: bf77 6e3e f8ee 123d f384 cf3d afb7 eebd
00000040: 5e90 98ba 55d3 c2bc 57d7 1b3e 98f6 80be
00000050: bd10 8b3e fe2c 773e dd00 733d 5a7c 823b
00000060: e3a1 cbbc 63c5 0abe b8fb 0ebe d757 c03d
00000070: 6061 1fbd 3af4 383e 7a98 1e3e fc13 61be
00000080: 58c4 313d f64e 25be 0036 6a3d d641 e7bd
00000090: 3470 373e f6b6 143e 0476 20bd 1051 c2bc
000000a0: 500a a3bc 004c ffb9 3f8f 763e 88f0 7c3e
000000b0: 79b0 213b 522b 733d fe26 60be cf94 223d
000000c0: 20f4 43be ebad bfbd b808 d4bd 4e0b 7b3e
000000d0: 9eb5 db3d 9ce2 5a3e a87c 35bd 0cdc 70be
000000e0: b647 35bd 70eb 033d 87da 72be a2c3 9ebd
000000f0: 7653 a23d 5de0 483d af9f 52bd 6702 46be
00000100: 9898 3f3e 6e87 913d 237a 873e 82f3 5c3e
00000110: 545a 9fbc 85b2 44be 2ccd 85bd 7624 023e
00000120: 60f4 9a3c 34b4 5b3e 7189 843e 22d7 0a3e
00000130: f8e5 a4bc 9742 01be 3609 8abd f993 62be
00000140: 1c31 233e 68bd 083d 23f4 80be 4e2d cfbd
00000150: 852e 66be 6d1c edbd 3823 24be 14da 3a3d
00000160: f3f5 823e 9d13 203d c929 31be 0b34 833d
00000170: 819d df3d 4436 60be 10a3 3abe 95c2 b6bc
00000180: b77f 593e c2a4 283e a1df aa3d 9614 87be
00000190: c480 b03d a75b b0bd 0e41 55bc f95f 7abe
000001a0: b1aa ca3d 7bd9 ba3b bdad 0c3e 5625 c5bd
000001b0: 39b9 203e fe97 d1bd 3418 12be 41c2 373e
000001c0: 9021 913d f4e8 e43d c00b f3bb 88a6 b2bc
000001d0: b30f 6fbe 5970 873e f0a5 c33c e6e0 f4bd
000001e0: 0f76 63be c409 6cbd 3d85 76be 4c6a f83d
000001f0: d0df 7abe 4a37 7a3e ecb2 8f3c f996 7abe
00000200: 585d 01bd e20f c9be 7808 1ebb 0e38 923d
00000210: 4087 84bd 2888 a23c ffa0 54be 96c9 6a3e
00000220: 1288 dd3c 2f8e 923e e39f 92be abb0 88be
00000230: 49b7 a2bd 6da0 1e3d 6bb0 553e f948 1d3d
00000240: 0495 1d3e 9e60 453d c07e 123e 0c9a 2fbc
00000250: f9f1 1bbe 7b25 06bd 6749 983e 3d26 c3bd
00000260: 7285 69bd e452 f0bc 2e61 d2bd 03a6 80be
00000270: f4f6 8b3d 2d4e 803e f02a 3fbe 2e6b a7bd
00000280: 745c aebd 935c 27be 3245 41be aa29 5fbe
00000290: c0f9 3ebc 939f 42be 98c6 a23d 80c9 40bb
000002a0: bd6a ea3d 6056 433e a810 3d3e 0f0e 31be
000002b0: 7143 e8bd 2ce9 ed3c 0a18 db3d 4724 fdbd
000002c0: dd94 a5bd 1f45 37bc 7877 6a3e ed04 1a3e
000002d0: fed5 81be b0f3 f4bd c9e2 63be 8025 173e
000002e0: d4e0 78bd 565a 32be 5c10 63be 3839 86bd
000002f0: 977f 6ebd 959c 773e fb51 dabd 31e5 4ebb
00000300: 5cb3 1cbc 571c 003d ac96 7e3e 018c 683e

network.2.L2.bias f4 [14]
-0.09766928 -0.12585883 -0.1423488 -0.13489027 0.1298485 -0.25641578 0.19674318 0.0102990465
-0.10335854 0.035645813 0.059959948 -0.19749251 -0.26167783 0.04687938
00000000: d506 c8bd 23e1 00be e2c3 11be ad20 0abe
00000010: 01f7 043e ee48 83be 0b77 493e 55bd 283c
00000020: a4ad d3bd 5801 123d 9098 753d 7a3b 4abe
00000030: a3fa 85be 9804 403d

network.3.L1.weight f4 [14, 14]
-0.18731277 0.22885743 -0.13718267 -0.10423578 -0.19132394 0.09851506 0.09615662 0.13529772
0.07220402 -0.09944392 -0.14850809 0.2596595 0.091073245 0.26570287 0.15895319 0.16187727
-0.2583589 0.007732421 -0.21228425 0.101570964 0.10771063 -0.1194091 0.12834117 0.0030017197
-0.081630096 -0.14172332 -0.07359053 -0.18076195 -0.14811708 0.015951073 -0.115043506 -0.018405762
-0.010147429 -0.22499898 0.16746768 0.025061144 0.073003024 0.023143047 -0.048446417 0.09841651
0.03768224 0.2515097 0.23519652 -0.09511152 -0.11874077 -0.13289829 0.20993076 0.14290679
0.12968157 -0.07096221 0.18457267 -0.2739964 -0.2303605 0.018319309 -0.2480298 0.08489646
-0.2942458 -0.16855615 0.0013568401 0.0023292943 0.17450859 0.13538808 -0.10871693 0.29982117
-0.05155398 0.11289049 -0.05820945 0.15039575 0.07734035 -0.050280195 -0.09567526 0.20557046
-0.07377756 -0.11736454 -0.089389786 0.13632393 0.13820651 -0.21045421 0.064379066 0.02923727
0.07238093 0.22736314 -0.11194019 0.036459237 -0.039610628 -0.090482034 -0.18045223 0.06851027
0.20555945 -0.09860043 -0.25263107 -0.20291738 0.2247352 0.26462704 0.2706372 -0.08963132
0.12171807 -0.06035242 -0.14423794 -0.16841568 -0.19202998 -0.052650854 -0.14230311 -0.06897746
-0.25540558 -0.25439334 0.11412442 -0.2618936 0.13253397 -0.20030642 -0.14495143 0.040892392
0.1809385 -0.27372685 -0.054741696 -0.1332253 -0.0024763946 0.13430011 0.22352777 -0.13584952
0.12837446 0.10884287 -0.006011672 -0.20881231 0.05640377 -0.08627306 -0.119279794 0.3011451
-0.028033346 0.31132552 0.2046062 0.20099458 -0.1540185 0.26136386 0.054240674 -0.029641695
0.29076397 0.003991753 0.20604518 -0.0890719 -0.17005248 0.011292398 -0.18777433 0.13347629
0.10828826 -0.13987766 0.15472522 -0.266264 -0.0016160905 -0.12649885 -0.2297827 0.19600412
-0.055403203 0.021433473 0.35137913 -0.24087682 0.005312681 0.12526704 -0.09526073 -0.026707709
0.029932054 -0.0054808618 -0.09557283 -0.04388803 -0.20957693 -0.22464126 -0.053905044 0.22237392
-0.24380969 -0.14536709 0.05182135 0.20629355 0.011335313 0.09900811 0.06507206 -0.2502945
0.13041773 -0.19031931 0.10952726 -0.01986979 -0.21489748 -0.10617404 0.36129332 -0.117237054
0.22256395 0.0811112 -0.2896305 0.06299791 0.18100403 -0.06887968 -0.21560636 0.09744161
0.0532769 0.00083234906 0.15500914 0.08803894
00000000: ebce 3fbe 9a59 6a3e 9d79 0cbe 9279 d5bd
00000010: 6cea 43be 44c2 c93d c3ed c43d 7c8b 0a3e
00000020: b4df 933d 41a9 cbbd 8112 18be 17f2 843e
00000030: 9c84 ba3d 350a 883e a0c4 223e 28c3 253e
00000040: 9e47 84be 4060 fd3b 0b61 59be 7004 d03d
00000050: 6497 dc3d c28c f4bd de6b 033e 80b8 443b
00000060: ae2d a7bd eb1f 11be a2b6 96bd a919 39be
00000070: 01ac 17be d3ab 823c ee9b ebbd aec7 96bc
00000080: 6741 26bc 2266 66be a67c 2b3e 074d cd3c
00000090: 9c82 953d 7d96 bd3c c06f 46bd 988e c93d
000000a0: b158 1a3d e1c5 803e 5bd7 703e d4c9 c2bd
000000b0: 5c2e f3bd 7d16 08be 17f8 563e 2856 123e
000000c0: 3fcb 043e a354 91bd 9e00 3d3e 4249 8cbe
000000d0: 9fe3 6bbe 6012 963c 86fb 7dbe 32de ad3d
000000e0: 63a7 96be fc99 2cbe 00d8 b13a 13a7 183b
000000f0: 61b2 323e 2ca3 0a3e fba6 debd 2982 993e
00000100: 442a 53bd 2133 e73d 086d 6ebd 5801 1a3e
00000110: 9e64 9e3d 9bf2 4dbd 64f1 c3bd 1081 523e
00000120: b018 97bd d25c f0bd fe11 b7bd 8098 0b3e
00000130: 0286 0d3e 4f81 57be 2cd9 833d 0083 ef3c
00000140: 743c 943d e2d1 683e e640 e5bd 4856 153d
00000150: c13e 22bd a54e b9bd 78c8 38be 1d4f 8c3d
00000160: 2d7e 523e 06ef c9bd dc58 81be 93c9 4fbe
00000170: fc20 663e 327d 873e f690 8a3e a090 b7bd
00000180: 5347 f93d 1934 77bd 1cb3 13be 2975 2cbe
00000190: 82a3 44be 6ca8 57bd e8b7 11be 0e44 8dbd
000001a0: 85c4 82be d83f 82be 10ba e93d eb16 86be
000001b0: fcb6 073e 201d 4dbe 266e 14be c87e 273d
000001c0: f147 393e ed25 8cbe d438 60bd 376c 08be
000001d0: 024b 22bb f885 093e 77e4 643e 231c 0bbe
000001e0: 9874 033e 03e9 de3d 8ffd c4bb e5d2 55be
000001f0: a407 673d eeaf b0bd f748 f4bd b12f 9a3e
00000200: 30a6 e5bc 0f66 9f3e 4a84 513e 86d1 4d3e
00000210: 07b7 1dbe 7cd1 853e 782b 5e3d 24d3 f2bc
00000220: 04df 943e 40cd 823b 82fd 523e 546b b6bd
00000230: 3d22 2ebe c003 393c ea47 40be 02ae 083e
00000240: 3cc6 dd3d 173c 0fbe 4a70 1e3e c153 88be
00000250: 00d3 d3ba ea88 01be 284c 6bbe 4eb5 483e
00000260: 78ee 62bd 4095 af3c f7e7 b33e 6aa8 76be
00000270: 0016 ae3b 0146 003e 0f18 c3bd 20ca dabc
00000280: 1134 f53c cd98 b3bb b0bb c3bd efc3 33bd
00000290: 569b 56be 5c08 66be 89cb 5cbd fdb5 633e
000002a0: 3fa9 79be 1cdb 14be a042 543d 9e3e 533e
000002b0: c0b7 393c c4c4 ca3d 8044 853d 9a26 80be
000002c0: 3a8c 053e 11e3 42be d44f e03d f8c5 a2bc
000002d0: 160e 5cbe c671 d9bd 70fb b83e fb19 f0bd
000002e0: cee7 633e a11d a63d 734a 94be 0c05 813d
000002f0: 1f59 393e ca10 8dbd eac7 5cbe 788f c73d
00000300: e138 5a3d 0032 5a3a b7ba 1e3e c34d b43d

network.3.L1.bias f4 [14]
0.022415549 -0.092382565 -0.02456153 0.17894034 0.13690838 -0.10650222 0.17719205 -0.24771711
0.09533682 -0.08957033 -0.24621256 0.13434957 -0.15425915 0.11301174
00000000: d0a0 b73c 1233 bdbd 4335 c9bc 233c 373e
00000010: b631 0c3e d61d dabd d571 353e 8ea9 7dbe
00000020: f33f c33d a670 b7bd 251f 7cbe ef92 093e
00000030: 1cf6 1dbe b372 e73d

network.3.L2.weight f4 [14, 14]
0.16807741 -0.29400605 -0.19185305 0.47068024 0.014324926 0.094796546 -0.18010186 -0.0315788
-0.12946272 0.025085926 -0.10895083 0.22007439 0.23287867 0.03587243 0.1013278 -0.116561286
-0.0011639704 -0.023782412 0.15218864 -0.25188136 0.27161208 0.24138257 0.059326995 0.003982109
-0.024857467 -0.1355186 -0.1396321 0.09391754 -0.038911223 0.18061915 0.15487853 -0.2198028
0.04340014 -0.16143402 0.057180405 -0.11291854 0.17913896 0.14522919 -0.03917505 -0.023720294
-0.019902378 -0.00048694015 0.24078082 0.2470113 0.0024671836 0.059367485 -0.21889874 0.039692696
-0.19136095 -0.09359344 -0.103532255 0.24516031 0.10728 0.21375507 -0.044308335 -0.23521441
-0.044257842 0.032206953 -0.23716174 -0.07752158 0.07926075 0.049042094 -0.051421817 -0.19336854
0.18710554 0.07105909 0.2646037 0.21577266 -0.019452251 -0.19208725 -0.06533274 0.12709221
0.018915355 0.21455461 0.2588611 0.13558629 -0.020129189 -0.12623058 -0.06740038 -0.2212676
0.15936702 0.033383757 -0.25186262 -0.10116063 -0.22478683 -0.115776874 -0.1602906 0.04561813
0.2557827 0.039081205 -0.17301096 0.06406411 0.10918713 -0.218957 -0.18226266 -0.02230958
0.21240126 0.164691 0.08343435 -0.26382893 0.0861831 -0.08611231 -0.0130159985 -0.24450673
0.09895838 0.005702195 0.13738151 -0.09626262 0.15695657 -0.10234068 -0.14267045 0.17945196
0.0708648 0.11177245 -0.007417172 -0.021807924 -0.23345833 0.26452902 0.023882836 -0.119569585
-0.22213005 -0.0576265 -0.24074264 0.121296495 -0.2449944 0.24435154 0.017541371 -0.24471654
-0.03158316 -0.3926993 -0.0024113934 0.07139598 -0.064711094 0.019840315 -0.2076454 0.22928461
0.027042422 0.28624102 -0.2863761 -0.26697287 -0.07945115 0.038727213 0.2086808 0.03839967
0.15388876 0.048187844 0.14306164 -0.01071788 -0.15229024 -0.032750588 0.29743502 -0.09528778
-0.05701203 -0.0293364 -0.10272442 -0.25126657 0.06834212 0.25059643 -0.18668723 -0.0817474
-0.08513728 -0.16343908 -0.18874052 -0.21793237 -0.011656225 -0.19006185 0.07948035 -0.0029416978
0.1144614 0.19075918 0.18463385 -0.17290519 -0.113409884 0.02904185 0.106979445 -0.12360435
-0.08085034 -0.011185913 0.22897136 0.15040942 -0.25358576 -0.11960542 -0.2225448 0.14760399
-0.060761288 -0.17417273 -0.2217421 -0.06553882 -0.058227148 0.24180825 -0.10660168 -0.0031569714
-0.009564247 0.031277027 0.24862164 0.22709657
00000000: 7c1c 2c3e f687 96be 2075 44be 00fd f03e
00000010: 18b3 6a3c b124 c23d 9f6c 38be c658 01bd
00000020: e091 04be 0081 cd3c 9d21 dfbd 2e5b 613e
00000030: bf77 6e3e f8ee 123d f384 cf3d afb7 eebd
00000040: 5e90 98ba 55d3 c2bc 57d7 1b3e 98f6 80be
00000050: bd10 8b3e fe2c 773e dd00 733d 5a7c 823b
00000060: e3a1 cbbc 63c5 0abe b8fb 0ebe d757 c03d
00000070: 6061 1fbd 3af4 383e 7a98 1e3e fc13 61be
00000080: 58c4 313d f64e 25be 0036 6a3d d641 e7bd
00000090: 3470 373e f6b6 143e 0476 20bd 1051 c2bc
000000a0: 500a a3bc 004c ffb9 3f8f 763e 88f0 7c3e
000000b0: 79b0 213b 522b 733d fe26 60be cf94 223d
000000c0: 20f4 43be ebad bfbd b808 d4bd 4e0b 7b3e
000000d0: 9eb5 db3d 9ce2 5a3e a87c 35bd 0cdc 70be
000000e0: b647 35bd 70eb 033d 87da 72be a2c3 9ebd
000000f0: 7653 a23d 5de0 483d af9f 52bd 6702 46be
00000100: 9898 3f3e 6e87 913d 237a 873e 82f3 5c3e
00000110: 545a 9fbc 85b2 44be 2ccd 85bd 7624 023e
00000120: 60f4 9a3c 34b4 5b3e 7189 843e 22d7 0a3e
00000130: f8e5 a4bc 9742 01be 3609 8abd f993 62be
00000140: 1c31 233e 68bd 083d 23f4 80be 4e2d cfbd
00000150: 852e 66be 6d1c edbd 3823 24be 14da 3a3d
00000160: f3f5 823e 9d13 203d c929 31be 0b34 833d
00000170: 819d df3d 4436 60be 10a3 3abe 95c2 b6bc
00000180: b77f 593e c2a4 283e a1df aa3d 9614 87be
00000190: c480 b03d a75b b0bd 0e41 55bc f95f 7abe
000001a0: b1aa ca3d 7bd9 ba3b bdad 0c3e 5625 c5bd
000001b0: 39b9 203e fe97 d1bd 3418 12be 41c2 373e
000001c0: 9021 913d f4e8 e43d c00b f3bb 88a6 b2bc
000001d0: b30f 6fbe 5970 873e f0a5 c33c e6e0 f4bd
000001e0: 0f76 63be c409 6cbd 3d85 76be 4c6a f83d
000001f0: d0df 7abe 4a37 7a3e ecb2 8f3c f996 7abe
00000200: 585d 01bd e20f c9be 7808 1ebb 0e38 923d
00000210: 4087 84bd 2888 a23c ffa0 54be 96c9 6a3e
00000220: 1288 dd3c 2f8e 923e e39f 92be abb0 88be
00000230: 49b7 a2bd 6da0 1e3d 6bb0 553e f948 1d3d
00000240: 0495 1d3e 9e60 453d c07e 123e 0c9a 2fbc
00000250: f9f1 1bbe 7b25 06bd 6749 983e 3d26 c3bd
00000260: 7285 69bd e452 f0bc 2e61 d2bd 03a6 80be
00000270: f4f6 8b3d 2d4e 803e f02a 3fbe 2e6b a7bd
00000280: 745c aebd 935c 27be 3245 41be aa29 5fbe
00000290: c0f9 3ebc 939f 42be 98c6 a23d 80c9 40bb
000002a0: bd6a ea3d 6056 433e a810 3d3e 0f0e 31be
000002b0: 7143 e8bd 2ce9 ed3c 0a18 db3d 4724 fdbd
000002c0: dd94 a5bd 1f45 37bc 7877 6a3e ed04 1a3e
000002d0: fed5 81be b0f3 f4bd c9e2 63be 8025 173e
000002e0: d4e0 78bd 565a 32be 5c10 63be 3839 86bd
000002f0: 977f 6ebd 959c 773e fb51 dabd 31e5 4ebb
00000300: 5cb3 1cbc 571c 003d ac96 7e3e 018c 683e

network.3.L2.bias f4 [14]
-0.09766928 -0.12585883 -0.1423488 -0.13489027 0.1298485 -0.25641578 0.19674318 0.0102990465
-0.10335854 0.035645813 0.059959948 -0.19749251 -0.26167783 0.04687938
00000000: d506 c8bd 23e1 00be e2c3 11be ad20 0abe
00000010: 01f7 043e ee48 83be 0b77 493e 55bd 283c
00000020: a4ad d3bd 5801 123d 9098 753d 7a3b 4abe
00000030: a3fa 85be 9804 403d

network.4.L1.weight f4 [14, 14]
-0.18731277 0.22885743 -0.13718267 -0.10423578 -0.19132394 0.09851506 0.09615662 0.13529772
0.07220402 -0.09944392 -0.14850809 0.2596595 0.091073245 0.26570287 0.15895319 0.16187727
-0.2583589 0.007732421 -0.21228425 0.101570964 0.10771063 -0.1194091 0.12834117 0.0030017197
-0.081630096 -0.14172332 -0.07359053 -0.18076195 -0.14811708 0.015951073 -0.115043506 -0.018405762
-0.010147429 -0.22499898 0.16746768 0.025061144 0.073003024 0.023143047 -0.048446417 0.09841651
0.03768224 0.2515097 0.23519652 -0.09511152 -0.11874077 -0.13289829 0.20993076 0.14290679
0.12968157 -0.07096221 0.18457267 -0.2739964 -0.2303605 0.018319309 -0.2480298 0.08489646
-0.2942458 -0.16855615 0.0013568401 0.0023292943 0.17450859 0.13538808 -0.10871693 0.29982117
-0.05155398 0.11289049 -0.05820945 0.15039575 0.07734035 -0.050280195 -0.09567526 0.20557046
-0.07377756 -0.11736454 -0.089389786 0.13632393 0.13820651 -0.21045421 0.064379066 0.02923727
0.07238093 0.22736314 -0.11194019 0.036459237 -0.039610628 -0.090482034 -0.18045223 0.06851027
0.20555945 -0.09860043 -0.25263107 -0.20291738 0.2247352 0.26462704 0.2706372 -0.08963132
0.12171807 -0.06035242 -0.14423794 -0.16841568 -0.19202998 -0.052650854 -0.14230311 -0.06897746
-0.25540558 -0.25439334 0.11412442 -0.2618936 0.13253397 -0.20030642 -0.14495143 0.040892392
0.1809385 -0.27372685 -0.054741696 -0.1332253 -0.0024763946 0.13430011 0.22352777 -0.13584952
0.12837446 0.10884287 -0.006011672 -0.20881231 0.05640377 -0.08627306 -0.119279794 0.3011451
-0.028033346 0.31132552 0.2046062 0.20099458 -0.1540185 0.26136386 0.054240674 -0.029641695
0.29076397 0.003991753 0.20604518 -0.0890719 -0.17005248 0.011292398 -0.18777433 0.13347629
0.10828826 -0.13987766 0.15472522 -0.266264 -0.0016160905 -0.12649885 -0.2297827 0.19600412
-0.055403203 0.021433473 0.35137913 -0.24087682 0.005312681 0.12526704 -0.09526073 -0.026707709
0.029932054 -0.0054808618 -0.09557283 -0.04388803 -0.20957693 -0.22464126 -0.053905044 0.22237392
-0.24380969 -0.14536709 0.05182135 0.20629355 0.011335313 0.09900811 0.06507206 -0.2502945
0.13041773 -0.19031931 0.10952726 -0.01986979 -0.21489748 -0.10617404 0.36129332 -0.117237054
0.22256395 0.0811112 -0.2896305 0.06299791 0.18100403 -0.06887968 -0.21560636 0.09744161
0.0532769 0.00083234906 0.15500914 0.08803894
00000000: ebce 3fbe 9a59 6a3e 9d79 0cbe 9279 d5bd
00000010: 6cea 43be 44c2 c93d c3ed c43d 7c8b 0a3e
00000020: b4df 933d 41a9 cbbd 8112 18be 17f2 843e
00000030: 9c84 ba3d 350a 883e a0c4 223e 28c3 253e
00000040: 9e47 84be 4060 fd3b 0b61 59be 7004 d03d
00000050: 6497 dc3d c28c f4bd de6b 033e 80b8 443b
00000060: ae2d a7bd eb1f 11be a2b6 96bd a919 39be
00000070: 01ac 17be d3ab 823c ee9b ebbd aec7 96bc
00000080: 6741 26bc 2266 66be a67c 2b3e 074d cd3c
00000090: 9c82 953d 7d96 bd3c c06f 46bd 988e c93d
000000a0: b158 1a3d e1c5 803e 5bd7 703e d4c9 c2bd
000000b0: 5c2e f3bd 7d16 08be 17f8 563e 2856 123e
000000c0: 3fcb 043e a354 91bd 9e00 3d3e 4249 8cbe
000000d0: 9fe3 6bbe 6012 963c 86fb 7dbe 32de ad3d
000000e0: 63a7 96be fc99 2cbe 00d8 b13a 13a7 183b
000000f0: 61b2 323e 2ca3 0a3e fba6 debd 2982 993e
00000100: 442a 53bd 2133 e73d 086d 6ebd 5801 1a3e
00000110: 9e64 9e3d 9bf2 4dbd 64f1 c3bd 1081 523e
00000120: b018 97bd d25c f0bd fe11 b7bd 8098 0b3e
00000130: 0286 0d3e 4f81 57be 2cd9 833d 0083 ef3c
00000140: 743c 943d e2d1 683e e640 e5bd 4856 153d
00000150: c13e 22bd a54e b9bd 78c8 38be 1d4f 8c3d
00000160: 2d7e 523e 06ef c9bd dc58 81be 93c9 4fbe
00000170: fc20 663e 327d 873e f690 8a3e a090 b7bd
00000180: 5347 f93d 1934 77bd 1cb3 13be 2975 2cbe
00000190: 82a3 44be 6ca8 57bd e8b7 11be 0e44 8dbd
000001a0: 85c4 82be d83f 82be 10ba e93d eb16 86be
000001b0: fcb6 073e 201d 4dbe 266e 14be c87e 273d
000001c0: f147 393e ed25 8cbe d438 60bd 376c 08be
000001d0: 024b 22bb f885 093e 77e4 643e 231c 0bbe
000001e0: 9874 033e 03e9 de3d 8ffd c4bb e5d2 55be
000001f0: a407 673d eeaf b0bd f748 f4bd b12f 9a3e
00000200: 30a6 e5bc 0f66 9f3e 4a84 513e 86d1 4d3e
00000210: 07b7 1dbe 7cd1 853e 782b 5e3d 24d3 f2bc
00000220: 04df 943e 40cd 823b 82fd 523e 546b b6bd
00000230: 3d22 2ebe c003 393c ea47 40be 02ae 083e
00000240: 3cc6 dd3d 173c 0fbe 4a70 1e3e c153 88be
00000250: 00d3 d3ba ea88 01be 284c 6bbe 4eb5 483e
00000260: 78ee 62bd 4095 af3c f7e7 b33e 6aa8 76be
00000270: 0016 ae3b 0146 003e 0f18 c3bd 20ca dabc
00000280: 1134 f53c cd98 b3bb b0bb c3bd efc3 33bd
00000290: 569b 56be 5c08 66be 89cb 5cbd fdb5 633e
000002a0: 3fa9 79be 1cdb 14be a042 543d 9e3e 533e
000002b0: c0b7 393c c4c4 ca3d 8044 853d 9a26 80be
000002c0: 3a8c 053e 11e3 42be d44f e03d f8c5 a2bc
000002d0: 160e 5cbe c671 d9bd 70fb b83e fb19 f0bd
000002e0: cee7 633e a11d a63d 734a 94be 0c05 813d
000002f0: 1f59 393e ca10 8dbd eac7 5cbe 788f c73d
00000300: e138 5a3d 0032 5a3a b7ba 1e3e c34d b43d

network.4.L1.bias f4 [14]
0.022415549 -0.092382565 -0.02456153 0.17894034 0.13690838 -0.10650222 0.17719205 -0.24771711
0.09533682 -0.08957033 -0.24621256 0.13434957 -0.15425915 0.11301174
00000000: d0a0 b73c 1233 bdbd 4335 c9bc 233c 373e
00000010: b631 0c3e d61d dabd d571 353e 8ea9 7dbe
00000020: f33f c33d a670 b7bd 251f 7cbe ef92 093e
00000030: 1cf6 1dbe b372 e73d

network.4.L2.weight f4 [14, 14]
0.16807741 -0.29400605 -0.19185305 0.47068024 0.014324926 0.094796546 -0.18010186 -0.0315788
-0.12946272 0.025085926 -0.10895083 0.22007439 0.23287867 0.03587243 0.1013278 -0.116561286
-0.0011639704 -0.023782412 0.15218864 -0.25188136 0.27161208 0.24138257 0.059326995 0.003982109
-0.024857467 -0.1355186 -0.1396321 0.09391754 -0.038911223 0.18061915 0.15487853 -0.2198028
0.04340014 -0.16143402 0.057180405 -0.11291854 0.17913896 0.14522919 -0.03917505 -0.023720294
-0.019902378 -0.00048694015 0.24078082 0.2470113 0.0024671836 0.059367485 -0.21889874 0.039692696
-0.19136095 -0.09359344 -0.103532255 0.24516031 0.10728 0.21375507 -0.044308335 -0.23521441
-0.044257842 0.032206953 -0.23716174 -0.07752158 0.07926075 0.049042094 -0.051421817 -0.19336854
0.18710554 0.07105909 0.2646037 0.21577266 -0.019452251 -0.19208725 -0.06533274 0.12709221
0.018915355 0.21455461 0.2588611 0.13558629 -0.020129189 -0.12623058 -0.06740038 -0.2212676
0.15936702 0.033383757 -0.25186262 -0.10116063 -0.22478683 -0.115776874 -0.1602906 0.04561813
0.2557827 0.039081205 -0.17301096 0.06406411 0.10918713 -0.218957 -0.18226266 -0.02230958
0.21240126 0.164691 0.08343435 -0.26382893 0.0861831 -0.08611231 -0.0130159985 -0.24450673
0.09895838 0.005702195 0.13738151 -0.09626262 0.15695657 -0.10234068 -0.14267045 0.17945196
0.0708648 0.11177245 -0.007417172 -0.021807924 -0.23345833 0.26452902 0.023882836 -0.119569585
-0.22213005 -0.0576265 -0.24074264 0.121296495 -0.2449944 0.24435154 0.017541371 -0.24471654
-0.03158316 -0.3926993 -0.0024113934 0.07139598 -0.064711094 0.019840315 -0.2076454 0.22928461
0.027042422 0.28624102 -0.2863761 -0.26697287 -0.07945115 0.038727213 0.2086808 0.03839967
0.15388876 0.048187844 0.14306164 -0.01071788 -0.15229024 -0.032750588 0.29743502 -0.09528778
-0.05701203 -0.0293364 -0.10272442 -0.25126657 0.06834212 0.25059643 -0.18668723 -0.0817474
-0.08513728 -0.16343908 -0.18874052 -0.21793237 -0.011656225 -0.19006185 0.07948035 -0.0029416978
0.1144614 0.19075918 0.18463385 -0.17290519 -0.113409884 0.02904185 0.106979445 -0.12360435
-0.08085034 -0.011185913 0.22897136 0.15040942 -0.25358576 -0.11960542 -0.2225448 0.14760399
-0.060761288 -0.17417273 -0.2217421 -0.06553882 -0.058227148 0.24180825 -0.10660168 -0.0031569714
-0.009564247 0.031277027 0.24862164 0.22709657
00000000: 7c1c 2c3e f687 96be 2075 44be 00fd f03e
00000010: 18b3 6a3c b124 c23d 9f6c 38be c658 01bd
00000020: e091 04be 0081 cd3c 9d21 dfbd 2e5b 613e
00000030: bf77 6e3e f8ee 123d f384 cf3d afb7 eebd
00000040: 5e90 98ba 55d3 c2bc 57d7 1b3e 98f6 80be
00000050: bd10 8b3e fe2c 773e dd00 733d 5a7c 823b
00000060: e3a1 cbbc 63c5 0abe b8fb 0ebe d757 c03d
00000070: 6061 1fbd 3af4 383e 7a98 1e3e fc13 61be
00000080: 58c4 313d f64e 25be 0036 6a3d d641 e7bd
00000090: 3470 373e f6b6 143e 0476 20bd 1051 c2bc
000000a0: 500a a3bc 004c ffb9 3f8f 763e 88f0 7c3e
000000b0: 79b0 213b 522b 733d fe26 60be cf94 223d
000000c0: 20f4 43be ebad bfbd b808 d4bd 4e0b 7b3e
000000d0: 9eb5 db3d 9ce2 5a3e a87c 35bd 0cdc 70be
000000e0: b647 35bd 70eb 033d 87da 72be a2c3 9ebd
000000f0: 7653 a23d 5de0 483d af9f 52bd 6702 46be
00000100: 9898 3f3e 6e87 913d 237a 873e 82f3 5c3e
00000110: 545a 9fbc 85b2 44be 2ccd 85bd 7624 023e
00000120: 60f4 9a3c 34b4 5b3e 7189 843e 22d7 0a3e
00000130: f8e5 a4bc 9742 01be 3609 8abd f993 62be
00000140: 1c31 233e 68bd 083d 23f4 80be 4e2d cfbd
00000150: 852e 66be 6d1c edbd 3823 24be 14da 3a3d
00000160: f3f5 823e 9d13 203d c929 31be 0b34 833d
00000170: 819d df3d 4436 60be 10a3 3abe 95c2 b6bc
00000180: b77f 593e c2a4 283e a1df aa3d 9614 87be
00000190: c480 b03d a75b b0bd 0e41 55bc f95f 7abe
000001a0: b1aa ca3d 7bd9 ba3b bdad 0c3e 5625 c5bd
000001b0: 39b9 203e fe97 d1bd 3418 12be 41c2 373e
000001c0: 9021 913d f4e8 e43d c00b f3bb 88a6 b2bc
000001d0: b30f 6fbe 5970 873e f0a5 c33c e6e0 f4bd
000001e0: 0f76 63be c409 6cbd 3d85 76be 4c6a f83d
000001f0: d0df 7abe 4a37 7a3e ecb2 8f3c f996 7abe
00000200: 585d 01bd e20f c9be 7808 1ebb 0e38 923d
00000210: 4087 84bd 2888 a23c ffa0 54be 96c9 6a3e
00000220: 1288 dd3c 2f8e 923e e39f 92be abb0 88be
00000230: 49b7 a2bd 6da0 1e3d 6bb0 553e f948 1d3d
00000240: 0495 1d3e 9e60 453d c07e 123e 0c9a 2fbc
00000250: f9f1 1bbe 7b25 06bd 6749 983e 3d26 c3bd
00000260: 7285 69bd e452 f0bc 2e61 d2bd 03a6 80be
00000270: f4f6 8b3d 2d4e 803e f02a 3fbe 2e6b a7bd
00000280: 745c aebd 935c 27be 3245 41be aa29 5fbe
00000290: c0f9 3ebc 939f 42be 98c6 a23d 80c9 40bb
000002a0: bd6a ea3d 6056 433e a810 3d3e 0f0e 31be
000002b0: 7143 e8bd 2ce9 ed3c 0a18 db3d 4724 fdbd
000002c0: dd94 a5bd 1f45 37bc 7877 6a3e ed04 1a3e
000002d0: fed5 81be b0f3 f4bd c9e2 63be 8025 173e
000002e0: d4e0 78bd 565a 32be 5c10 63be 3839 86bd
000002f0: 977f 6ebd 959c 773e fb51 dabd 31e5 4ebb
00000300: 5cb3 1cbc 571c 003d ac96 7e3e 018c 683e

network.4.L2.bias f4 [14]
-0.09766928 -0.12585883 -0.1423488 -0.13489027 0.1298485 -0.25641578 0.19674318 0.0102990465
-0.10335854 0.035645813 0.059959948 -0.19749251 -0.26167783 0.04687938
00000000: d506 c8bd 23e1 00be e2c3 11be ad20 0abe
00000010: 01f7 043e ee48 83be 0b77 493e 55bd 283c
00000020: a4ad d3bd 5801 123d 9098 753d 7a3b 4abe
00000030: a3fa 85be 9804 403d

network.5.weight f4 [1, 14]
-0.04005891 0.067417935 -0.052069157 0.07215141 -0.28689462 0.1733252 -0.24600796 -0.27385494
0.22163686 -0.19955747 0.036033936 0.17328694 -0.17272967 0.2984007
00000000: d014 24bd 6a12 8a3d 7846 55bd 1ec4 933d
00000010: dae3 92be 297c 313e 83e9 7bbe b736 8cbe
00000020: c6f4 623e cb58 4cbe 5298 133d 2272 313e
00000030: 0ce0 30be fac7 983e
