PathDependent/outputNN/_flocking_full_D4_d2_dest4_orig1_average_fiu0_1_fix1_gi40_Depth4sigma0_1_sigma00_gamma0_1_gamma00_0.pth (torch, 41185 bytes, 96 tensors)

first.weight f4 [18, 17]
000000 09 c6 7e be 25 66 25 3e 24 5e c8 3e ce a2 90 3c
       -0.24880232 0.16152246 0.39134324 0.017655756
000010 c4 d0 bd bd 79 9a e0 bd 92 1c 91 3d d5 e9 74 3d
       -0.092683345 -0.10966963 0.070855275 0.059793312
000020 4b 91 35 3e b2 7e 84 be 10 fc 8e bd db 6e 9d 3c
       0.17731206 -0.2587791 -0.06981671 0.0192179
000030 75 82 81 bd ec 95 ac 3d 94 6f e9 bd 10 01 04 be
       -0.06323711 0.08427033 -0.11398235 -0.1289103
000040 68 46 71 bd b8 35 1e bc ec 33 64 3e ac c3 bf bd
       -0.058905035 -0.009656362 0.22285432 -0.09363493
000050 86 9a 57 be df ca da 3c ec 2d f6 bc 63 81 30 3e
       -0.2105504 0.026708065 -0.030051194 0.17236857
000060 57 75 a6 3c 0f 43 59 3e ab 5b 1a 3c 09 01 02 3d
       0.020319624 0.21216987 0.009421269 0.03173927
000070 47 3a e3 bd 5e 63 36 3d 1d e8 39 be 66 a9 b4 3d
       -0.110951 0.044528358 -0.1815495 0.08821373
000080 40 76 2d 3e 1d de 9a 3d 67 89 87 be b1 62 33 be
       0.1693964 0.07561896 -0.26472017 -0.17518117
000090 d5 07 10 be aa a0 36 bd 76 f8 f4 3d a5 76 9c 3d
       -0.14065488 -0.044586815 0.11961453 0.07639817
0000a0 72 3d 4d 3e 86 b7 12 be 47 a8 0a be ad 26 26 bd
       0.20042971 -0.14327821 -0.13540755 -0.040564228
0000b0 52 cc 5d 3e 09 1b 93 3c 5e 2f 57 be bc 4c 83 ba
       0.21659973 0.017957227 -0.21014163 -0.0010017375
0000c0 d0 0a 81 be 88 0c 23 be 0e c2 22 3e be 65 ea bd
       -0.25203562 -0.15922749 0.15894338 -0.11445187
0000d0 e3 74 c8 be 8c 52 5a 3e 81 99 c0 3d be bd 0e 3e
       -0.39151677 0.21320552 0.094042785 0.13939568
0000e0 58 a4 e7 bd e2 94 26 3e a5 cb 0d 3e c1 76 0e 3e
       -0.11310643 0.16267732 0.13847215 0.13912489
0000f0 91 ff 26 3e 67 ae f6 3d e0 39 74 be 9b 14 51 3e
       0.16308428 0.12044983 -0.23850203 0.20418017
000100 6a cb 16 be ef 56 41 3e 89 b9 e7 3d a9 88 ea bd
       -0.14726034 0.18880819 0.11314685 -0.11451847
000110 d3 c1 58 3e b8 e6 e7 3d 06 96 e8 3e 03 b9 b0 3c
       0.21167688 0.11323303 0.4542696 0.021572595
000120 d9 c0 1a be 8c a8 20 3e bc 44 fd bd bf 7d e6 bd
       -0.15112628 0.15689296 -0.12366626 -0.11254453
000130 a7 85 b3 bd 83 b0 9c bd 65 a3 c8 bd 22 fd ef 3b
       -0.087657265 -0.076508544 -0.0979679 0.007323877
000140 a9 8e 61 3d 7d d7 f4 bd a3 07 81 3e 69 6b 7a bd
       0.055067692 -0.11955164 0.2520114 -0.06113759
000150 0b cc 74 3e fe ea 98 3d 47 92 f8 3e 7c 9f 47 be
       0.23905961 0.07466696 0.485491 -0.19494432
000160 51 e8 1c bd 6c de c6 bd 0a 3a 67 be 35 ba 35 3c
       -0.03830749 -0.09710392 -0.22580734 0.0110917585
000170 3c 5a ca bc 88 6c 1a 3e c1 59 2b be 0f 51 80 bd
       -0.02470123 0.15080464 -0.16733457 -0.06265461
000180 c0 47 78 3e 0e 62 82 3c 15 79 10 be 03 39 91 bd
       0.2424612 0.015915897 -0.14108689 -0.07090952
000190 ec ce 51 ba 46 5c 5d 3e 86 04 26 bd 6b 01 97 3e
       -0.0008003551 0.21617231 -0.040531658 0.2949327
0001a0 ae 8e 52 3c 62 e9 df bd 5a c3 25 bd 9f 0b 0a 3c
       0.0128514 -0.10933186 -0.040469505 0.008425622
0001b0 72 75 90 3d 1d 00 dd 3d ab a3 b3 3b 92 74 2e 3d
       0.07053651 0.10791037 0.005482157 0.04259164
0001c0 55 c6 44 bd cc 12 9a 3d 1d 10 5c bd f0 2b 12 3d
       -0.048040707 0.075231165 -0.053726304 0.035686433
0001d0 37 97 a2 bd c4 54 6b be 95 bb 97 3e 84 29 97 3d
       -0.07938998 -0.22981554 0.296353 0.07380965
0001e0 a1 43 a9 3d 1f 23 10 3e 7d 78 04 be 98 56 91 3e
       0.08264852 0.14075898 -0.12936588 0.28386378
0001f0 4e 99 f2 3d e1 88 85 3e c7 16 90 3e 26 cb 5f be
       0.11845647 0.26080993 0.28142378 -0.21854839
000200 b8 be 5b 3e 7e 6f 63 bb 2d e8 2c 3e ab d2 92 3d
       0.21459472 -0.0034703906 0.16885443 0.07169088
000210 e1 05 18 3e 67 74 94 bb 02 86 4b 3e c6 80 17 be
       0.14845993 -0.004530478 0.19875339 -0.14795217
000220 4a b9 d0 bd 69 02 b7 3e a7 9b c3 3d ae b8 24 3e
       -0.10191591 0.35744026 0.09551173 0.16086075
000230 2e 6a 63 3d df c1 90 3d 8e 7f f6 bd 7e 5e 26 3d
       0.055521183 0.07068228 -0.12036048 0.04061746
000240 3d 5d f5 3d b2 0e af 3d d1 b8 62 3d 9e 2c 9d bd
       0.119806744 0.08547725 0.055352036 -0.07674526
000250 b9 80 84 be 60 28 e6 bd 45 79 71 3d e6 79 89 3d
       -0.25879458 -0.1123817 0.058953542 0.067127034
000260 a4 39 53 3e 76 7a 27 be 33 b5 e9 be 18 3a 4b 3e
       0.20627457 -0.16355309 -0.45646057 0.1984638
000270 aa c0 3d bd 54 f5 69 3e 6e e8 74 bd 4f 69 8f 3e
       -0.046326317 0.22847492 -0.059791975 0.28010032
000280 5e 36 a3 3e 53 8c 24 be 16 f7 ca 3d 91 1d b4 3d
       0.31877416 -0.16069154 0.09910409 0.08794702
000290 51 d1 f1 bd a8 a1 d9 bd 34 70 51 bd 95 02 b2 bd
       -0.11807502 -0.106265366 -0.051132396 -0.08691899
0002a0 b4 11 96 bc db 45 51 be 79 5a df bd 27 5c 73 3e
       -0.018318988 -0.20436804 -0.10905928 0.23765622
0002b0 d1 57 da 3d aa 42 95 bd 53 4d 5c 3d 2f f0 0f be
       0.10661281 -0.07288106 0.05378468 -0.14056467
0002c0 33 30 85 bd 15 e7 48 be 18 ad 1e 3c db 85 07 3e
       -0.06503334 -0.19619401 0.009684823 0.13234656
0002d0 a3 a4 26 3e d2 ab 21 3e ec 24 bf bd 6c 2d b4 bb
       0.16273741 0.157882 -0.09333214 -0.005498579
0002e0 30 47 7b 3d 3c 03 36 3e b2 98 ba bd 38 05 4d 3e
       0.061347187 0.17774671 -0.091111556 0.20021522
0002f0 0e 0d 77 be 78 ae 28 3e db 36 fd bd 56 c4 23 be
       -0.24126074 0.16472805 -0.123639785 -0.15992865
000300 d0 6c 1a 3e ca 82 3d be b8 e8 26 be 6a 67 07 3d
       0.15080571 -0.18506923 -0.16299713 0.033057608
000310 74 5c 4e be 9d 3e 09 3e 69 cb ac 3d 9d 36 11 3e
       -0.20152456 0.13402791 0.08437235 0.1418099
000320 6d 63 23 3c 07 f8 d5 3d 85 51 79 3d bb d9 4d 3d
       0.009972435 0.10447698 0.06086876 0.050256472
000330 12 72 3e bd d1 09 74 3e fb 75 cb be bb 1c 3c be
       -0.046495505 0.2383187 -0.3973845 -0.18370335
000340 88 cb 00 bd b3 b5 59 3d 68 ea 91 3d 59 ba f3 3d
       -0.031444103 0.053151798 0.071247876 0.11900777
000350 7f 80 b5 bd 8f 6c ff 3d d5 07 4b 3e a2 95 02 3e
       -0.08862399 0.12471878 0.19827206 0.12752393
000360 b3 d8 40 bb 79 e9 84 bd 22 be 06 3e 50 d5 5b be
       -0.0029426038 -0.06489844 0.13158467 -0.21468091
000370 47 52 cf bd 6f c7 82 be 14 08 b8 bc 68 c8 a9 3e
       -0.10123115 -0.2554278 -0.02246479 0.3316071
000380 bb 81 26 be 1e 26 6a be 62 42 87 bc ff 5b 9d 3c
       -0.16260426 -0.22866103 -0.016511146 0.019208906
000390 f3 b7 98 3d 56 26 23 be 2e c9 b1 3d aa 1e 1c 3e
       0.074569605 -0.15932593 0.0868095 0.15246072
0003a0 87 35 0a 3e 71 ba 13 3e 99 24 c0 bd b5 e3 01 3d
       0.13496982 0.1442659 -0.093819804 0.0317113
0003b0 84 c1 f9 bd 58 86 6b 3e c3 e7 ac 3d 5e e8 ae be
       -0.12195113 0.23000467 0.084426425 -0.34161657
0003c0 13 82 56 be aa 6f 82 be 30 af d1 bd 59 ec 2d be
       -0.20948057 -0.25475818 -0.102384925 -0.1698469
0003d0 94 19 0b be ee c3 8d bd dd ce 07 bd 23 81 63 bd
       -0.13583976 -0.06922136 -0.033156265 -0.055543076
0003e0 54 3d 14 3d a8 3b 0f 3b e4 54 79 bd 9d 66 50 3d
       0.0361913 0.0021855626 -0.060871974 0.05087911
0003f0 fe 0b 83 be 50 01 b0 bd 33 b5 10 3e f9 79 2f be
       -0.25595087 -0.08594 0.14131622 -0.17136373

first.bias f4 [18]
000000 69 b0 84 bd 91 77 87 be b7 ed a9 bc f3 87 11 be
       -0.0647896 -0.2645841 -0.020743234 -0.14212017
000010 9b 25 59 be 7b b2 f9 3d 64 e5 3d be eb d0 28 bd
       -0.21205752 0.121922456 -0.18544537 -0.041214865
000020 0f aa 01 3e ec 0f 20 bc 14 cc 7c 3d 61 02 50 be
       0.12662528 -0.009769421 0.06171806 -0.20313407
000030 0f 9a 22 be f4 18 17 3e 08 dc 52 be 06 21 f3 3d
       -0.15879081 0.14755613 -0.20591748 0.11871533
000040 54 a0 ea 3d fb 1c af bd
       0.114563614 -0.085504495

last.weight f4 [2, 18]
000000 10 51 2c bd 67 07 f5 3c 46 99 42 be 0d b2 10 3e
       -0.042069495 0.029910756 -0.19003782 0.14130421
000010 c4 1d 03 3e 14 bb 62 be 73 ec b1 be 37 d1 16 3e
       0.12804323 -0.22141677 -0.3475071 0.14728247
000020 7d 68 4a 3d 05 7b 17 3e e8 87 60 3e a5 1c d2 bd
       0.049416054 0.14793022 0.21926844 -0.1025937
000030 56 07 43 be 07 a0 11 be 07 ba a8 3e 69 d8 a3 3d
       -0.19045767 -0.14221202 0.32954428 0.08000261
000040 44 6b 18 3e 7b 47 ec 3c c0 3c 48 bd 20 86 13 be
       0.14884669 0.028842678 -0.04888606 -0.14406633
000050 fe 29 c7 3d 5f b4 0f 3e 25 f8 07 be 80 44 30 3e
       0.09724806 0.1403365 -0.13278253 0.1721363
000060 7a 0f 49 be ef 54 b8 3c bb de 97 be 6c 6e ee bd
       -0.1963481 0.022501437 -0.29662117 -0.11642155
000070 3a e3 4b be 06 7a 07 be 82 ff b4 bd e7 42 6b be
       -0.19910899 -0.13230142 -0.08837797 -0.2297474
000080 5e e7 a4 3d bd 58 1b be e2 74 86 3d 8a 4e de bd
       0.08051942 -0.1517057 0.065652624 -0.10854824

last.bias f4 [2]
000000 38 d4 5d 3e 62 92 6c 3e
       0.21662986 0.23102716

network.0.weight f4 [18, 17]
000000 09 c6 7e be 25 66 25 3e 24 5e c8 3e ce a2 90 3c
       -0.24880232 0.16152246 0.39134324 0.017655756
000010 c4 d0 bd bd 79 9a e0 bd 92 1c 91 3d d5 e9 74 3d
       -0.092683345 -0.10966963 0.070855275 0.059793312
000020 4b 91 35 3e b2 7e 84 be 10 fc 8e bd db 6e 9d 3c
       0.17731206 -0.2587791 -0.06981671 0.0192179
000030 75 82 81 bd ec 95 ac 3d 94 6f e9 bd 10 01 04 be
       -0.06323711 0.08427033 -0.11398235 -0.1289103
000040 68 46 71 bd b8 35 1e bc ec 33 64 3e ac c3 bf bd
       -0.058905035 -0.009656362 0.22285432 -0.09363493
000050 86 9a 57 be df ca da 3c ec 2d f6 bc 63 81 30 3e
       -0.2105504 0.026708065 -0.030051194 0.17236857
000060 57 75 a6 3c 0f 43 59 3e ab 5b 1a 3c 09 01 02 3d
       0.020319624 0.21216987 0.009421269 0.03173927
000070 47 3a e3 bd 5e 63 36 3d 1d e8 39 be 66 a9 b4 3d
       -0.110951 0.044528358 -0.1815495 0.08821373
000080 40 76 2d 3e 1d de 9a 3d 67 89 87 be b1 62 33 be
       0.1693964 0.07561896 -0.26472017 -0.17518117
000090 d5 07 10 be aa a0 36 bd 76 f8 f4 3d a5 76 9c 3d
       -0.14065488 -0.044586815 0.11961453 0.07639817
0000a0 72 3d 4d 3e 86 b7 12 be 47 a8 0a be ad 26 26 bd
       0.20042971 -0.14327821 -0.13540755 -0.040564228
0000b0 52 cc 5d 3e 09 1b 93 3c 5e 2f 57 be bc 4c 83 ba
       0.21659973 0.017957227 -0.21014163 -0.0010017375
0000c0 d0 0a 81 be 88 0c 23 be 0e c2 22 3e be 65 ea bd
       -0.25203562 -0.15922749 0.15894338 -0.11445187
0000d0 e3 74 c8 be 8c 52 5a 3e 81 99 c0 3d be bd 0e 3e
       -0.39151677 0.21320552 0.094042785 0.13939568
0000e0 58 a4 e7 bd e2 94 26 3e a5 cb 0d 3e c1 76 0e 3e
       -0.11310643 0.16267732 0.13847215 0.13912489
0000f0 91 ff 26 3e 67 ae f6 3d e0 39 74 be 9b 14 51 3e
       0.16308428 0.12044983 -0.23850203 0.20418017
000100 6a cb 16 be ef 56 41 3e 89 b9 e7 3d a9 88 ea bd
       -0.14726034 0.18880819 0.11314685 -0.11451847
000110 d3 c1 58 3e b8 e6 e7 3d 06 96 e8 3e 03 b9 b0 3c
       0.21167688 0.11323303 0.4542696 0.021572595
000120 d9 c0 1a be 8c a8 20 3e bc 44 fd bd bf 7d e6 bd
       -0.15112628 0.15689296 -0.12366626 -0.11254453
000130 a7 85 b3 bd 83 b0 9c bd 65 a3 c8 bd 22 fd ef 3b
       -0.087657265 -0.076508544 -0.0979679 0.007323877
000140 a9 8e 61 3d 7d d7 f4 bd a3 07 81 3e 69 6b 7a bd
       0.055067692 -0.11955164 0.2520114 -0.06113759
000150 0b cc 74 3e fe ea 98 3d 47 92 f8 3e 7c 9f 47 be
       0.23905961 0.07466696 0.485491 -0.19494432
000160 51 e8 1c bd 6c de c6 bd 0a 3a 67 be 35 ba 35 3c
       -0.03830749 -0.09710392 -0.22580734 0.0110917585
000170 3c 5a ca bc 88 6c 1a 3e c1 59 2b be 0f 51 80 bd
       -0.02470123 0.15080464 -0.16733457 -0.06265461
000180 c0 47 78 3e 0e 62 82 3c 15 79 10 be 03 39 91 bd
       0.2424612 0.015915897 -0.14108689 -0.07090952
000190 ec ce 51 ba 46 5c 5d 3e 86 04 26 bd 6b 01 97 3e
       -0.0008003551 0.21617231 -0.040531658 0.2949327
0001a0 ae 8e 52 3c 62 e9 df bd 5a c3 25 bd 9f 0b 0a 3c
       0.0128514 -0.10933186 -0.040469505 0.008425622
0001b0 72 75 90 3d 1d 00 dd 3d ab a3 b3 3b 92 74 2e 3d
       0.07053651 0.10791037 0.005482157 0.04259164
0001c0 55 c6 44 bd cc 12 9a 3d 1d 10 5c bd f0 2b 12 3d
       -0.048040707 0.075231165 -0.053726304 0.035686433
0001d0 37 97 a2 bd c4 54 6b be 95 bb 97 3e 84 29 97 3d
       -0.07938998 -0.22981554 0.296353 0.07380965
0001e0 a1 43 a9 3d 1f 23 10 3e 7d 78 04 be 98 56 91 3e
       0.08264852 0.14075898 -0.12936588 0.28386378
0001f0 4e 99 f2 3d e1 88 85 3e c7 16 90 3e 26 cb 5f be
       0.11845647 0.26080993 0.28142378 -0.21854839
000200 b8 be 5b 3e 7e 6f 63 bb 2d e8 2c 3e ab d2 92 3d
       0.21459472 -0.0034703906 0.16885443 0.07169088
000210 e1 05 18 3e 67 74 94 bb 02 86 4b 3e c6 80 17 be
       0.14845993 -0.004530478 0.19875339 -0.14795217
000220 4a b9 d0 bd 69 02 b7 3e a7 9b c3 3d ae b8 24 3e
       -0.10191591 0.35744026 0.09551173 0.16086075
000230 2e 6a 63 3d df c1 90 3d 8e 7f f6 bd 7e 5e 26 3d
       0.055521183 0.07068228 -0.12036048 0.04061746
000240 3d 5d f5 3d b2 0e af 3d d1 b8 62 3d 9e 2c 9d bd
       0.119806744 0.08547725 0.055352036 -0.07674526
000250 b9 80 84 be 60 28 e6 bd 45 79 71 3d e6 79 89 3d
       -0.25879458 -0.1123817 0.058953542 0.067127034
000260 a4 39 53 3e 76 7a 27 be 33 b5 e9 be 18 3a 4b 3e
       0.20627457 -0.16355309 -0.45646057 0.1984638
000270 aa c0 3d bd 54 f5 69 3e 6e e8 74 bd 4f 69 8f 3e
       -0.046326317 0.22847492 -0.059791975 0.28010032
000280 5e 36 a3 3e 53 8c 24 be 16 f7 ca 3d 91 1d b4 3d
       0.31877416 -0.16069154 0.09910409 0.08794702
000290 51 d1 f1 bd a8 a1 d9 bd 34 70 51 bd 95 02 b2 bd
       -0.11807502 -0.106265366 -0.051132396 -0.08691899
0002a0 b4 11 96 bc db 45 51 be 79 5a df bd 27 5c 73 3e
       -0.018318988 -0.20436804 -0.10905928 0.23765622
0002b0 d1 57 da 3d aa 42 95 bd 53 4d 5c 3d 2f f0 0f be
       0.10661281 -0.07288106 0.05378468 -0.14056467
0002c0 33 30 85 bd 15 e7 48 be 18 ad 1e 3c db 85 07 3e
       -0.06503334 -0.19619401 0.009684823 0.13234656
0002d0 a3 a4 26 3e d2 ab 21 3e ec 24 bf bd 6c 2d b4 bb
       0.16273741 0.157882 -0.09333214 -0.005498579
0002e0 30 47 7b 3d 3c 03 36 3e b2 98 ba bd 38 05 4d 3e
       0.061347187 0.17774671 -0.091111556 0.20021522
0002f0 0e 0d 77 be 78 ae 28 3e db 36 fd bd 56 c4 23 be
       -0.24126074 0.16472805 -0.123639785 -0.15992865
000300 d0 6c 1a 3e ca 82 3d be b8 e8 26 be 6a 67 07 3d
       0.15080571 -0.18506923 -0.16299713 0.033057608
000310 74 5c 4e be 9d 3e 09 3e 69 cb ac 3d 9d 36 11 3e
       -0.20152456 0.13402791 0.08437235 0.1418099
000320 6d 63 23 3c 07 f8 d5 3d 85 51 79 3d bb d9 4d 3d
       0.009972435 0.10447698 0.06086876 0.050256472
000330 12 72 3e bd d1 09 74 3e fb 75 cb be bb 1c 3c be
       -0.046495505 0.2383187 -0.3973845 -0.18370335
000340 88 cb 00 bd b3 b5 59 3d 68 ea 91 3d 59 ba f3 3d
       -0.031444103 0.053151798 0.071247876 0.11900777
000350 7f 80 b5 bd 8f 6c ff 3d d5 07 4b 3e a2 95 02 3e
       -0.08862399 0.12471878 0.19827206 0.12752393
000360 b3 d8 40 bb 79 e9 84 bd 22 be 06 3e 50 d5 5b be
       -0.0029426038 -0.06489844 0.13158467 -0.21468091
000370 47 52 cf bd 6f c7 82 be 14 08 b8 bc 68 c8 a9 3e
       -0.10123115 -0.2554278 -0.02246479 0.3316071
000380 bb 81 26 be 1e 26 6a be 62 42 87 bc ff 5b 9d 3c
       -0.16260426 -0.22866103 -0.016511146 0.019208906
000390 f3 b7 98 3d 56 26 23 be 2e c9 b1 3d aa 1e 1c 3e
       0.074569605 -0.15932593 0.0868095 0.15246072
0003a0 87 35 0a 3e 71 ba 13 3e 99 24 c0 bd b5 e3 01 3d
       0.13496982 0.1442659 -0.093819804 0.0317113
0003b0 84 c1 f9 bd 58 86 6b 3e c3 e7 ac 3d 5e e8 ae be
       -0.12195113 0.23000467 0.084426425 -0.34161657
0003c0 13 82 56 be aa 6f 82 be 30 af d1 bd 59 ec 2d be
       -0.20948057 -0.25475818 -0.102384925 -0.1698469
0003d0 94 19 0b be ee c3 8d bd dd ce 07 bd 23 81 63 bd
       -0.13583976 -0.06922136 -0.033156265 -0.055543076
0003e0 54 3d 14 3d a8 3b 0f 3b e4 54 79 bd 9d 66 50 3d
       0.0361913 0.0021855626 -0.060871974 0.05087911
0003f0 fe 0b 83 be 50 01 b0 bd 33 b5 10 3e f9 79 2f be
       -0.25595087 -0.08594 0.14131622 -0.17136373

network.0.bias f4 [18]
000000 69 b0 84 bd 91 77 87 be b7 ed a9 bc f3 87 11 be
       -0.0647896 -0.2645841 -0.020743234 -0.14212017
000010 9b 25 59 be 7b b2 f9 3d 64 e5 3d be eb d0 28 bd
       -0.21205752 0.121922456 -0.18544537 -0.041214865
000020 0f aa 01 3e ec 0f 20 bc 14 cc 7c 3d 61 02 50 be
       0.12662528 -0.009769421 0.06171806 -0.20313407
000030 0f 9a 22 be f4 18 17 3e 08 dc 52 be 06 21 f3 3d
       -0.15879081 0.14755613 -0.20591748 0.11871533
000040 54 a0 ea 3d fb 1c af bd
       0.114563614 -0.085504495

network.1.L1.weight f4 [18, 18]
000000 3c 0a 88 3d b5 96 ae 3c 27 df 8d 3d be d7 13 be
       0.06642577 0.021312097 0.069273286 -0.14437768
000010 9f 12 9c bd 83 47 9a bd 44 41 21 3a 33 81 0c bc
       -0.07620739 -0.07533171 0.0006151388 -0.008575725
000020 47 14 66 3e e8 2b 9b be 82 ab 8c 3d 5c 06 6f be
       0.22468673 -0.30306935 0.0686865 -0.2334227
000030 ac 87 91 3e d7 64 9b 3e 1f 2f 62 3e b8 41 bb bd
       0.28423822 0.30350372 0.22088288 -0.09143394
000040 43 07 28 3e 06 52 91 3d a3 b5 b0 bc 53 8c 14 3d
       0.1640902 0.07095723 -0.021570986 0.036266636
000050 c7 0d 62 bd 92 da 8d 3d ec fc 01 3c 32 c8 32 3a
       -0.05518892 0.069264546 0.007933836 0.00068199926
000060 92 f8 7a bd d9 d6 9d bd a1 a2 14 3d f0 98 4e bd
       -0.06127221 -0.077069946 0.036287908 -0.05043882
000070 f7 0f 52 be 93 58 94 bc d9 f2 1d 3d 0b e6 2d be
       -0.20513903 -0.018108642 0.038561676 -0.16982286
000080 62 51 21 be 8c 2f cc 3d e3 b5 12 3b 84 7f 9c bd
       -0.15753701 0.09970006 0.0022386245 -0.07641509
000090 d6 f2 2f 3e b4 b6 57 3e 43 b6 00 3e 36 a0 f7 3d
       0.17182478 0.2106579 0.12569527 0.12091105
0000a0 ca da 84 3d 52 a1 8f 3d 6c ce 3a be 23 4f 61 bd
       0.06487043 0.07013191 -0.18242806 -0.05500711
0000b0 7f ba ba 3d f3 8e a5 3d ba 7e bb 3d 29 21 81 be
       0.091176026 0.08083906 0.091550305 -0.25220612
0000c0 69 7b 62 3e 04 e7 41 be 6a dc cc bd 6b 28 fe 3d
       0.2211739 -0.18935782 -0.10002978 0.12410053
0000d0 4f 4b bf 3d dc a3 fa bd c2 ab 85 3e 1b b5 22 3e
       0.09340536 -0.12238285 0.26107603 0.15889399
0000e0 2c 72 59 bd ba e5 b8 bd 74 5e 8c 3e 35 c2 0e be
       -0.0530874 -0.09028192 0.27415812 -0.13941272
0000f0 b8 62 96 3d 82 38 b5 3e aa 88 32 be 72 27 d9 3d
       0.07343048 0.35394675 -0.17434946 0.10603227
000100 c2 c3 e5 bd 60 d9 7a 3e 52 9b e0 bd 42 8b 94 3d
       -0.112189785 0.24496984 -0.10967125 0.07253124
000110 21 44 9f be fc d2 ab bc 31 71 30 3e 68 29 6d be
       -0.31106666 -0.020974629 0.17230679 -0.23160326
000120 04 1d 5e bd 67 35 5b 3e 50 85 98 bc 08 e2 ab bc
       -0.05422689 0.2140709 -0.018618256 -0.020981804
000130 38 2a d3 3c f5 87 0f 3e 78 a0 d1 bd 31 6e 17 3e
       0.025776967 0.14016707 -0.10235685 0.14788128
000140 81 f5 18 be 32 60 53 be 98 8b 8e bc 73 69 55 be
       -0.14937402 -0.20642164 -0.017400548 -0.20841007
000150 a8 17 56 be c8 62 16 be b8 d1 22 be 46 44 be 3d
       -0.20907462 -0.1468612 -0.15900314 0.09290366
000160 63 7a 03 3e 9d 8e 66 3e 55 aa d7 3d 79 f2 b0 bd
       0.12839656 0.2251534 0.10530535 -0.08639998
000170 f8 62 8a 3e 90 62 6b bc fb 97 fa bd 93 b7 84 bd
       0.27028632 -0.014366761 -0.12236019 -0.064803265
000180 ca 39 98 bd 96 96 9d 3c 6c ed f4 bd 74 37 eb bc
       -0.074328974 0.019236844 -0.11959347 -0.028712966
000190 93 ef e0 3e 0b e8 a2 bc 16 17 e7 3d 22 51 33 be
       0.4393278 -0.019886037 0.112837 -0.17511418
0001a0 9a 2c 6f 3e 29 7e 53 3e d1 4b ad 3d fc f0 12 3e
       0.23356858 0.20653595 0.084617265 0.1434974
0001b0 3a ec 66 3c ee 45 9a 3e d3 13 62 3e aa 60 99 bd
       0.014094407 0.30131477 0.22077875 -0.0748914
0001c0 5a 0d 93 be ea 74 4f 3e 00 26 e2 3d 3f f0 a2 be
       -0.28721124 0.20259443 0.11042404 -0.31823918
0001d0 1a 1f 20 be f4 62 4e be 06 15 83 3e b8 41 fc 3d
       -0.15636864 -0.20154935 0.25601977 0.12317222
0001e0 a3 c3 88 3e 9f 9d 70 39 78 4b 26 be 69 d7 40 3d
       0.2671176 0.00022946902 -0.16239727 0.04708043
0001f0 c8 0a 43 bd dd 0b b3 3e bd 4e 82 3e 27 08 7e be
       -0.047617704 0.34969988 0.25450698 -0.24807797
000200 ed 5e 3d 3e c9 87 21 3e 9e 13 27 3e 78 6b 0b 3e
       0.18493243 0.15774454 0.16316077 0.13615215
000210 65 85 7d 3e d2 90 68 3e 47 e1 6f bb 93 28 a7 3e
       0.24757917 0.22711495 -0.0036602782 0.32648143
000220 83 a8 90 be dc 16 ee 3d a1 91 35 3e 0e 8a 51 3c
       -0.28253564 0.11625454 0.17731334 0.012789262
000230 74 3d d0 bc 9b 6e a4 3d 24 fa 41 3e 07 b2 78 bd
       -0.025419928 0.08028909 0.18943077 -0.060716655
000240 f1 4b 62 bd bb 08 17 bd 9e c9 82 be bb ab 48 3e
       -0.055248205 -0.03687356 -0.25544447 0.1959676
000250 d2 2e 30 3e e9 09 69 bd 0d 60 68 3e 9e df 94 be
       0.1720536 -0.056894217 0.2269289 -0.29076856
000260 0a fd 28 3e e7 76 c1 bd d2 32 a8 3e d9 d8 0c 3d
       0.16502777 -0.09446507 0.32851273 0.03438649
000270 ee 6c 83 3e dc 24 aa 3e d3 12 f3 bc 61 6a 84 be
       0.25669044 0.33231246 -0.029672062 -0.2586241
000280 30 31 4b 3e 47 59 09 3e 30 59 96 3d 00 76 04 be
       0.19842982 0.13412963 0.0734123 -0.12935638
000290 04 c7 ea 3c a9 44 3b be 60 0b f9 3d 71 0a 01 bd
       0.028659351 -0.1828791 0.12160373 -0.0315041
0002a0 52 6c 25 be 68 a7 d5 3d c1 0e 02 3e 0c ba a0 bd
       -0.16154602 0.10432321 0.1270094 -0.078479856
0002b0 41 c5 f1 be b0 2b 24 3e a0 7c 33 3e d8 60 4b 3e
       -0.47220805 0.1603229 0.1752801 0.19861162
0002c0 8a 4a b7 be 59 2b 86 bc a4 3d c5 3d 9d 9a cd bd
       -0.35799056 -0.016378092 0.09630898 -0.10039256
0002d0 0d 9a 51 bd bb b0 5b be a1 7e 79 3c 8c f0 3d bd
       -0.051172305 -0.21454136 0.015227945 -0.04637198
0002e0 b0 6c 85 3c 0c e0 67 3e d0 07 6e 3e d0 a6 1c be
       0.016287178 0.22644061 0.23245168 -0.15298009
0002f0 62 aa a4 3d 29 23 36 3e f7 e2 af be e4 47 a6 bd
       0.080403104 0.1778685 -0.34352848 -0.08119181
000300 c8 45 01 3e f1 ac 71 3d d4 a7 9a 3d e2 66 02 bd
       0.12624276 0.05900282 0.07551542 -0.031836398
000310 48 df c0 ba 9d ea 18 3e 77 99 0d 3e 00 ab 90 bc
       -0.001471498 0.14933248 0.13828073 -0.017659664
000320 a4 bc 4c be 80 d1 f2 3a 47 40 30 3e a4 79 16 3d
       -0.19993836 0.0018525571 0.1721202 0.0367371
000330 cd 98 62 3e 59 cb e4 bd ec 87 21 be 1a b6 ab bd
       0.22128601 -0.11171598 -0.15774506 -0.083843425
000340 78 02 6d bd 79 60 45 be 10 9d 7b 3c c2 64 a6 bd
       -0.057863683 -0.19275083 0.015357271 -0.08124687
000350 40 41 4b be 8b ab f8 bd 6a 85 cf 3d 3e 1d 0b be
       -0.1984911 -0.12142094 0.101328686 -0.13585374
000360 07 71 28 3d 7f 74 0b 3e ca 63 4a be e2 76 2e be
       0.041123416 0.13618658 -0.19764629 -0.17037538
000370 80 44 cb 3a aa aa 78 bd 3f 61 1c 3e cb d8 53 be
       0.0015508085 -0.060709633 0.15271471 -0.20688169
000380 af c8 5e be 82 dc b7 3d 23 f8 65 3d 41 1a 32 be
       -0.21756242 0.089776054 0.056144845 -0.17392828
000390 e7 01 e9 3d 14 7c 5a bd 69 b0 1e 3d a9 7a 57 bd
       0.11377316 -0.053340986 0.038742457 -0.052607212
0003a0 16 95 98 3d 02 c4 e1 bd 6c e2 c8 3d a8 57 a5 bd
       0.07450311 -0.11023714 0.098088115 -0.0807336
0003b0 51 e0 2b 3d 34 5e 1c 3d da 51 1b be 50 71 7d 3d
       0.04196197 0.038175777 -0.15167943 0.06187564
0003c0 38 4a e6 bd 68 b2 13 3e 22 ed 1d 3e 45 ce 7a be
       -0.11244625 0.14423525 0.1542249 -0.24492748
0003d0 e2 82 9f 3b ad b1 32 bc 6d 99 38 be 22 cc 3a bc
       0.0048678974 -0.010906619 -0.18027277 -0.011401208
0003e0 c2 a7 5f be ab a9 2b 3e b0 a1 08 3c 71 c7 dc bd
       -0.21841338 0.16763942 0.008339331 -0.10780228
0003f0 b0 ed 89 3e 06 69 91 bc 3d 89 31 3e 41 5a 44 be
       0.26939154 -0.017750274 0.17337508 -0.19175054

network.1.L1.bias f4 [18]
000000 72 a7 6c 3e 21 34 61 3e 0c 1f f3 3d 8a 5b 17 be
       0.2311075 0.21992542 0.11871156 -0.14781013
000010 7e 44 6b be a5 4e 19 bc 20 4c 25 be 54 09 4e 3e
       -0.22975346 -0.009357129 -0.1614232 0.20120746
000020 b8 4b 42 bd c0 55 aa bd cf ae 84 3c 7e aa 4a be
       -0.047435492 -0.08317137 0.016196636 -0.197916
000030 a8 ba 09 be aa b7 be 3c 93 fc d7 3d 77 0c ff 3c
       -0.1345011 0.023280937 0.105462216 0.031133873
000040 aa 2e 1c be 80 db 9e 3b
       -0.15252176 0.004847944

network.1.L2.weight f4 [18, 18]
000000 00 e8 1d 3e bb 48 5d 3e 77 fc 6c be 89 63 99 3e
       0.15420532 0.21609776 -0.23143183 0.29958752
000010 94 5c 79 bd 77 5e 15 be d8 d5 e4 bd df e3 24 3e
       -0.060879305 -0.14586817 -0.111736 0.16102551
000020 c8 6e a3 be a5 b9 69 3e ff 9e 62 3d 48 f2 a7 3a
       -0.31920457 0.22824724 0.05532741 0.0012813294
000030 39 78 d9 3c e9 eb 84 be c6 e8 13 3d 22 18 00 be
       0.026546584 -0.25961235 0.036110662 -0.12509206
000040 df 1a 1a 3e e8 68 c6 bd 38 32 2b bd 5c 13 37 3e
       0.15049313 -0.09687978 -0.04179594 0.17878479
000050 81 81 bd 3d 6c 4e d8 3d c2 87 80 3e 65 20 06 3e
       0.092532165 0.10561833 0.25103575 0.13098295
000060 fd 79 c7 bd 9a f9 4f 3e f9 65 f8 3d 8a 44 82 be
       -0.09740064 0.20310059 0.12128825 -0.25442916
000070 56 a4 66 bd 60 1a e6 3d 09 1d 71 3c 4c a4 47 be
       -0.056309067 0.112354994 0.014716395 -0.19496268
000080 90 96 f3 bd 1f 0d 61 be a5 ad b0 bb 82 28 f1 3d
       -0.11893952 -0.21977662 -0.005391794 0.117753044
000090 18 53 d5 bd b1 c8 4f 3e ff f3 b4 bd 54 df ff 3d
       -0.104162395 0.20291401 -0.08835601 0.12493768
0000a0 d4 f3 3a be 08 c6 79 3e cc d4 13 be 78 59 95 3e
       -0.18257076 0.24391949 -0.14436644 0.29169822
0000b0 1d 60 95 be fd 5e 90 be e4 71 69 3e 3d 7f e6 bd
       -0.2917489 -0.2819747 0.22797352 -0.112547375
0000c0 0b fb 1d 3e a9 fc 91 be fa 0c 9d 3d f1 f3 b4 3d
       0.15427797 -0.28513077 0.07668491 0.08835591
0000d0 f0 25 af 3d 14 b8 90 be 28 bc 1b be c0 75 58 bc
       0.08552158 -0.2826544 -0.15208495 -0.013211668
0000e0 ef 6d 23 3e d2 6e c5 3d db 6e 17 3e 72 41 f7 bd
       0.15959905 0.09640278 0.14788382 -0.120730296
0000f0 cb 37 31 3e 36 4a 62 be 56 7c 0a be ac ed 5c bd
       0.1730644 -0.22098622 -0.13523993 -0.0539376
000100 18 81 04 bd 1d c2 51 3e d8 80 28 be 86 62 cb 3d
       -0.032349676 0.20484205 -0.164554 0.09930901
000110 db f6 51 3e 1d e3 19 be 4a 8f af 3d 99 5c 02 3e
       0.20504324 -0.15028043 0.08572252 0.12730636
000120 ec fe e9 bd fc 8f 34 be a8 49 81 bd b7 0b d3 3e
       -0.114255756 -0.1763305 -0.06312877 0.41219875
000130 6c c8 37 bd cd 1e 62 bc a9 5a ad be ca 6f 64 bd
       -0.04486887 -0.013801289 -0.3385823 -0.055770673
000140 0c b5 c8 be 8f 63 a9 3e e3 7f 26 3d f5 60 10 bd
       -0.39200628 0.3308377 0.040649306 -0.035248715
000150 38 92 01 be fd eb 20 bd 62 86 94 3e 96 82 58 3e
       -0.12653434 -0.039287556 0.29008776 0.21143565
000160 99 7c 6e bd ea 4f b0 3c 1f ad 78 3d 87 f5 27 be
       -0.058224294 0.021522481 0.060711976 -0.16402255
000170 b2 5e ff bc 08 bd f5 3c fb b4 4c 3e ed ae 09 be
       -0.031173084 0.029997364 0.19990914 -0.13445635
000180 74 b0 96 3d 15 4a db 3d e2 80 5e 3e 38 24 ed 3d
       0.073578745 0.107074894 0.21728852 0.11579174
000190 33 46 30 bd 51 db 7e 3e f3 f3 a8 3c a3 7d 9e bd
       -0.043035697 0.2488835 0.020624137 -0.07738807
0001a0 23 8a d5 3d 2a f5 a3 3d 7d f3 5e 3e 18 a6 f1 3c
       0.10426738 0.08005746 0.21772571 0.029498145
0001b0 91 2e 69 3e 6a 1a b1 be fc 50 86 bc 27 6b f9 3d
       0.2277167 -0.34590465 -0.016396038 0.12178641
0001c0 5b a5 54 3e 34 88 c7 3c a0 e4 72 bd 87 37 26 3e
       0.20766203 0.024356939 -0.059300065 0.1623212
0001d0 8a e0 79 bd 7d 19 36 3e e3 32 0e be 42 8c 5a 3e
       -0.061005153 0.1778316 -0.13886599 0.21342567
0001e0 cd 58 2c 3c d9 87 a7 3e 55 67 09 bd d4 41 68 bd
       0.010519219 0.3272083 -0.03354581 -0.056703404
0001f0 e4 b2 9b 3c f2 46 bf 3e 05 ad a9 bb bc ac 22 3d
       0.0190062 0.37358814 -0.0051780962 0.039715514
000200 1e a0 28 be 2f 76 d0 bc 10 a6 d3 3d ee 8a f4 3d
       -0.1646733 -0.02544698 0.10334408 0.11940561
000210 f8 25 80 3b d2 d3 38 3d b5 b3 f9 be 4a e5 60 3e
       0.003910776 0.045123883 -0.48769918 0.21962467
000220 7d f4 a3 3d cc 96 06 be 7e ca 82 3c 0c 44 a9 be
       0.08005617 -0.13143462 0.015965696 -0.33059728
000230 b9 66 80 3e d3 50 05 3e 19 a0 12 bd de 6c 89 be
       0.2507837 0.13019113 -0.035797212 -0.26840872
000240 da a6 e3 3d 5e 80 02 3e 52 bd a7 bd f7 84 a2 be
       0.11115809 0.1274428 -0.08190407 -0.3174207
000250 2e 8e 52 3e 43 c3 0f be 02 48 14 3e ad e4 3b 3e
       0.2056205 -0.1403933 0.14480594 0.18348952
000260 03 14 46 3e 38 ff ed bd 78 1e 9d 3e 23 1c 26 be
       0.19343571 -0.11620945 0.30687308 -0.16221671
000270 48 f8 28 be 1f d4 e8 bd 21 92 7d 3d 03 01 5f 3e
       -0.16500962 -0.11368584 0.061906938 0.2177773
000280 08 3a 47 3e 9e 1b ec 3d 15 39 04 3e 91 db bc 3e
       0.19455731 0.11528705 0.129124 0.36886266
000290 48 49 ca 3d 7a 09 86 bd 98 14 f3 bd 79 b6 09 3e
       0.098772585 -0.06544776 -0.11869162 0.13448514
0002a0 25 eb 56 3e 5e 91 ba 3d 60 b5 4f 3e 87 64 80 bf
       0.20988138 0.09109758 0.20284033 -1.0030679
0002b0 57 4a 20 3e fe a6 60 3d 43 42 3f 3d 34 b9 e2 be
       0.15653358 0.054846756 0.04669405 -0.44281924
0002c0 9f 42 e1 3d 6a e6 38 be 90 0a 93 3e d5 47 55 3d
       0.10999035 -0.18056646 0.28718996 0.052070457
0002d0 c4 23 a0 3e 2a 3a ca bd ab 03 48 3d 11 dc b2 be
       0.31277287 -0.09874375 0.048831623 -0.34933522
0002e0 03 9a a6 3d e1 ff 58 3e 21 ee f4 bd ec c2 42 3e
       0.08134844 0.2119136 -0.11959482 0.1901967
0002f0 2e b7 c0 3e 0a 30 84 be c8 19 97 3a 3e 94 98 be
       0.37639755 -0.258179 0.0011528069 -0.298006
000300 69 2d b0 3d a4 f1 4c bd 20 54 98 be 7b b4 6a 3e
       0.08602411 -0.050035134 -0.29751682 0.2292041
000310 86 c4 11 be 82 ac 8d be f8 c9 c4 bd 6d 95 10 3e
       -0.14235124 -0.27670676 -0.09608835 0.14119501
000320 a0 ac 98 bd 79 80 b5 3e 7f 44 4d 3e a6 7b 8e be
       -0.074548006 0.3544958 0.2004566 -0.2782871
000330 51 ca 9d bd 4b 59 4a 3e f2 50 cb be 32 c7 c8 3d
       -0.077046044 0.19760625 -0.39710194 0.098036185
000340 2c 26 6c be 1c 36 81 3e 10 70 a3 3c f4 09 45 be
       -0.23061436 0.25236595 0.019950897 -0.19242078
000350 95 48 80 3e 3c d5 4d 3e 25 e9 5a be 77 96 bd 3e
       0.25055376 0.20100874 -0.21378 0.37028858
000360 59 7d a0 3e 8e 32 ca bd ec 46 c1 bc db 3f 82 be
       0.31345633 -0.09872924 -0.023593388 -0.25439343
000370 85 71 b0 bd be ca 39 3e 47 97 9c bd 68 53 eb 3d
       -0.08615402 0.18143746 -0.07646041 0.11490518
000380 4b 06 e1 3e a1 86 34 be 3e 70 25 3e 65 37 87 bd
       0.43950114 -0.17629482 0.16156098 -0.066023625
000390 97 31 34 be 54 ae 16 3e e4 63 99 bd 2b a4 1c 3e
       -0.17597042 0.14714938 -0.07489756 0.15297
0003a0 96 c6 61 3d aa 30 09 3e 4e 26 32 3e 70 c3 91 bc
       0.055121027 0.1339747 0.17397425 -0.017793387
0003b0 f4 91 5d be 81 04 79 3e dc 26 57 3e 0e fd 1f 3d
       -0.21637708 0.24318124 0.21010917 0.03905969
0003c0 56 27 fc 3b 5b 66 3c 3e dc 22 61 3e fb 7d 2f 3e
       0.007695119 0.1839842 0.21985954 0.17137901
0003d0 b1 68 78 bd 09 38 62 3e 04 90 d3 be cf 46 3e 3e
       -0.060646717 0.22091688 -0.41320813 0.18581699
0003e0 35 e8 79 be e0 eb c3 3d 82 04 41 be fc 36 dc 3e
       -0.24404986 0.09566474 -0.18849376 0.430107
0003f0 eb 82 29 be df ca 5d be 29 c1 a4 bd bb 4b 6c be
       -0.16553847 -0.2165942 -0.08044655 -0.23075764

network.1.L2.bias f4 [18]
000000 8e a9 16 3e ff 60 6e be 1d e0 44 3e 8a 9d 46 be
       0.14713117 -0.23279189 0.19226117 -0.19396034
000010 2b 73 44 3d 48 c3 64 be 51 2a 09 3e a8 28 83 be
       0.047961395 -0.22340119 0.13395049 -0.25616956
000020 c9 61 0b bc 4c 07 d4 bd 0b db c6 bd ad 00 d5 3d
       -0.0085072005 -0.10352954 -0.09709748 0.104005195
000030 c2 42 2a 3e ca 2c 8f bc 54 f0 0b bd 2c 16 34 3d
       0.16627029 -0.017477412 -0.03416474 0.043966457
000040 1d 6e b4 3d 3c 28 1e 3e
       0.08810065 0.15445036

network.2.L1.weight f4 [18, 18]
000000 3c 0a 88 3d b5 96 ae 3c 27 df 8d 3d be d7 13 be
       0.06642577 0.021312097 0.069273286 -0.14437768
000010 9f 12 9c bd 83 47 9a bd 44 41 21 3a 33 81 0c bc
       -0.07620739 -0.07533171 0.0006151388 -0.008575725
000020 47 14 66 3e e8 2b 9b be 82 ab 8c 3d 5c 06 6f be
       0.22468673 -0.30306935 0.0686865 -0.2334227
000030 ac 87 91 3e d7 64 9b 3e 1f 2f 62 3e b8 41 bb bd
       0.28423822 0.30350372 0.22088288 -0.09143394
000040 43 07 28 3e 06 52 91 3d a3 b5 b0 bc 53 8c 14 3d
       0.1640902 0.07095723 -0.021570986 0.036266636
000050 c7 0d 62 bd 92 da 8d 3d ec fc 01 3c 32 c8 32 3a
       -0.05518892 0.069264546 0.007933836 0.00068199926
000060 92 f8 7a bd d9 d6 9d bd a1 a2 14 3d f0 98 4e bd
       -0.06127221 -0.077069946 0.036287908 -0.05043882
000070 f7 0f 52 be 93 58 94 bc d9 f2 1d 3d 0b e6 2d be
       -0.20513903 -0.018108642 0.038561676 -0.16982286
000080 62 51 21 be 8c 2f cc 3d e3 b5 12 3b 84 7f 9c bd
       -0.15753701 0.09970006 0.0022386245 -0.07641509
000090 d6 f2 2f 3e b4 b6 57 3e 43 b6 00 3e 36 a0 f7 3d
       0.17182478 0.2106579 0.12569527 0.12091105
0000a0 ca da 84 3d 52 a1 8f 3d 6c ce 3a be 23 4f 61 bd
       0.06487043 0.07013191 -0.18242806 -0.05500711
0000b0 7f ba ba 3d f3 8e a5 3d ba 7e bb 3d 29 21 81 be
       0.091176026 0.08083906 0.091550305 -0.25220612
0000c0 69 7b 62 3e 04 e7 41 be 6a dc cc bd 6b 28 fe 3d
       0.2211739 -0.18935782 -0.10002978 0.12410053
0000d0 4f 4b bf 3d dc a3 fa bd c2 ab 85 3e 1b b5 22 3e
       0.09340536 -0.12238285 0.26107603 0.15889399
0000e0 2c 72 59 bd ba e5 b8 bd 74 5e 8c 3e 35 c2 0e be
       -0.0530874 -0.09028192 0.27415812 -0.13941272
0000f0 b8 62 96 3d 82 38 b5 3e aa 88 32 be 72 27 d9 3d
       0.07343048 0.35394675 -0.17434946 0.10603227
000100 c2 c3 e5 bd 60 d9 7a 3e 52 9b e0 bd 42 8b 94 3d
       -0.112189785 0.24496984 -0.10967125 0.07253124
000110 21 44 9f be fc d2 ab bc 31 71 30 3e 68 29 6d be
       -0.31106666 -0.020974629 0.17230679 -0.23160326
000120 04 1d 5e bd 67 35 5b 3e 50 85 98 bc 08 e2 ab bc
       -0.05422689 0.2140709 -0.018618256 -0.020981804
000130 38 2a d3 3c f5 87 0f 3e 78 a0 d1 bd 31 6e 17 3e
       0.025776967 0.14016707 -0.10235685 0.14788128
000140 81 f5 18 be 32 60 53 be 98 8b 8e bc 73 69 55 be
       -0.14937402 -0.20642164 -0.017400548 -0.20841007
000150 a8 17 56 be c8 62 16 be b8 d1 22 be 46 44 be 3d
       -0.20907462 -0.1468612 -0.15900314 0.09290366
000160 63 7a 03 3e 9d 8e 66 3e 55 aa d7 3d 79 f2 b0 bd
       0.12839656 0.2251534 0.10530535 -0.08639998
000170 f8 62 8a 3e 90 62 6b bc fb 97 fa bd 93 b7 84 bd
       0.27028632 -0.014366761 -0.12236019 -0.064803265
000180 ca 39 98 bd 96 96 9d 3c 6c ed f4 bd 74 37 eb bc
       -0.074328974 0.019236844 -0.11959347 -0.028712966
000190 93 ef e0 3e 0b e8 a2 bc 16 17 e7 3d 22 51 33 be
       0.4393278 -0.019886037 0.112837 -0.17511418
0001a0 9a 2c 6f 3e 29 7e 53 3e d1 4b ad 3d fc f0 12 3e
       0.23356858 0.20653595 0.084617265 0.1434974
0001b0 3a ec 66 3c ee 45 9a 3e d3 13 62 3e aa 60 99 bd
       0.014094407 0.30131477 0.22077875 -0.0748914
0001c0 5a 0d 93 be ea 74 4f 3e 00 26 e2 3d 3f f0 a2 be
       -0.28721124 0.20259443 0.11042404 -0.31823918
0001d0 1a 1f 20 be f4 62 4e be 06 15 83 3e b8 41 fc 3d
       -0.15636864 -0.20154935 0.25601977 0.12317222
0001e0 a3 c3 88 3e 9f 9d 70 39 78 4b 26 be 69 d7 40 3d
       0.2671176 0.00022946902 -0.16239727 0.04708043
0001f0 c8 0a 43 bd dd 0b b3 3e bd 4e 82 3e 27 08 7e be
       -0.047617704 0.34969988 0.25450698 -0.24807797
000200 ed 5e 3d 3e c9 87 21 3e 9e 13 27 3e 78 6b 0b 3e
       0.18493243 0.15774454 0.16316077 0.13615215
000210 65 85 7d 3e d2 90 68 3e 47 e1 6f bb 93 28 a7 3e
       0.24757917 0.22711495 -0.0036602782 0.32648143
000220 83 a8 90 be dc 16 ee 3d a1 91 35 3e 0e 8a 51 3c
       -0.28253564 0.11625454 0.17731334 0.012789262
000230 74 3d d0 bc 9b 6e a4 3d 24 fa 41 3e 07 b2 78 bd
       -0.025419928 0.08028909 0.18943077 -0.060716655
000240 f1 4b 62 bd bb 08 17 bd 9e c9 82 be bb ab 48 3e
       -0.055248205 -0.03687356 -0.25544447 0.1959676
000250 d2 2e 30 3e e9 09 69 bd 0d 60 68 3e 9e df 94 be
       0.1720536 -0.056894217 0.2269289 -0.29076856
000260 0a fd 28 3e e7 76 c1 bd d2 32 a8 3e d9 d8 0c 3d
       0.16502777 -0.09446507 0.32851273 0.03438649
000270 ee 6c 83 3e dc 24 aa 3e d3 12 f3 bc 61 6a 84 be
       0.25669044 0.33231246 -0.029672062 -0.2586241
000280 30 31 4b 3e 47 59 09 3e 30 59 96 3d 00 76 04 be
       0.19842982 0.13412963 0.0734123 -0.12935638
000290 04 c7 ea 3c a9 44 3b be 60 0b f9 3d 71 0a 01 bd
       0.028659351 -0.1828791 0.12160373 -0.0315041
0002a0 52 6c 25 be 68 a7 d5 3d c1 0e 02 3e 0c ba a0 bd
       -0.16154602 0.10432321 0.1270094 -0.078479856
0002b0 41 c5 f1 be b0 2b 24 3e a0 7c 33 3e d8 60 4b 3e
       -0.47220805 0.1603229 0.1752801 0.19861162
0002c0 8a 4a b7 be 59 2b 86 bc a4 3d c5 3d 9d 9a cd bd
       -0.35799056 -0.016378092 0.09630898 -0.10039256
0002d0 0d 9a 51 bd bb b0 5b be a1 7e 79 3c 8c f0 3d bd
       -0.051172305 -0.21454136 0.015227945 -0.04637198
0002e0 b0 6c 85 3c 0c e0 67 3e d0 07 6e 3e d0 a6 1c be
       0.016287178 0.22644061 0.23245168 -0.15298009
0002f0 62 aa a4 3d 29 23 36 3e f7 e2 af be e4 47 a6 bd
       0.080403104 0.1778685 -0.34352848 -0.08119181
000300 c8 45 01 3e f1 ac 71 3d d4 a7 9a 3d e2 66 02 bd
       0.12624276 0.05900282 0.07551542 -0.031836398
000310 48 df c0 ba 9d ea 18 3e 77 99 0d 3e 00 ab 90 bc
       -0.001471498 0.14933248 0.13828073 -0.017659664
000320 a4 bc 4c be 80 d1 f2 3a 47 40 30 3e a4 79 16 3d
       -0.19993836 0.0018525571 0.1721202 0.0367371
000330 cd 98 62 3e 59 cb e4 bd ec 87 21 be 1a b6 ab bd
       0.22128601 -0.11171598 -0.15774506 -0.083843425
000340 78 02 6d bd 79 60 45 be 10 9d 7b 3c c2 64 a6 bd
       -0.057863683 -0.19275083 0.015357271 -0.08124687
000350 40 41 4b be 8b ab f8 bd 6a 85 cf 3d 3e 1d 0b be
       -0.1984911 -0.12142094 0.101328686 -0.13585374
000360 07 71 28 3d 7f 74 0b 3e ca 63 4a be e2 76 2e be
       0.041123416 0.13618658 -0.19764629 -0.17037538
000370 80 44 cb 3a aa aa 78 bd 3f 61 1c 3e cb d8 53 be
       0.0015508085 -0.060709633 0.15271471 -0.20688169
000380 af c8 5e be 82 dc b7 3d 23 f8 65 3d 41 1a 32 be
       -0.21756242 0.089776054 0.056144845 -0.17392828
000390 e7 01 e9 3d 14 7c 5a bd 69 b0 1e 3d a9 7a 57 bd
       0.11377316 -0.053340986 0.038742457 -0.052607212
0003a0 16 95 98 3d 02 c4 e1 bd 6c e2 c8 3d a8 57 a5 bd
       0.07450311 -0.11023714 0.098088115 -0.0807336
0003b0 51 e0 2b 3d 34 5e 1c 3d da 51 1b be 50 71 7d 3d
       0.04196197 0.038175777 -0.15167943 0.06187564
0003c0 38 4a e6 bd 68 b2 13 3e 22 ed 1d 3e 45 ce 7a be
       -0.11244625 0.14423525 0.1542249 -0.24492748
0003d0 e2 82 9f 3b ad b1 32 bc 6d 99 38 be 22 cc 3a bc
       0.0048678974 -0.010906619 -0.18027277 -0.011401208
0003e0 c2 a7 5f be ab a9 2b 3e b0 a1 08 3c 71 c7 dc bd
       -0.21841338 0.16763942 0.008339331 -0.10780228
0003f0 b0 ed 89 3e 06 69 91 bc 3d 89 31 3e 41 5a 44 be
       0.26939154 -0.017750274 0.17337508 -0.19175054

network.2.L1.bias f4 [18]
000000 72 a7 6c 3e 21 34 61 3e 0c 1f f3 3d 8a 5b 17 be
       0.2311075 0.21992542 0.11871156 -0.14781013
000010 7e 44 6b be a5 4e 19 bc 20 4c 25 be 54 09 4e 3e
       -0.22975346 -0.009357129 -0.1614232 0.20120746
000020 b8 4b 42 bd c0 55 aa bd cf ae 84 3c 7e aa 4a be
       -0.047435492 -0.08317137 0.016196636 -0.197916
000030 a8 ba 09 be aa b7 be 3c 93 fc d7 3d 77 0c ff 3c
       -0.1345011 0.023280937 0.105462216 0.031133873
000040 aa 2e 1c be 80 db 9e 3b
       -0.15252176 0.004847944

network.2.L2.weight f4 [18, 18]
000000 00 e8 1d 3e bb 48 5d 3e 77 fc 6c be 89 63 99 3e
       0.15420532 0.21609776 -0.23143183 0.29958752
000010 94 5c 79 bd 77 5e 15 be d8 d5 e4 bd df e3 24 3e
       -0.060879305 -0.14586817 -0.111736 0.16102551
000020 c8 6e a3 be a5 b9 69 3e ff 9e 62 3d 48 f2 a7 3a
       -0.31920457 0.22824724 0.05532741 0.0012813294
000030 39 78 d9 3c e9 eb 84 be c6 e8 13 3d 22 18 00 be
       0.026546584 -0.25961235 0.036110662 -0.12509206
000040 df 1a 1a 3e e8 68 c6 bd 38 32 2b bd 5c 13 37 3e
       0.15049313 -0.09687978 -0.04179594 0.17878479
000050 81 81 bd 3d 6c 4e d8 3d c2 87 80 3e 65 20 06 3e
       0.092532165 0.10561833 0.25103575 0.13098295
000060 fd 79 c7 bd 9a f9 4f 3e f9 65 f8 3d 8a 44 82 be
       -0.09740064 0.20310059 0.12128825 -0.25442916
000070 56 a4 66 bd 60 1a e6 3d 09 1d 71 3c 4c a4 47 be
       -0.056309067 0.112354994 0.014716395 -0.19496268
000080 90 96 f3 bd 1f 0d 61 be a5 ad b0 bb 82 28 f1 3d
       -0.11893952 -0.21977662 -0.005391794 0.117753044
000090 18 53 d5 bd b1 c8 4f 3e ff f3 b4 bd 54 df ff 3d
       -0.104162395 0.20291401 -0.08835601 0.12493768
0000a0 d4 f3 3a be 08 c6 79 3e cc d4 13 be 78 59 95 3e
       -0.18257076 0.24391949 -0.14436644 0.29169822
0000b0 1d 60 95 be fd 5e 90 be e4 71 69 3e 3d 7f e6 bd
       -0.2917489 -0.2819747 0.22797352 -0.112547375
0000c0 0b fb 1d 3e a9 fc 91 be fa 0c 9d 3d f1 f3 b4 3d
       0.15427797 -0.28513077 0.07668491 0.08835591
0000d0 f0 25 af 3d 14 b8 90 be 28 bc 1b be c0 75 58 bc
       0.08552158 -0.2826544 -0.15208495 -0.013211668
0000e0 ef 6d 23 3e d2 6e c5 3d db 6e 17 3e 72 41 f7 bd
       0.15959905 0.09640278 0.14788382 -0.120730296
0000f0 cb 37 31 3e 36 4a 62 be 56 7c 0a be ac ed 5c bd
       0.1730644 -0.22098622 -0.13523993 -0.0539376
000100 18 81 04 bd 1d c2 51 3e d8 80 28 be 86 62 cb 3d
       -0.032349676 0.20484205 -0.164554 0.09930901
000110 db f6 51 3e 1d e3 19 be 4a 8f af 3d 99 5c 02 3e
       0.20504324 -0.15028043 0.08572252 0.12730636
000120 ec fe e9 bd fc 8f 34 be a8 49 81 bd b7 0b d3 3e
       -0.114255756 -0.1763305 -0.06312877 0.41219875
000130 6c c8 37 bd cd 1e 62 bc a9 5a ad be ca 6f 64 bd
       -0.04486887 -0.013801289 -0.3385823 -0.055770673
000140 0c b5 c8 be 8f 63 a9 3e e3 7f 26 3d f5 60 10 bd
       -0.39200628 0.3308377 0.040649306 -0.035248715
000150 38 92 01 be fd eb 20 bd 62 86 94 3e 96 82 58 3e
       -0.12653434 -0.039287556 0.29008776 0.21143565
000160 99 7c 6e bd ea 4f b0 3c 1f ad 78 3d 87 f5 27 be
       -0.058224294 0.021522481 0.060711976 -0.16402255
000170 b2 5e ff bc 08 bd f5 3c fb b4 4c 3e ed ae 09 be
       -0.031173084 0.029997364 0.19990914 -0.13445635
000180 74 b0 96 3d 15 4a db 3d e2 80 5e 3e 38 24 ed 3d
       0.073578745 0.107074894 0.21728852 0.11579174
000190 33 46 30 bd 51 db 7e 3e f3 f3 a8 3c a3 7d 9e bd
       -0.043035697 0.2488835 0.020624137 -0.07738807
0001a0 23 8a d5 3d 2a f5 a3 3d 7d f3 5e 3e 18 a6 f1 3c
       0.10426738 0.08005746 0.21772571 0.029498145
0001b0 91 2e 69 3e 6a 1a b1 be fc 50 86 bc 27 6b f9 3d
       0.2277167 -0.34590465 -0.016396038 0.12178641
0001c0 5b a5 54 3e 34 88 c7 3c a0 e4 72 bd 87 37 26 3e
       0.20766203 0.024356939 -0.059300065 0.1623212
0001d0 8a e0 79 bd 7d 19 36 3e e3 32 0e be 42 8c 5a 3e
       -0.061005153 0.1778316 -0.13886599 0.21342567
0001e0 cd 58 2c 3c d9 87 a7 3e 55 67 09 bd d4 41 68 bd
       0.010519219 0.3272083 -0.03354581 -0.056703404
0001f0 e4 b2 9b 3c f2 46 bf 3e 05 ad a9 bb bc ac 22 3d
       0.0190062 0.37358814 -0.0051780962 0.039715514
000200 1e a0 28 be 2f 76 d0 bc 10 a6 d3 3d ee 8a f4 3d
       -0.1646733 -0.02544698 0.10334408 0.11940561
000210 f8 25 80 3b d2 d3 38 3d b5 b3 f9 be 4a e5 60 3e
       0.003910776 0.045123883 -0.48769918 0.21962467
000220 7d f4 a3 3d cc 96 06 be 7e ca 82 3c 0c 44 a9 be
       0.08005617 -0.13143462 0.015965696 -0.33059728
000230 b9 66 80 3e d3 50 05 3e 19 a0 12 bd de 6c 89 be
       0.2507837 0.13019113 -0.035797212 -0.26840872
000240 da a6 e3 3d 5e 80 02 3e 52 bd a7 bd f7 84 a2 be
       0.11115809 0.1274428 -0.08190407 -0.3174207
000250 2e 8e 52 3e 43 c3 0f be 02 48 14 3e ad e4 3b 3e
       0.2056205 -0.1403933 0.14480594 0.18348952
000260 03 14 46 3e 38 ff ed bd 78 1e 9d 3e 23 1c 26 be
       0.19343571 -0.11620945 0.30687308 -0.16221671
000270 48 f8 28 be 1f d4 e8 bd 21 92 7d 3d 03 01 5f 3e
       -0.16500962 -0.11368584 0.061906938 0.2177773
000280 08 3a 47 3e 9e 1b ec 3d 15 39 04 3e 91 db bc 3e
       0.19455731 0.11528705 0.129124 0.36886266
000290 48 49 ca 3d 7a 09 86 bd 98 14 f3 bd 79 b6 09 3e
       0.098772585 -0.06544776 -0.11869162 0.13448514
0002a0 25 eb 56 3e 5e 91 ba 3d 60 b5 4f 3e 87 64 80 bf
       0.20988138 0.09109758 0.20284033 -1.0030679
0002b0 57 4a 20 3e fe a6 60 3d 43 42 3f 3d 34 b9 e2 be
       0.15653358 0.054846756 0.04669405 -0.44281924
0002c0 9f 42 e1 3d 6a e6 38 be 90 0a 93 3e d5 47 55 3d
       0.10999035 -0.18056646 0.28718996 0.052070457
0002d0 c4 23 a0 3e 2a 3a ca bd ab 03 48 3d 11 dc b2 be
       0.31277287 -0.09874375 0.048831623 -0.34933522
0002e0 03 9a a6 3d e1 ff 58 3e 21 ee f4 bd ec c2 42 3e
       0.08134844 0.2119136 -0.11959482 0.1901967
0002f0 2e b7 c0 3e 0a 30 84 be c8 19 97 3a 3e 94 98 be
       0.37639755 -0.258179 0.0011528069 -0.298006
000300 69 2d b0 3d a4 f1 4c bd 20 54 98 be 7b b4 6a 3e
       0.08602411 -0.050035134 -0.29751682 0.2292041
000310 86 c4 11 be 82 ac 8d be f8 c9 c4 bd 6d 95 10 3e
       -0.14235124 -0.27670676 -0.09608835 0.14119501
000320 a0 ac 98 bd 79 80 b5 3e 7f 44 4d 3e a6 7b 8e be
       -0.074548006 0.3544958 0.2004566 -0.2782871
000330 51 ca 9d bd 4b 59 4a 3e f2 50 cb be 32 c7 c8 3d
       -0.077046044 0.19760625 -0.39710194 0.098036185
000340 2c 26 6c be 1c 36 81 3e 10 70 a3 3c f4 09 45 be
       -0.23061436 0.25236595 0.019950897 -0.19242078
000350 95 48 80 3e 3c d5 4d 3e 25 e9 5a be 77 96 bd 3e
       0.25055376 0.20100874 -0.21378 0.37028858
000360 59 7d a0 3e 8e 32 ca bd ec 46 c1 bc db 3f 82 be
       0.31345633 -0.09872924 -0.023593388 -0.25439343
000370 85 71 b0 bd be ca 39 3e 47 97 9c bd 68 53 eb 3d
       -0.08615402 0.18143746 -0.07646041 0.11490518
000380 4b 06 e1 3e a1 86 34 be 3e 70 25 3e 65 37 87 bd
       0.43950114 -0.17629482 0.16156098 -0.066023625
000390 97 31 34 be 54 ae 16 3e e4 63 99 bd 2b a4 1c 3e
       -0.17597042 0.14714938 -0.07489756 0.15297
0003a0 96 c6 61 3d aa 30 09 3e 4e 26 32 3e 70 c3 91 bc
       0.055121027 0.1339747 0.17397425 -0.017793387
0003b0 f4 91 5d be 81 04 79 3e dc 26 57 3e 0e fd 1f 3d
       -0.21637708 0.24318124 0.21010917 0.03905969
0003c0 56 27 fc 3b 5b 66 3c 3e dc 22 61 3e fb 7d 2f 3e
       0.007695119 0.1839842 0.21985954 0.17137901
0003d0 b1 68 78 bd 09 38 62 3e 04 90 d3 be cf 46 3e 3e
       -0.060646717 0.22091688 -0.41320813 0.18581699
0003e0 35 e8 79 be e0 eb c3 3d 82 04 41 be fc 36 dc 3e
       -0.24404986 0.09566474 -0.18849376 0.430107
0003f0 eb 82 29 be df ca 5d be 29 c1 a4 bd bb 4b 6c be
       -0.16553847 -0.2165942 -0.08044655 -0.23075764

network.2.L2.bias f4 [18]
000000 8e a9 16 3e ff 60 6e be 1d e0 44 3e 8a 9d 46 be
       0.14713117 -0.23279189 0.19226117 -0.19396034
000010 2b 73 44 3d 48 c3 64 be 51 2a 09 3e a8 28 83 be
       0.047961395 -0.22340119 0.13395049 -0.25616956
000020 c9 61 0b bc 4c 07 d4 bd 0b db c6 bd ad 00 d5 3d
       -0.0085072005 -0.10352954 -0.09709748 0.104005195
000030 c2 42 2a 3e ca 2c 8f bc 54 f0 0b bd 2c 16 34 3d
       0.16627029 -0.017477412 -0.03416474 0.043966457
000040 1d 6e b4 3d 3c 28 1e 3e
       0.08810065 0.15445036
